pl_navigation/model.pt (torch_old, 62613 bytes, 8 tensors)

fully_connected1.weight f4 [128, 37]
0.10186236 0.12656195 -0.1578069 -0.3869685 -0.18413919 0.09392363 0.008273487 0.11577712
-0.1375925 0.10291412 0.106176205 -0.25560638 -0.04898071 -0.46565711 -0.3540835 -0.021097304
-0.09831154 0.23025714 -0.21022159 -0.60079664 -0.09421068 0.16402875 0.01669314 0.16871525
-0.040382497 -0.08969908 0.16430691 -0.036648247 -0.5018486 -0.11182672 -0.37765098 0.1602694
0.031718843 -0.10309669 -0.1287193 -0.16992049 -0.051379826 0.22497395 0.03730632 0.10080385
0.07973738 -0.02520761 0.26145378 -0.4053206 -0.26933983 -0.46447754 -0.9317104 0.10889077
-0.040395573 0.041660137 0.0915578 0.19667655 0.18447095 -0.029472107 0.113347866 -0.08083689
-0.054261748 -0.11946597 -0.15596937 -0.009816254 0.15952606 0.0603436 0.04717652 -0.0055601536
0.0877537 -0.005766843 0.039394937 0.0013387792 0.25715426 0.22180712 -0.022753103 -0.06105903
0.003412581 -0.013666413 0.42979106 0.23724748 -0.15944192 -0.46792722 0.11130918 -0.115594804
-0.21416202 0.16174564 0.15537047 -0.002665748 -0.01892443 -0.14167096 -0.039583765 0.11333218
0.0030118274 -0.013580303 -0.030798567 -0.08547512 0.2832148 0.03398736 -0.13254005 -0.19326134
0.010973149 0.1296172 -0.11469569 -0.123212695 0.06022028 0.12897365 -0.073300876 0.110665195
-0.33311087 0.025690919 -0.18664949 -0.021801168 0.08103162 0.03348708 -0.047702692 0.031400185
-0.21139576 0.19534822 0.15096602 -0.16920869 0.016618744 0.02836524 0.03184864 0.14193745
0.45041415 -0.07264632 0.038694687 0.10115001 -0.285602 -0.0016853821 -0.06420742 0.07947378
-0.214927 -0.016319055 -0.05308092 0.1039486 -0.11479192 -0.05232514 0.19407327 -0.11264496
0.22319627 -0.020532515 -0.06358945 0.10956092 -0.11074751 0.18439792 0.32519454 -0.0149702905
-0.30889967 -0.078280084 0.13897239 0.0105760945 0.09998121 -0.27227923 -0.12187487 -0.009828079
0.00557262 0.009796471 0.44263014 -0.20128329 0.06754579 -0.25106338 -0.09123993 -0.07718252
-0.03692698 0.237108 -0.08782703 -0.20895107 -0.11680017 0.028306805 0.12891965 0.32351318
-0.108245775 -0.19002376 0.15049718 0.20219646 0.09398446 0.102999546 -0.07722864 0.009474663
0.25959012 0.0007154129 -0.0015772347 -0.17429887 0.1811954 0.0144983465 0.26270804 0.23945282
-0.0008499619 0.0071448265 -0.088391796 0.0034531238 -0.18098672 0.17089917 0.27147308 -0.038564563
-0.31578237 -0.18425319 -0.8901131 -0.11744443 -0.24740748 0.08191373 -0.085396126 -0.21630338
0.02650627 0.14083102 -0.12456654 -0.1290967 -0.064029425 0.03607827 0.025725992 0.15632688
0.07236095 0.1916708 0.041618325 -0.1050616 0.047112215 -0.11232505 0.07579433 0.009190741
-0.16053978 -0.12972333 0.31145597 -0.4539836 0.053773783 0.08308375 -0.0037355921 0.054196917
-0.08249175 0.114264436 -0.15010226 -0.1874993 -0.0874652 0.01026358 0.07564485 0.12001092
0.030804066 -0.078000285 0.05689784 0.10381642 -0.0027218407 -0.19623883 -0.056999825 0.021964507
0.17674941 0.27665567 -0.32995597 0.13909397 0.1020094 -0.13298082 0.4885704 -0.2504322
0.033761777 -0.026281267 0.056134686 0.111678295 0.33455712 -0.18356591 -0.2756963 -0.26999947
00000000: 379d d03d 7599 013e 2298 21be bc20 c6be
00000010: fc8e 3cbe 085b c03d 858d 073c 8e1c ed3d
00000020: 0ce5 0cbe a3c4 d23d e972 d93d d7de 82be
00000030: ff9f 48bd 9c6a eebe 6f4a b5be 41d4 acbc
00000040: 9057 c9bd 87c8 6b3e 5444 57be cfcd 19bf
00000050: 87f1 c0bd 27f7 273e 0dc0 883c b1c3 2c3e
00000060: 1e68 25bd 27b4 b7bd 1240 283e 791c 16bd
00000070: 2679 00bf 6805 e5bd 785b c1be a91d 243e
00000080: 9eeb 013d 5b24 d3bd fece 03be a3ff 2dbe
00000090: a773 52bd 925f 663e 83ce 183d 4072 ce3d
000000a0: 5a4d a33d 3180 cebc 45dd 853e 2f86 cfbe
000000b0: e9e6 89be 00d0 edbe 9384 6ebf 2002 df3d
000000c0: d475 25bd d2a3 2a3d a882 bb3d 9465 493e
000000d0: f4e5 3c3e 7d6f f1bc ed22 e83d d08d a5bd
000000e0: 9141 5ebd 93aa f4bd 6fb6 1fbe 5ad4 20bc
000000f0: cd5a 233e da2a 773d 2b3c 413d f331 b6bb
00000100: 36b8 b33d c9f7 bcbb 965c 213d fa79 af3a
00000110: b9a9 833e 6821 633e b764 babc 0919 7abd
00000120: 9ca5 5f3b 17e9 5fbc 930d dc3e 01f1 723e
00000130: be44 23be 2894 efbe 11f6 e33d f8bc ecbd
00000140: 4a4d 5bbe a6a0 253e 7019 1f3e d4b3 2ebb
00000150: 6807 9bbc 3112 11be 9622 22bd b41a e83d
00000160: 1462 453b eb7f 5ebc 474d fcbc 940d afbd
00000170: 8801 913e 5436 0b3d 94b8 07be 4de6 45be
00000180: b9c8 333c 5fba 043e 93e5 eabd f056 fcbd
00000190: 8aa9 763d ab11 043e c51e 96bd 6fa4 e23d
000001a0: 828d aabe c375 d23c 0b21 3fbe 5d98 b2bc
000001b0: e8f3 a53d c029 093d e663 43bd 7b9d 003d
000001c0: 2178 58be 5d09 483e d696 1a3e 0b45 2dbe
000001d0: 0824 883c 385e e83c b873 023d 0d58 113e
000001e0: af9c e63e 98c7 94bd 527e 1e3d bd27 cf3d
000001f0: 6d3a 92be 0ae8 dcba 2e7f 83bd 26c3 a23d
00000200: d315 5cbe 8aaf 85bc 616b 59bd 01e3 d43d
00000210: 0718 ebbd e352 56bd 25bb 463e 67b2 e6bd
00000220: 908d 643e ce33 a8bc 303b 82bd 7a61 e03d
00000230: 97cf e2bd cfd2 3c3e e67f a63e f345 75bc
00000240: 1928 9ebe 4f51 a0bd c74e 0e3e 5b47 2d3c
00000250: f3c2 cc3d 2f68 8bbe 8899 f9bd f305 21bc
00000260: 869a b63b 6181 203c 6ba0 e23e 351d 4ebe
00000270: 7255 8a3d 618b 80be 00dc babd de11 9ebd
00000280: bf40 17bd 71cc 723e a8de b3bd 45f7 55be
00000290: ed34 efbd ace3 e73c 8303 043e 85a3 a53e
000002a0: f6af ddbd 9795 42be ef1b 1a3e 970c 4f3e
000002b0: ed7a c03d 6df1 d23d 0d2a 9ebd 9e3b 1b3c
000002c0: ffe8 843e 8c8a 3b3a 37bb ceba 677b 32be
000002d0: 498b 393e 798a 6d3c ab81 863e 1f33 753e
000002e0: facf 5eba 261f ea3b c206 b5bd ce4d 623b
000002f0: 9554 39be 3100 2f3e 85fe 8a3e e0f5 1dbd
00000300: 3aae a1be deac 3cbe 74de 63bf b586 f0bd
00000310: 6358 7dbe 63c2 a73d 2ae4 aebd a27e 5dbe
00000320: ad23 d93c 0236 103e be1c ffbd ed31 04be
00000330: dc21 83bd cfc6 133d 51bf d23c 2714 203e
00000340: fa31 943d 5a45 443e fa77 2a3d 892a d7bd
00000350: bdf8 403d ad0a e6bd 0f3a 9b3d c394 163c
00000360: 8a64 24be 31d6 04be 2877 9f3e 8a70 e8be
00000370: e641 5c3d d027 aa3d d6d0 74bb 96fd 5d3d
00000380: 6ff1 a8bd 7903 ea3d 68b4 19be d1ff 3fbe
00000390: f420 b3bd 9328 283c b0eb 9a3d 49c8 f53d
000003a0: cf58 fc3c 9dbe 9fbd b60d 693d b49d d43d
000003b0: e960 32bb d5f2 48be a678 69bd e9ee b33c
000003c0: ccfd 343e d0a5 8d3e fdef a8be a66e 0e3e
000003d0: 4eea d03d 202c 08be e625 fa3e a638 80be
000003e0: ca49 0a3d d04b d7bc 7ced 653d 97b7 e43d
000003f0: 124b ab3e b4f8 3bbe 1128 8dbe 5f3d 8abe

fully_connected1.bias f4 [128]
0.0015048113 0.1091374 -0.11998177 -0.06628961 -0.024106055 -0.07712502 0.093824096 0.083528176
-0.10165329 0.014158669 -0.105862856 -0.045415178 -0.06705983 -0.0726974 -0.09894376 -0.059918113
0.0070784916 -0.010423238 -0.13382336 -0.03930404 -0.07349098 0.026969455 0.113781705 -0.05009388
0.055470813 0.08984333 0.16870178 -0.1756329 -0.043126598 -0.035906576 0.17378417 0.051464394
-0.059809323 0.07587333 0.020934673 -0.1548663 -0.036575004 0.110848956 0.089330345 0.06250111
0.012346327 0.1608264 0.088039435 0.041763082 0.046207026 -0.09450793 0.029847369 -0.07508061
-0.1596304 0.049429633 0.07008024 0.10353728 -0.0320097 0.018055035 0.055432558 -0.028555918
-0.10772215 -0.061890844 -0.027971689 -0.0014838837 -0.049180824 0.06835167 0.12270837 -0.10794448
0.18046533 0.08903377 0.004960742 -0.040402386 -0.11840459 -0.1496498 -0.019561114 -0.1415223
0.0729459 -0.18320528 -0.15122125 -0.052899938 0.16936187 -0.13352542 0.05955298 0.07378206
0.014894631 0.06303276 0.05275389 -0.004231915 0.0329937 0.19494979 0.12532233 -0.1096935
-0.0012904396 0.018197443 0.11348828 -0.104359716 -0.073736235 -0.0984038 -0.042109918 0.16633475
-0.0031561172 -0.18632302 -0.048874952 0.14478704 -0.07753215 -0.15979771 0.1132384 0.1667
-0.12476583 -0.16236053 -0.095101036 0.14310358 -0.10453544 0.02144467 0.058316845 -0.01022723
-0.08011838 -0.14209333 -0.0006943197 0.16026999 0.09581053 0.103682935 0.14200242 -0.12405933
-0.02236141 0.066606484 -0.036394678 -0.19368152 0.008915626 0.09934363 0.09715567 -0.027641673
00000000: 173d c53a 6e83 df3d 01b9 f5bd d9c2 87bd
00000010: 107a c5bc b9f3 9dbd d926 c03d d210 ab3d
00000020: 9a2f d0bd c3f9 673c a0ce d8bd 4405 3abd
00000030: aa56 89bd 60e2 94bd 07a3 cabd b26c 75bd
00000040: b1f2 e73b 3bc6 2abc fe08 09be 46fd 20bd
00000050: 7082 96bd 0cef dc3c 6206 e93d 3e2f 4dbd
00000060: 5d35 633d c8ff b73d 29c0 2c3e 1cd9 33be
00000070: 84a5 30bd c612 13bd 7af4 313e 54cc 523d
00000080: 9ffa 74bd 7a63 9b3d 317f ab3c 4595 1ebe
00000090: accf 15bd c704 e33d d4f2 b63d 9500 803d
000000a0: 4048 4a3c adaf 243e 054e b43d c40f 2b3d
000000b0: 9443 3d3d 608d c1bd 7882 f43c ddc3 99bd
000000c0: 2776 23be ba76 4a3d 3b86 8f3d 5a0b d43d
000000d0: 9a1c 03bd 27e8 933c 400d 633d 1aee e9bc
000000e0: 6e9d dcbd 4181 7dbd e224 e5bc e07e c2ba
000000f0: d571 49bd f6fb 8b3d 874e fb3d ff11 ddbd
00000100: e7cb 383e 5657 b63d b88d a23b f97c 25bd
00000110: 1b7e f2bd cc3d 19be a13e a0bc 39eb 10be
00000120: a964 953d 2a9a 3bbe bed9 1abe 9bad 58bd
00000130: 336d 2d3e e3ba 08be d3ed 733d 0c1b 973d
00000140: 9c08 743c 5217 813d 7714 583d e0ab 8abb
00000150: 6724 073d eba0 473e 7f54 003e fca6 e0bd
00000160: f823 a9ba ce12 953c 8b6c e83d 8cba d5bd
00000170: 0603 97bd ee87 c9bd 737b 2cbd a853 2a3e
00000180: dcd6 4ebb 76cb 3ebe 1a31 48bd 0e43 143e
00000190: 2dc9 9ebd 03a2 23be 89e9 e73d 68b3 2a3e
000001a0: 3a85 ffbd d741 26be 55c4 c2bd bf89 123e
000001b0: ad16 d6bd bcac af3c a5dd 6e3d 1d90 27bc
000001c0: 1b15 a4bd ea80 11be 0203 36ba d11d 243e
000001d0: 5038 c43d b857 d43d 1569 113e d112 febd
000001e0: 472f b7bc fb68 883d 9612 15bd 7354 46be
000001f0: d912 123c ac74 cb3d 8df9 c63d ca70 e2bc

fully_connected2.weight f4 [64, 128]
0.09890512 0.058807377 0.014706212 0.06689205 0.13829117 -0.06779691 -0.18044536 0.12861902
-0.10894611 -0.22112964 0.11248082 0.042682033 0.09526916 0.04146424 0.037668686 -0.003197353
0.1570285 -0.17653714 0.11143685 0.006637929 -0.07814775 -0.0067067854 0.07896485 -0.03368304
0.012938383 0.12417562 -0.02503953 -0.14438629 0.07860795 -0.04519228 -0.17956688 0.23319474
0.22383472 -0.29449207 -0.04806588 -0.059740674 0.0071141524 0.04706281 -0.3407424 0.11829388
-0.15596683 -0.25594193 -0.03912766 -0.02262242 -0.100117296 -0.09349115 -0.05176467 -0.23737076
0.0056628925 -0.16759552 -0.040891577 -0.14970341 0.11668734 -0.2757417 -0.15986145 0.12776284
0.07158161 0.026304683 0.17322502 -0.019822212 -0.07319158 0.06746954 -0.10997883 -0.06257367
0.020355167 -0.049531266 0.014151737 0.100357115 -0.1121144 0.04219564 0.055001773 -0.24556313
-0.109127745 -0.21878023 -0.03206406 -0.15009719 -0.2438923 0.06838665 0.08635305 0.008029288
0.04550846 -0.06163882 0.03922226 -0.08428272 -0.19769602 -0.09723828 -0.032200348 -0.11820547
0.1501886 -0.05146987 -0.09290953 -0.0320374 -0.08729593 -0.19495916 -0.15465143 -0.17542674
-0.24316584 0.21563023 0.007481069 -0.18450704 0.15824957 -0.0012759243 -0.13975893 -0.11765565
-0.10897323 -0.30061424 -0.15654741 -0.02954904 -0.27079073 -0.12549965 0.089346536 -0.0923162
0.051083695 0.1904924 0.15474181 -0.14716333 -0.010541761 0.22047664 -0.2884319 -0.011790247
0.2047784 -0.018790638 0.037816197 0.0256322 -0.1207759 -0.013053821 0.09552538 -0.11774929
-0.13034974 0.01031411 -0.0858816 0.11970178 0.034409918 -0.07365244 0.37687087 -0.017795263
0.24441393 0.02789283 0.05621709 -0.038365006 -0.012721962 0.13985325 0.011203856 -0.14256267
0.018710745 -0.016272187 -0.0018861841 0.05934951 -0.118114375 -0.14397208 0.0066805566 -0.07811199
-0.10176056 0.064850494 0.1573495 -0.15842256 0.098864324 -0.006091292 0.40502882 0.054456532
-0.11815334 0.0019181266 0.10965425 -0.038149267 -0.005608415 0.07609864 0.21859105 0.05555527
-0.24276036 -0.0018352218 0.059491623 0.13340892 0.06650944 -0.15451312 -0.06817309 0.107164346
0.021648888 0.07983336 0.13964416 0.023725878 0.079639725 -0.10049915 -0.11531395 0.0754331
-0.08039988 0.07043087 0.055233736 0.0565469 -0.052811388 -0.17042919 0.12636892 0.055672597
0.03765527 0.30665943 -0.11784578 0.081655785 -0.06127698 0.060929403 0.11855686 0.16882733
0.017130516 -0.12566555 0.013850054 0.24575108 -0.037607245 -0.046495054 0.0069797216 0.17997426
0.08593523 0.12915379 -0.18554743 -0.08579324 -0.09355545 0.057793237 0.05447509 -0.06285913
0.30099422 0.034141183 0.2505139 -0.18180667 0.030421393 -0.08376806 -0.18015255 0.005727451
-0.07679773 -0.058827955 0.0067836945 0.009092066 0.17118594 0.07294593 0.16191502 0.22349723
-0.075104706 -0.028048037 0.21190786 0.069031864 0.009078904 -0.10989357 0.077034816 0.07463253
-0.024472088 0.13586883 0.06718915 0.08759878 -0.10533329 0.18295836 0.057033062 -0.06319423
0.054012235 0.15142277 0.16503447 -0.03551962 0.05727797 0.06917976 -0.30656976 -0.03947345
00000000: c48e ca3d 01e0 703d 53f2 703c b3fe 883d
00000010: 339c 0d3e 1bd9 8abd abc6 38be b4b4 033e
00000020: 231f dfbd cf6f 62be 585c e63d 5bd3 2e3d
00000030: 7a1c c33d 68d6 293d 7b4a 1a3d af8a 51bb
00000040: 14cc 203e 27c6 34be 0139 e43d fc82 d93b
00000050: ed0b a0bd 98c4 dbbb 53b8 a13d 3af7 09bd
00000060: 83fb 533c ca4f fe3d b31f cdbc 00da 13be
00000070: 34fd a03d 8a1b 39bd 61e0 37be 9aca 6e3e
00000080: ee34 653e aac7 96be bae0 44bd a3b2 74bd
00000090: d61d e93b efc4 403d ca75 aebe 1044 f23d
000000a0: c5b5 1fbe d20a 83be 5344 20bd a752 b9bc
000000b0: 4c0a cdbd 4a78 bfbd 3107 54bd 5211 73be
000000c0: c98f b93b 299e 2bbe ed7d 27bd da4b 19be
000000d0: c6f9 ee3d 042e 8dbe b8b2 23be 43d4 023e
000000e0: 6199 923d eb7c d73c e661 313e 3162 a2bc
000000f0: 78e5 95bd 782d 8a3d 953c e1bd a026 80bd
00000100: e1bf a63c 4ce1 4abd b0dc 673c 0888 cd3d
00000110: 3c9c e5bd 56d5 2c3d 8a49 613d e774 7bbe
00000120: 5e7e dfbd ed07 60be 9b55 03bd 14b3 19be
00000130: e7be 79be 4d0e 8c3d ded9 b03d 468d 033c
00000140: 1467 3a3d fd78 7cbd 85a7 203d 6b9c acbd
00000150: d370 4abe dd24 c7bd 83e4 03bd b615 f2bd
00000160: 0acb 193e 12d2 52bd 5a47 bebd a639 03bd
00000170: 35c8 b2bd 60a3 47be f25c 1ebe 11a3 33be
00000180: 7700 79be 2cce 5c3e c123 f53b 6aef 3cbe
00000190: 2d0c 223e ea3c a7ba f71c 0fbe 72f5 f0bd
000001a0: 5b2d dfbd 1cea 99be f74d 20be d410 f2bc
000001b0: 15a5 8abe fb82 00be 51fb b63d 4710 bdbd
000001c0: 233d 513d 7110 433e a374 1e3e fcb1 16be
000001d0: 5ab7 2cbc a1c4 613e 59ad 93be e12b 41bc
000001e0: 6eb1 513e d3ee 99bc 28e5 1a3d 9ffa d13c
000001f0: 5b59 f7bd b2df 55bc cfa2 c33d 8a26 f1bd
00000200: 677a 05be 83fc 283c b1e2 afbd 3526 f53d
00000210: 6af1 0c3d 17d7 96bd 38f5 c03e 5fc7 91bc
00000220: a547 7a3e 817f e43c e443 663d a024 1dbd
00000230: c76f 50bc b135 0f3e 6190 373c f3fb 11be
00000240: 4747 993c 404d 85bc d639 f7ba 7918 733d
00000250: f3e5 f1bd 6b6d 13be 92e8 da3b 2ef9 9fbd
00000260: d767 d0bd 56d0 843d 3a20 213e 8639 22be
00000270: 6179 ca3d 7699 c7bb f05f cf3e d00d 5f3d
00000280: 61fa f1bd a669 fb3a 6892 e03d 6842 1cbd
00000290: ccc6 b7bb 9bd9 9b3d 55d6 5f3e ec8d 633d
000002a0: 2c96 78be d38b f0ba 7dad 733d 599c 083e
000002b0: 1a36 883d b038 1ebe 559e 8bbd fb78 db3d
000002c0: 0259 b13c ac7f a33d e1fe 0e3e c65c c23c
000002d0: 271a a33d 80d2 cdbd b829 ecbd ab7c 9a3d
000002e0: b1a8 a4bd 0f3e 903d c53c 623d b99d 673d
000002f0: c150 58bd fd84 2ebe db66 013e f308 643d
00000300: 6a3c 1a3d 7702 9d3e 2159 f1bd 263b a73d
00000310: 92fd 7abd 1c91 793d f0cd f23d 12e1 2c3e
00000320: 4c55 8c3c 78ae 00be 56eb 623c 2ca6 7b3e
00000330: 0e0a 1abd 9971 3ebd 26b6 e43b 2c4b 383e
00000340: cffe af3d e440 043e 2500 3ebe 5eb4 afbd
00000350: 009a bfbd 9ab8 6c3d 4621 5f3d 4abc 80bd
00000360: ea1b 9a3e a0d7 0b3d 5c43 803e 872b 3abe
00000370: 4936 f93c 978e abbd e979 38be 57ad bb3b
00000380: 2148 9dbd 95f5 70bd c149 de3b e4f6 143c
00000390: 5e4b 2f3e ad64 953d 0dcd 253e 75dc 643e
000003a0: 7fd0 99bd ffc4 e5bc 60fe 583e 9460 8d3d
000003b0: afbf 143c e10f e1bd 6ec4 9d3d f1d8 983d
000003c0: b079 c8bc 3321 0b3e 779a 893d fd66 b33d
000003d0: fbb8 d7bd 7059 3b3e 809b 693d fa6b 81bd
000003e0: ef3b 5d3d 920e 1b3e ccfe 283e 057d 11bd
000003f0: 4e9c 6a3d 1eae 8d3d b6f6 9cbe eaae 21bd

fully_connected2.bias f4 [64]
-0.057561737 0.06034916 -0.019121928 -0.011880899 0.020526625 -0.06457761 -0.008356846 0.10497634
-0.05513996 -0.098842405 0.054866876 -0.049568944 -0.035944514 -0.021185182 -0.098152295 0.13223842
0.1733451 0.009010329 -0.1319552 -0.104612894 0.003153868 0.08005536 0.0012414325 0.054474972
0.04623593 0.20046692 0.090358056 0.039402496 -0.1035884 0.052736394 0.056551024 0.11051505
-0.08047003 0.12631978 0.04610194 -0.08276512 0.030882604 0.030532189 0.088267304 0.053593963
-0.042706348 0.022899592 0.020578574 -0.06808055 0.036499042 0.03675522 0.023654496 -0.0690788
-0.00041147106 -0.08723583 -0.05301025 -0.06608393 -0.0030304517 -0.010397055 -0.029707866 0.032855477
-0.05245784 0.071635254 0.06474504 0.0784308 -0.0031452165 -0.081162065 -0.02740075 -0.05770788
00000000: dbc5 6bbd ae30 773d 97a5 9cbc 1aa8 42bc
00000010: 7427 a83c 4441 84bd 27eb 08bc d6fd d63d
00000020: 70da 61bd e36d cabd 17bc 603d ce08 4bbd
00000030: 8e3a 13bd 8c8c adbc 1204 c9bd 8269 073e
00000040: 6181 313e 0fa0 133c 441f 07be 493f d6bd
00000050: 20b1 4e3b 11f4 a33d 90b7 a23a 2621 5f3d
00000060: e361 3d3d 3347 4d3e a50d b93d 8364 213d
00000070: 2826 d4bd 1e02 583d 0ca2 673d b755 e23d
00000080: 79cd a4bd f959 013e 63d5 3c3d c280 a9bd
00000090: 84fd fc3c a41e fa3c 7dc5 b43d 5885 5b3d
000000a0: daec 2ebd ed97 bb3c 6694 a83c d16d 8bbd
000000b0: 0580 153d a48c 163d 13c7 c13c 3079 8dbd
000000c0: b6ba d7b9 b3a8 b2bd 4721 59bd 0357 87bd
000000d0: 8b9a 46bb 6958 2abc e95d f3bc 7793 063d
000000e0: 08de 56bd 81b5 923d 0c99 843d 54a0 a03d
000000f0: fa1f 4ebb 4c38 a6bd 8a77 e0bc 195f 6cbd

fully_connected3.weight f4 [32, 64]
0.086411096 0.14450309 0.3398548 0.13321148 -0.12690307 -0.3240804 0.2213448 0.05692618
-0.28008255 0.073679805 0.24584346 0.0026721847 0.17096837 0.2619593 0.07291574 0.04320789
-0.11354334 0.009811844 0.057330538 0.05029722 -0.03918725 -0.27775243 0.019759748 -0.007128332
-0.39678794 -0.08480337 -0.13261086 -0.48617738 -0.032597646 -0.00047104186 -0.24003112 0.2619552
0.33755013 -0.12017008 0.03686029 -0.07209321 -0.22508778 0.10103609 -0.13268699 0.13641873
-0.07333923 0.12517507 0.09236578 -0.06561668 -0.26235634 -0.085319005 0.19568573 -0.10373182
0.20634635 0.1840515 -0.2084755 0.286155 -0.21910311 0.075233676 -0.24095307 -0.038483594
0.00012248087 -0.43679544 0.1536349 0.2648426 -0.120461665 0.20488755 0.07036251 -0.052429993
0.12946771 -0.008203941 -0.04427156 -0.1337439 -0.26305932 -0.05323941 -0.07401563 -0.0642137
0.06168815 0.34079117 0.13766895 -0.07123271 0.08954653 0.061502647 0.056519624 0.0041168462
-0.058779925 -0.419349 0.057158016 0.015742162 -0.12209657 0.035016768 -0.060807418 -0.23282903
0.048388466 0.04861052 0.1571466 -0.035625078 0.110062584 -0.14151935 -0.1410364 -0.112797864
-0.07870823 -0.037031144 -0.14431445 0.00096007145 -0.06398893 -0.011076433 -0.028432563 -0.143069
0.09090766 -0.3369332 -0.25795472 0.18109089 0.07339197 -0.15505105 0.016965833 -0.08142729
0.12245352 -0.046258714 -0.0025443088 -0.029444957 -0.18376824 0.105395846 0.05010055 -0.07101898
0.036605183 0.008919807 0.15353797 -0.09310451 0.14286098 -0.001173401 0.07062016 0.07998908
-0.001089392 -0.13229725 -0.05887281 0.21015541 0.06404707 -0.069144525 0.08384865 0.43508464
0.0021461477 0.076672085 -0.025279542 0.28784823 -0.086738385 -0.14085555 0.120488524 0.041235708
-0.043404594 -0.018889466 -0.023126133 -0.09933843 -0.027783653 0.066438474 0.124980256 -0.16804463
0.06383362 0.039470922 0.12088454 0.55174017 -0.07474741 -0.24271472 0.11745562 -0.084618755
-0.28340238 0.09506813 0.088270634 -0.024934359 0.09071305 0.12861641 0.23173504 0.010201025
0.07703646 -0.011968592 -0.09110062 0.031813473 0.025817065 0.10118238 -0.25955802 0.00066320057
0.1145484 0.051491056 -0.16329624 0.34745577 -0.063392684 0.10914098 -0.04170126 0.26178297
-0.25346652 0.47443599 0.15632391 -0.065798186 -0.10263919 -0.2205337 0.0869747 -0.054660473
-0.033354588 -0.11066607 0.043212924 0.050863158 -0.018836997 -0.018923098 -0.09917427 -0.13556167
-0.106107965 -0.10973686 -0.10284874 0.05860895 -0.115402915 0.044617854 0.081273936 -0.04576688
-0.007202336 0.047207132 -0.11682206 0.107971445 0.09004523 0.1192801 -0.085243165 0.060596928
-0.07155129 -0.023369877 0.052666213 -0.0060654767 0.04571235 -0.048793923 -0.098456256 0.07260193
-0.12715042 -0.022649337 -0.01607852 -0.035208687 -0.1507892 -0.11280637 -0.07134676 -0.0036424596
0.048755288 -0.11362031 -0.053352892 -0.11919086 0.02615407 -0.11484671 -0.025461817 -0.051318858
-0.08207637 0.059531916 0.053478464 0.065225706 0.07272165 -0.062434047 0.053388763 0.08564463
-0.03314555 -0.0146918055 0.0016991249 -0.13564385 -0.028699879 -0.014953971 -0.13281232 0.07633246
00000000: 4df8 b03d 9ef8 133e 7301 ae3e 9768 083e
00000010: e1f2 01be deed a5be 36a8 623e 6d2b 693d
00000020: fb66 8fbe 70e5 963d 63be 7b3e d21f 2f3b
00000030: 5512 2f3e 881f 863e d954 953d c2fa 303d
00000040: 6989 e8bd dbc1 203c 6dd3 6a3d 7504 4e3d
00000050: cf82 20bd 9135 8ebe 32df a13c c894 e9bb
00000060: ca27 cbbe 64ad adbd 24cb 07be 3eec f8be
00000070: 1c85 05bd 2bf6 f6b9 b8ca 75be fe1e 863e
00000080: 5fd3 ac3e bb1b f6bd d1fa 163d 9ba5 93bd
00000090: 697d 66be 02ec ce3d 19df 07be 5ab1 0b3e
000000a0: e132 96bd e52d 003e 452a bd3d 0a62 86bd
000000b0: 9253 86be bbbb aebd d761 483e 5971 d4bd
000000c0: 754c 533e ff77 3c3e 9a7a 55be e882 923e
000000d0: 915c 60be 1d14 9a3d 67bc 76be f9a0 1dbd
000000e0: 356e 0039 a7a3 dfbe 7852 1d3e 7399 873e
000000f0: 9bb4 f6bd 0bce 513e 381a 903d d5c0 56bd
00000100: 2f93 043e d369 06bc 1856 35bd 29f4 08be
00000110: b6af 86be 9111 5abd 8295 97bd 7982 83bd
00000120: b7ac 7c3d 2e7c ae3e 17f9 0c3e 74e2 91bd
00000130: 2c64 b73d 33ea 7b3d 1f81 673d 9ce6 863b
00000140: 38c3 70bd eab4 d6be 861e 6a3d b5f5 803c
00000150: c40d fabd be6d 0f3d 3311 79bd bc6a 6ebe
00000160: fc32 463d d31b 473d 0aeb 203e 9aeb 11bd
00000170: 7e68 e13d 73ea 10be d96b 10be 9102 e7bd
00000180: c831 a1bd f8ad 17bd 2bc7 13be 4ead 7b3a
00000190: a10c 83bd ed79 35bc 68eb e8bc ae80 12be
000001a0: cc2d ba3d 8282 acbe a412 84be e46f 393e
000001b0: 874e 963d b4c5 1ebe eefb 8a3c 5ac3 a6bd
000001c0: e9c8 fa3d c779 3dbd 6bbe 26bb 8d36 f1bc
000001d0: be2d 3cbe c7d9 d73d 3c36 4d3d 6672 91bd
000001e0: 51ef 153d 6224 123c 0f39 1d3e 94ad bebd
000001f0: 264a 123e cecc 99ba 4da1 903d 51d1 a33d
00000200: eec9 8eba ee78 07be 9e24 71bd fb32 573e
00000210: 1c2b 833d a59b 8dbd d7b8 ab3d 6ac3 de3e
00000220: 62a6 0c3b 4106 9d3d 0b17 cfbc d860 933e
00000230: e5a3 b1bd 703c 10be b0c2 f63d c6e6 283d
00000240: 04c9 31bd 15be 9abc 0473 bdbc f271 cbbd
00000250: 8b9a e3bc e510 883d a6f5 ff3d e413 2cbe
00000260: 33bb 823d 43ac 213d 5092 f73d d83e 0d3f
00000270: 2c15 99bd 358a 78be 928c f03d 994c adbd
00000280: 1e1a 91be 14b3 c23d 3cc7 b43d 2443 ccbc
00000290: c3c7 b93d 05b4 033e f34b 6d3e 3322 273c
000002a0: 4bc5 9d3d ea17 44bc f692 babd d84e 023d
000002b0: 4f7e d33c b538 cf3d cae4 84be a3da 2d3a
000002c0: 5a98 ea3d 49e8 523d 2137 27be b9e5 b13e
000002d0: 06d4 81bd 4e85 df3d f1ce 2abd 6b08 863e
000002e0: 5dc6 81be 46e9 f23e 6013 203e 33c1 86bd
000002f0: 7f34 d2bd 96d3 61be cb1f b23d a9e3 5fbd
00000300: d29e 08bd e4a4 e2bd 0900 313d e355 503d
00000310: 0c50 9abc 9d04 9bbc e11b cbbd aed0 0abe
00000320: 224f d9bd b8bd e0bd 5ca2 d2bd f00f 703d
00000330: 5d58 ecbd 36c1 363d f372 a63d 0d76 3bbd
00000340: 9301 ecbb 445c 413d 6740 efbd 2220 dd3d
00000350: a269 b83d 2049 f43d f893 aebd 7c34 783d
00000360: 7c89 92bd 2f72 bfbc 87b8 573d e8c0 c6bb
00000370: e03c 3b3d 23dc 47bd 6fa3 c9bd 52b0 943d
00000380: b833 02be 1a8b b9bc 1ab7 83bc fc36 10bd
00000390: 7c68 1abe 0707 e7bd 401e 92bd 55b6 6ebb
000003a0: a0b3 473d c4b1 e8bd 9088 5abd 561a f4bd
000003b0: 0f41 d63c c034 ebbd 4d95 d0bc b933 52bd
000003c0: a817 a8bd bdd7 733d 3c0c 5b3d 0e95 853d
000003d0: 17ef 943d d8ba 7fbd 2dae 5a3d 7466 af3d
000003e0: a1c3 07bd e6b5 70bc 2cb5 de3a 39e6 0abe
000003f0: 021c ebbc 8001 75bc f4ff 07be 3154 9c3d

fully_connected3.bias f4 [32]
0.016910277 -0.013802154 -0.056525074 -0.16826376 0.08098415 -0.10656207 0.38099262 0.087861635
0.027759505 -0.02797937 -0.01732048 -0.012057135 0.10525888 0.18207753 0.024874693 -0.18571924
0.03102071 0.1414313 0.28641307 -0.14984094 0.18185881 -0.003036615 0.013859087 -0.021255396
0.06035861 -0.059794735 0.013593297 -0.1512398 -0.007806017 0.06651747 0.14452942 0.0891891
00000000: 6c87 8a3c 6e22 62bc d686 67bd 564d 2cbe
00000010: 05db a53d 373d dabd 7711 c33e cdf0 b33d
00000020: e767 e33c fe34 e5bc aee3 8dbc 4a8b 45bc
00000030: f891 d73d 8872 3a3e 03c6 cb3c 2f2d 3ebe
00000040: 251f fe3c 5ed3 103e bca4 923e e76f 19be
00000050: 3239 3a3e f201 47bb 3911 633c cc1f aebc
00000060: 973a 773d 53eb 74bd 6cb6 5e3c 9bde 1abe
00000070: 9ec9 ffbb 503a 883d 85ff 133e c6a8 b63d

fully_connected4.weight f4 [4, 32]
0.13145141 -0.089406475 -0.27460024 0.07514325 -0.40129492 0.018962963 0.21118155 -0.042349875
0.3504902 0.3391236 -0.2160907 -0.03453947 -0.439453 0.12021178 -0.2349718 -0.17931794
-0.18339032 -0.41369694 0.18501815 -0.105882406 0.07713594 0.1558823 0.18826535 -0.016727606
0.163487 -0.12507801 0.23419115 0.36211082 -0.31051108 -0.19671804 0.31111783 -0.35608208
0.17275846 0.0744331 -0.13618194 0.0044400953 -0.09728449 0.14475141 0.0075402874 0.12150159
0.36111405 -0.34053698 -0.2833358 0.20002833 0.2303771 0.26996258 -0.03594774 -0.40806755
0.090114854 0.070984915 0.25385144 0.059577595 -0.044159524 0.08044434 0.53024983 -0.20491786
0.34053534 -0.20422682 -0.17457876 0.1285923 -0.1586251 -0.32554653 0.15149654 0.15477048
0.33257693 -0.16067071 0.04615514 -0.014072737 -0.061278183 -0.052733865 0.22189194 -0.17258058
0.005449626 0.14651875 -0.27053788 0.117650874 -0.3407937 0.14375724 0.070265464 -0.15564427
-0.473056 0.03910199 0.052605804 0.111556984 0.23891091 0.32113272 0.39913204 0.034255553
0.050704394 0.01405592 -0.30619952 -0.23353367 -0.30512965 0.045622896 0.10299311 -0.29478714
0.051129203 0.13038532 0.10309999 -0.046053838 -0.3418147 -0.038793556 0.26646307 0.32439178
-0.25707006 -0.3337041 -0.04586124 0.046374388 -0.11450985 0.04742615 0.08132843 -0.25386164
-0.35117197 -0.34115735 0.063928485 -0.13697092 -0.14752251 -0.011162657 0.002787393 -0.3170285
0.42299002 -0.15425712 -0.29998368 -0.27693334 -0.15820578 0.30084395 0.38345394 -0.089008905
00000000: 339b 063e be1a b7bd 6798 8cbe b4e4 993d
00000010: 8776 cdbe 3758 9b3c fa3f 583e 1077 2dbd
00000020: 7473 b33e 9ca1 ad3e e146 5dbe 4279 0dbd
00000030: fcff e0be 9831 f63d 739c 70be 1f9f 37be
00000040: acca 3bbe 16d0 d3be 6675 3d3e e0d8 d8bd
00000050: 73f9 9d3d 9c9f 1f3e a2c8 403e 5508 89bc
00000060: 2369 273e 7314 00be cecf 6f3e 9766 b93e
00000070: 4ffb 9ebe 7470 49be d64a 9f3e 6450 b6be
00000080: 98e7 303e 6270 983d 4773 0bbe 387e 913b
00000090: 173d c7bd b739 143e 8414 f73b d3d5 f83d
000000a0: f1e3 b83e dd5a aebe 6411 91be 3ad4 4c3e
000000b0: f9e7 6b3e 8938 8a3e f03d 13bd 3bee d0be
000000c0: 238e b83d 8a60 913d d1f8 813e a307 743d
000000d0: 9ee0 34bd 01c0 a43d 74be 073f fdd5 51be
000000e0: a65a ae3e d620 51be c6c4 32be b3ad 033e
000000f0: 9e6e 22be 09ae a6be e921 1b3e 277c 1e3e
00000100: 8647 aa3e dd86 24be 2c0d 3d3d 5691 66bc
00000110: d5fe 7abd 77ff 57bd a437 633e f7b8 30be
00000120: c792 b23b 0309 163e f183 8abe f1f2 f03d
00000130: 837c aebe 1935 133e 57e7 8f3d 3661 1fbe
00000140: 6534 f2be 6929 203d 2f79 573d fd77 e43d
00000150: 10a5 743e 826b a43e 095b cc3e 8d4f 0c3d
00000160: 69af 4f3d cd4a 663c 2fc6 9cbe 7323 6fbe
00000170: f439 9cbe 13df 3a3d 0dee d23d 57ee 96be
00000180: db6c 513d bb83 053e 1626 d33d f3a2 3cbd
00000190: 5602 afbe fee5 1ebd d96d 883e ae16 a63e
000001a0: b09e 83be 44db aabe ffd8 3bbd 12f3 3d3d
000001b0: 2484 eabd ec41 423d 858f a63d 27fa 81be
000001c0: d0cc b3be 2dac aebe f0ec 823d 1b42 0cbe
000001d0: 2410 17be 94e3 36bc b2ac 363b 8f51 a2be
000001e0: 2692 d83e 94f5 1dbe 7697 99be 35ca 8dbe
000001f0: b200 22be 3808 9a3e 1354 c43e 4d4a b6bd

fully_connected4.bias f4 [4]
0.22410528 0.27080885 0.1581265 0.2200154
00000000: db7b 653e 75a7 8a3e eaeb 213e b84b 613e
