p3_collab-compet/models/actor_0.pth (torch_old, 183722 bytes, 6 tensors)

fc1.weight f4 [256, 48]
00000000: 5091 673f c3d1 1abd 6911 4d3d b9e9 4cbf
00000010: 0a89 603e ed13 37bf 07c7 613d fd41 3fbf
00000020: 4b99 2c3f 0d02 73bd 3b54 d7be 4e19 67bd
00000030: 893d fdbb 277d 3dbf 41ad b7be 6588 0c3d
00000040: c245 813f fd81 1ebe 7fda 5cbc 4dff 15bd
00000050: af94 69bd 45cf 2dbf f06c cd3c d124 093d
00000060: 8361 253f 227a 8f3f 987f bebe 518f db3e
00000070: d6e8 62be 999e 44bf 18f6 8dbe b761 de3e
00000080: 0965 4b3f b1a0 973f 5b76 c0be cc5e 983c
00000090: 5715 48bc c90b 3dbf 3748 d1be e06d 863d
000000a0: 27b1 4c3f 4465 823f efd9 72be f487 0abf
000000b0: b490 873d 7187 2cbf a915 43be 7545 02bf
000000c0: db35 a4bd d06c 0dbf 0c7c e0bd 160b c3bf
000000d0: 73fc ae3e 00d7 e73e 76f7 9cbd e4fb bfbf
000000e0: 57f7 703e 5382 52be 5bfa 81be c8d4 a43e
000000f0: 04c0 5c3e 149a d83e 4fa0 28be acbe b83e
00000100: 6a52 c93e d373 2a3d b09c abbe b28c 713f
00000110: da24 883e ed56 073f f2fa b2be c012 663f
00000120: 42ca dd3c 8c1c a73f b688 50be d320 8bbf
00000130: 3348 c7be 6c17 e53e 3880 54be 0777 91bf
00000140: 1346 b63e 0618 af3f 8552 96be e914 3ebf
00000150: b2f6 61be 2038 a13e 1715 a4be f7dc 4ebf
00000160: 6a06 023f d8c7 933f 3c5a 5bbe 5a97 a2bf
00000170: ee02 bdbe baad 0d3f faec 91be 1080 9dbf
00000180: a8c4 9d3e dc68 2e3f 7664 073e 37af 76bf
00000190: f5c4 e6be f556 2bbf 5ada d53d b7ec 5ebf
000001a0: bc29 6c3d 196b 153f ae3c e6be b5c4 6bbe
000001b0: 64b2 b1be d119 69bf 52f7 f5be 37e7 9fbe
000001c0: 2c14 8cbd b610 253f cb88 32be db43 59be
000001d0: f261 75be 0b6b 8abf 939c 42be e717 4abe
000001e0: a051 233f 19c1 cb3e 5729 5ebf 3e53 61bd
000001f0: f58d d43e 2f82 2bbf abb6 4cbf 9fa2 a0bd
00000200: 93d4 643f 63b3 0e3f cd35 743e 1fc5 16be
00000210: 285f 9a3e 19ca 64bf c2bb 993e 0a8b 7bbe
00000220: b80d 723f 2fd6 cf3e ec1c 1e3e 8c64 7bbe
00000230: c157 653e f9c4 8ebf 7da1 853e 46f3 8dbe
00000240: aadb 3dbe bbff 3ac0 b407 80be 7eec 5bbe
00000250: f879 16bd 4c1b 303f 262a 4fbe de94 8fbe
00000260: 254d efbd c810 1ac0 da33 273d a591 673f
00000270: 7c3e ac3e 2072 fa3e 269a 963c 0961 6d3f
00000280: 78c8 92bd 13e7 05c0 becb 58be f547 1040
00000290: 66a5 963f 94e3 503f 7a93 9cbe 9b9f 1140
000002a0: d569 7cbe 985e dfbf 1114 babd 7122 953d
000002b0: 1e81 7cbd 9e6c 263f bbcc 81bd db98 8f3d
000002c0: b3b0 f7bd 2e4e 6dbf 0696 dbbe 538d 7d3f
000002d0: f0a3 9cbe bca5 e33e 6400 cabe 55d6 6c3f
000002e0: 6e2b 85be f808 6fbf 411c de3d 00ff 42ba
000002f0: f60e 8fbf f245 6d3f 77fa c73c 031b 5bbc
00000300: 582a d83d 7a8d 5d3f d220 85be 7872 483f
00000310: bcd9 773f bfb1 3b3f e9ea 45be 26c7 413f
00000320: 6bca c03e bd52 ba3f bf26 0fbe ce94 f53e
00000330: 28ac d5bd b86c cb3e 29f4 53be ca26 053f
00000340: 683f 303f ca16 a73f 9c6f 68bd 19c1 32bf
00000350: 0a8b c9bf 9288 e23e ebd1 6abc 77b3 43bf
00000360: 6aec fdba 7c38 bb3f d8d3 20bd ee3f 58bf
00000370: 0ff7 84bf 1f2a 453f 83cb a53c 0674 39bf
00000380: fe87 643e ed13 a33f e746 08be 5b11 45bf
00000390: ae06 c83d dc6b a53e eec0 a1bd 7ff2 54bf
000003a0: fcb6 003e 27ff 1b3f c096 babd 4bf1 29bf
000003b0: 94f8 d03f 2679 d53e 215d ecbc bfad 37bf
000003c0: 65c2 863e 0731 13c0 bd16 933d 180c 0a3f
000003d0: e6b0 93be d122 66be ad40 b63d e4ab 093f
000003e0: 9f03 f33d bf1b 0ac0 e15e cfbb 496e 823f
000003f0: c2cf 39bf fe87 f1be 9721 dbbc 1ee8 813f
0.90456104 -0.0377977 0.05006543 -0.8004413 0.21927276 -0.7151478 0.055121448 -0.74710065
0.67421407 -0.059328128 -0.4205645 -0.056420617 -0.007728283 -0.7401909 -0.3587437 0.034309763
1.0099413 -0.15479274 -0.013479828 -0.036620427 -0.05702656 -0.67894393 0.02507636 0.033482376
0.64601916 1.1209147 -0.3720672 0.4288278 -0.22159132 -0.768045 -0.27726817 0.43433926
0.7945104 1.1845914 -0.37590298 0.01859989 -0.012212119 -0.7384611 -0.40875408 0.06563926
0.79957813 1.0187154 -0.23715948 -0.541137 0.06619397 -0.6739417 -0.19051231 -0.50887233
-0.080180846 -0.5524416 -0.1096116 -1.5237758 0.34176978 0.4528122 -0.07664387 -1.4998746
0.23531853 -0.20557527 -0.2538632 0.3219359 0.21557623 0.42305052 -0.16467403 0.3608297
0.3932069 0.041614365 -0.3351798 0.9435531 0.26590616 0.52867013 -0.3495708 0.8987236
0.027073983 1.3055587 -0.20364651 -1.0869392 -0.3892227 0.44744432 -0.20752037 -1.1364449
0.35600337 1.3679206 -0.29359832 -0.74250656 -0.22066763 0.31488132 -0.3204734 -0.80805916
0.5079104 1.1545362 -0.2142114 -1.2702439 -0.36916298 0.5534321 -0.2850111 -1.2304707
0.308141 0.6812875 0.13221917 -0.96361107 -0.4507214 -0.6692956 0.10442038 -0.8707995
0.05765699 0.58366543 -0.4496817 -0.23024257 -0.34706414 -0.9105502 -0.48040253 -0.3123109
-0.06839785 0.64478624 -0.17434995 -0.21217291 -0.23963144 -1.0813917 -0.19005041 -0.1973568
0.63796425 0.3979576 -0.8678183 -0.055011027 0.41514555 -0.6699552 -0.7996623 -0.078435175
0.8938686 0.5574247 0.23848648 -0.14723633 0.30150723 -0.89370877 0.3002606 -0.24564758
0.94552183 0.40593097 0.1544072 -0.24550074 0.22396757 -1.1153861 0.26099768 -0.27724665
-0.18540826 -2.9218585 -0.25005877 -0.21476933 -0.036737412 0.6879165 -0.20230922 -0.28043264
-0.11684636 -2.4072742 0.040820934 0.9045661 0.33641422 0.48915195 0.01838405 0.9272619
-0.07167143 -2.0922287 -0.21171471 2.254392 1.1769226 0.81597257 -0.30581266 2.2753665
-0.24649747 -1.7450743 -0.090858586 0.0728196 -0.061646573 0.65009487 -0.06337877 0.07011577
-0.120942496 -0.9269742 -0.42887896 0.9904377 -0.30593824 0.44462383 -0.39453423 0.92514545
-0.26009697 -0.9337306 0.10845233 -0.00074385107 -1.1176441 0.92684853 0.024411423 -0.013373139
0.105549514 0.86544 -0.26001602 0.78299665 0.9681661 0.73318094 -0.19327892 0.756945
0.37654433 1.45565 -0.13979624 0.4796509 -0.10433227 0.39731383 -0.20698608 0.5201231
0.6884675 1.305383 -0.056747064 -0.69825894 -1.5745556 0.4424482 -0.014332275 -0.76445717
-0.0019372825 1.4626613 -0.03926453 -0.8447255 -1.0387896 0.77017397 0.020238644 -0.7244266
0.22317502 1.2740456 -0.13308297 -0.7697961 0.09766899 0.32308853 -0.078981265 -0.8318252
0.12569803 0.60936207 -0.091107845 -0.6638381 1.632586 0.4169399 -0.028853001 -0.7174949
0.26320186 -2.2998674 0.07182071 0.53924704 -0.288459 -0.22474219 0.08899055 0.5377791
0.11865925 -2.1579435 -0.006328449 1.0189906 -0.7258264 -0.47174066 -0.026749415 1.0148962

fc1.bias f4 [256]
00000000: 32c1 63bf f0cf 12bf 4659 37be 9818 89bd
00000010: 5676 a4be f051 0ebe 4c59 3cbf 8705 13bf
00000020: 574f 0abf 91c9 04bf e3fb 18bf 5430 4dbe
00000030: fc0e 17be 1445 f8be c832 3abf 7e20 3cbf
00000040: 5b74 85bf 76d3 04bf f534 29bf 7566 1dbf
00000050: 32b3 823e 7f90 4fbf ec81 9fbe f5d0 40bf
00000060: 7942 20bf 543e f9be 467f 0abf 2942 28bf
00000070: aa40 5fbf cf8e 1cbf 6d74 63bf 7e43 91bd
00000080: c9ba 3b3f c704 663e 8baa 00bf ff2c febe
00000090: fbc7 05bf 82a3 323e a25b 05bf 0744 3bbf
000000a0: e110 6dbf 6011 6ebe ffb0 eebe 00c8 d0be
000000b0: 2970 90be 2a0f 67be 00b7 0dbf dfda 50bf
000000c0: cae6 0abe 3dee 11bf 3281 bcbe 49a3 33bf
000000d0: 6b26 dbbe fd32 aabd 2c4e 3bbf 49e0 17bf
000000e0: 85aa c4be 7f0a 11bf 6fb7 0bbf 56ad 3cbf
000000f0: da42 ac3e c0e2 2abf 8fb1 bbbe 5ed0 d0be
00000100: b36d 53bf d9e6 f8be 98ea 58bf 5f5a 1fbf
00000110: 8a64 54bf 664f 393e ab80 cdbe 9705 49bf
00000120: e8ed 55bf ad3e 50be 2443 59bf 9c8f 87be
00000130: 697a 1cbf 4057 febe c37d 2240 bf9f b7be
00000140: f90c 1bbf d7f5 04bf da9f ddbe 197b e8be
00000150: 5096 36bf abd5 51bd c6ef 9cbf ede1 48bf
00000160: 4f88 cebe be1e 05bf 882a 56bf 9a37 443e
00000170: 2dcc ecbe fdcb 0fbf 61c9 02bf 8c46 10bf
00000180: ab22 8fbe 9a80 49be 4dad 2cbf c522 e1be
00000190: 51b7 acbe aa08 6ebf 8bc0 6f3f 74ee fd3e
000001a0: 48a4 14bf cc81 803d 94de 66be ae49 8ebf
000001b0: 12e9 edbe d232 36bf b9b7 13bf 12e5 343d
000001c0: 4c65 a8bd 3530 1fbf bf54 e7be dfe0 3fbf
000001d0: 0026 25bf 5067 a53e 9151 83be 3481 0cbf
000001e0: 3d5a 73be 38ee 61bf 3a48 a4bf 9db2 20bf
000001f0: 0ba6 47bf 0b0c 57bf 3fcd 55bf 46dd 8cbe
00000200: 6fc0 fdbe bb9e e8be f681 51bf 4834 3ebf
00000210: 5811 57bf 744b 0cbe a946 b1be 8327 ecbe
00000220: 4006 28bf 0c5d 3bbf 3675 90be c13b 833e
00000230: 83c2 4ebf aaec 4abf 4974 41bf 8e9a 63bf
00000240: 3c3c 12bf 7b7b 9ebe e98b 52bf a43f 0bbf
00000250: 2319 4f3d 9a18 73be c6c7 b1be 16fa 5ebf
00000260: e819 4bbc d5c9 bebe 4b7c 04bf 09f8 43bf
00000270: 24da e1be 30bd 29bf 6466 23bf 3459 25bf
00000280: ae41 20bf ed99 bebe fb18 1ebf deb1 5fbf
00000290: 91e9 9fbe 5b54 48bf 3e7d 8ebf 42c0 3bbf
000002a0: a3d8 e7be c8a0 e3be 2a80 10be d626 1ebf
000002b0: 8e2f 9a3e 15d1 e4be fb57 e8be 5e79 f63e
000002c0: 2b01 11bf fa5f 04bf 1894 e2be 0f39 1cbf
000002d0: 5648 0ebf 4b23 cebe 03e1 00bf 495a 12bf
000002e0: 262b 00bf 1fd7 72bf 7f10 20bd 48c9 3fbe
000002f0: ce57 47bf e7f0 3ebe ce25 a73f 76ea 19bf
00000300: 13da 81bf 99a3 12bf 8831 04bf c3c2 83be
00000310: 221e dbbe 74de 31bf 3bbf b0be 2400 39bf
00000320: 3268 39bf fdc6 d8bc f236 32bf 5ef5 2cbf
00000330: fa85 293d 212a b6be 9c25 d1bd 6cdf 04bf
00000340: 4aad 53bf bbdc 17bf 2ef6 6c3e 3de4 f1be
00000350: a842 acbe 8381 0fbf a22e 2fbf c504 22be
00000360: f198 39bf 357c b8be 76bd 25bf a7f0 33bf
00000370: cf6e cabe 349e 51bf fdc4 8ebf 8f98 04bf
00000380: c05a 29bf c639 2fbf 4069 bcbe a047 adbe
00000390: c660 e5bc e50e 33bf a413 41bf b10a 38bf
000003a0: f7fc 9abe ee2e 98bf 2d2e 7fbe e467 cbbe
000003b0: 3a23 87bf 4b5a 2fbf a38b 353e 9583 5cbf
000003c0: 3f20 51be f5f9 27bf 2b3f e6be c113 3ebf
000003d0: fd2b 24bf 3f4a c6be 0162 d2be 7ea9 83be
000003e0: 43ed 0dbf d20d 85be e687 14bf c5b4 3bbf
000003f0: 9981 1bbf 4291 64bf b023 3cbf 655f 37bf
-0.8896667 -0.5734854 -0.17905149 -0.06694144 -0.32121533 -0.13898444 -0.73573756 -0.5743031
-0.54027313 -0.51870066 -0.5975935 -0.20037967 -0.1475181 -0.48490202 -0.72733736 -0.7348708
-1.0426134 -0.51885164 -0.6609643 -0.6148446 0.2552734 -0.8107986 -0.3115381 -0.75318843
-0.6260143 -0.48680365 -0.54100454 -0.6572595 -0.87208045 -0.6115541 -0.88849527 -0.07092951
0.73331887 0.2246276 -0.5026023 -0.49643704 -0.5225827 0.17445186 -0.52092946 -0.73150676
-0.9260388 -0.23248816 -0.46619412 -0.40777588 -0.2821057 -0.22564378 -0.5535736 -0.8158397
-0.13564602 -0.5700415 -0.36817318 -0.7017103 -0.42802748 -0.083105065 -0.73166156 -0.59326607
-0.38411346 -0.5665664 -0.5457677 -0.7370199 0.33644754 -0.66752243 -0.36658904 -0.40783972
-0.8258926 -0.48613623 -0.8473296 -0.6224727 -0.8296591 0.18096694 -0.40137228 -0.78524154
-0.8356614 -0.20336409 -0.84868073 -0.26476753 -0.61124283 -0.4967594 2.538926 -0.35864064
-0.6056667 -0.5193762 -0.4328602 -0.45406416 -0.7132311 -0.05122916 -1.2260673 -0.78469735
-0.4033837 -0.52000034 -0.8365865 0.19161835 -0.46249524 -0.56170636 -0.5108853 -0.56357646
-0.27956137 -0.19677964 -0.67451936 -0.4397184 -0.3373361 -0.9298197 0.9365317 0.49595988
-0.58063173 0.06274757 -0.22545844 -1.1116235 -0.4646688 -0.71171296 -0.57702214 0.04416377
-0.08222446 -0.62182933 -0.45181844 -0.749525 -0.6451111 0.32305384 -0.25648168 -0.5488465
-0.23764892 -0.8825412 -1.2834542 -0.6277254 -0.77987736 -0.8400275 -0.83516306 -0.27512568
-0.49560878 -0.45433602 -0.8183893 -0.74298525 -0.8401084 -0.13700658 -0.34624222 -0.46123895
-0.65634537 -0.73188853 -0.28214425 0.25631526 -0.8076555 -0.7926737 -0.7556806 -0.88907707
-0.5712316 -0.30953583 -0.82244736 -0.5439398 0.05056108 -0.23739854 -0.34722728 -0.8710035
-0.012396313 -0.3726336 -0.51752156 -0.76550347 -0.4411174 -0.663043 -0.6382811 -0.6458924
-0.6260022 -0.3722681 -0.6175687 -0.8738078 -0.31232885 -0.78253716 -1.1131971 -0.7334024
-0.45282468 -0.44458604 -0.1411139 -0.6177801 0.30114406 -0.44690767 -0.45379624 0.4813947
-0.5664241 -0.5170895 -0.44253612 -0.61024565 -0.55579126 -0.402613 -0.5034334 -0.57169014
-0.5006584 -0.948595 -0.039078232 -0.18729126 -0.77868354 -0.18646584 1.3058412 -0.60123384
-1.0144676 -0.5728088 -0.5163808 -0.2573453 -0.42796427 -0.6948006 -0.34520897 -0.7226584
-0.72424614 -0.026462073 -0.6961509 -0.675619 0.041387536 -0.35579017 -0.102122515 -0.51903415
-0.82686293 -0.5932118 0.23140785 -0.47244444 -0.33644605 -0.56056994 -0.6843053 -0.15822132
-0.72498995 -0.36032262 -0.6474222 -0.7028908 -0.39537665 -0.81882024 -1.1153866 -0.51795286
-0.661541 -0.6844753 -0.3679905 -0.33843708 -0.028000247 -0.699446 -0.75420594 -0.71891314
-0.30271122 -1.1889322 -0.24919958 -0.397277 -1.0557625 -0.6849715 0.17729048 -0.8613828
-0.20422457 -0.6561578 -0.44970068 -0.7424889 -0.6412962 -0.3872852 -0.41090396 -0.2571525
-0.5544016 -0.25987107 -0.58019865 -0.7332271 -0.60744625 -0.89284146 -0.73491955 -0.71629936

fc2.weight f4 [128, 256]
00000000: 5b85 92be e8db 46be ade2 95be bde6 3cbe
00000010: 4129 d2be 46f1 afbe 799d 103e 1689 62bc
00000020: e3f1 a0be 9434 48bf f62c a53e 1431 0cbf
00000030: 35f4 21bf 3514 1d3e 59a8 203e 38a7 0cbf
00000040: 8ace c1be 83ba ae3e bdab 00bf 972e e2be
00000050: eab8 2b3e dc4c 60bd 5756 39bf d74a 7cbe
00000060: ecd8 81be ba33 06bf e362 a7bf 0af5 e1be
00000070: 2c8c 13bf 1dbc 5ebe 528d d2be 97e7 5abf
00000080: e92f dabe 4b2a 6b3c 23f6 70be dcd9 cabe
00000090: 3fd2 bebe f10e e7bd e464 82be 9a30 32bf
000000a0: ffaa 8a3d 29ce b8bd 3def 6ebe 88a0 b3be
000000b0: 445f b8bd ee47 9dbe d70b 43bf 111f 073f
000000c0: 2b01 cbbc c620 67be 4c6f 893d 714c 10bf
000000d0: 04d5 91bd 8edc 1e3f d55c 1fbd 8dce b8ba
000000e0: 5d31 9fbe 9f67 b0be e8a4 0bbf 25af 913d
000000f0: 6f41 103c 0440 30be 3614 bd3e e01f 24bf
00000100: 0491 b4bd d8bf 2a3e 131f 0a3e 353e 393e
00000110: 190e a23e 2e16 a6be 5e67 493c 8acc 63be
00000120: e004 49bf 4db6 bbbe 801b 70be 89d6 3ebd
00000130: d577 913e ccea b83e a91c 06bf 702c 44bf
00000140: fcbd 0f3f 10e8 22bf a48c 32bc 8b22 673e
00000150: 5489 fdbe 7d38 683d fed9 ee3d 41cd 9fbe
00000160: 2f73 30bf 6526 89be e227 2abf 89b6 0fbf
00000170: 451c a8be 59e1 b03e 1937 163e e83f 243e
00000180: 95aa 95bd 74ea cbbe cf9e cf3d a430 05be
00000190: 5122 443e 33d0 d5bc ab34 5cbe f388 a9bd
000001a0: 70d1 6fbf 204c 77ba 2442 77be b4c3 a3be
000001b0: 2fea 9dbd 580c 74bf 0083 0b3d 3816 79be
000001c0: 98f8 9b3e c8a4 113e 16c7 86be a2fd a23e
000001d0: f6e0 e7be 3cf6 ffbe 3839 553e 52b5 eebe
000001e0: d73f 893e e55c 9ebc 8ab3 a7be 29a7 37bf
000001f0: e264 1d3d 8c9a 6ebe 6024 bbbd ec0f 693e
00000200: c953 0abe 5fc0 993c 354e 46be cfc1 4dbe
00000210: 061d 12bd db23 e8bd 1950 20bd 1b4d a63e
00000220: fe07 f7be 6a02 743e 3092 0ebe 9ef5 163c
00000230: 20dd 8f3e 6c76 5a3e ef95 813e dc27 02bd
00000240: cd57 1d3e 6c55 823e 134a 03bf df50 be3d
00000250: 946c cdbe a2a4 6dbe 8d05 9cbe dbca 2bbe
00000260: 366d 53be 7181 883f b6f2 1abf 16d6 b8bd
00000270: 9b33 5bbe 4ef5 9abe 909d efbe 77d7 03bd
00000280: a43b 82be 33fc c2be e25d 4fbe aadc e2be
00000290: e152 2dbe 2a34 c5be 802d 103f d050 efbe
000002a0: 0aba 97be b868 45be 4fd5 b2be 72e2 30be
000002b0: db44 ccbe 7d2c 8ebd 1bbf 0bbf bf2f 08bf
000002c0: e779 10be 63ac 00bf 6bb4 c2bd 9e6e aabe
000002d0: a6ac c7be 6720 63bf 1950 953d 28e3 0d3e
000002e0: 7bf9 f73a 9afa 88be 87e3 e33e c78f fdbd
000002f0: 2427 8cbe e788 0abf 9d73 f5be b860 e9be
00000300: b81b 4cbf 7669 2f3e 38d7 e7be d81e 0fbf
00000310: 4188 debe 257c 44be c893 b4be 43c7 583d
00000320: f8ff aabe a2af 0dbf fbb0 c7be d26d f6be
00000330: 63b3 be3c 356d 1dbf f1e4 6bbd 2b83 7c3c
00000340: a68b c23e 71fc a2be 8f10 5abe 1f3f 0cbe
00000350: bdb3 0abe da90 adbe 61f3 96be 2184 56be
00000360: 432c b7bc c3d3 fbbd cd2b 31be 29d2 af3d
00000370: 2f2c 873e 9435 cebd d1a6 c1bc a510 ae3e
00000380: eed5 413b 835b 81be d82e abbc dbde 7cbf
00000390: a9cb fabe 07c0 903b fc03 44bd dc9b da3e
000003a0: 759e bcbe 0578 93be 1f1a a7be d977 5fbd
000003b0: 4088 cbbd 63a8 083e a7a9 17bf 79f2 98be
000003c0: 493e 39bf 2eee 16bd e466 2abe b915 243d
000003d0: f05b c8be 72c0 313e b9f2 39bf 82de b1be
000003e0: e21f bcbd 80f7 c4bd 1954 eb3e b693 debe
000003f0: b655 853e 2aa7 54bf 9980 40bf 2fcb 893e
-0.28617367 -0.19419825 -0.29274502 -0.18447395 -0.410471 -0.34363765 0.14122571 -0.013826629
-0.31434545 -0.7820523 0.32260865 -0.5476239 -0.63263255 0.1533974 0.1568922 -0.54942656
-0.3785289 0.34126672 -0.5026205 -0.4417617 0.16769758 -0.0547608 -0.7239737 -0.24637924
-0.2536081 -0.5242268 -1.3077053 -0.44132262 -0.5763576 -0.21751447 -0.41123444 -0.8550963
-0.42614678 0.014353345 -0.23531394 -0.3961934 -0.3726978 -0.11282147 -0.25467598 -0.6960541
0.06770896 -0.09023697 -0.2333345 -0.35083413 -0.090025455 -0.3071894 -0.7618994 0.5278178
-0.02478083 -0.22571096 0.06710681 -0.5636664 -0.07120708 0.6205529 -0.03890689 -0.0014099643
-0.3109235 -0.34454057 -0.545485 0.07113484 0.008804663 -0.1721192 0.36929482 -0.6411114
-0.08816722 0.16674745 0.13488416 0.18090136 0.3165138 -0.32438797 0.012292711 -0.22245994
-0.78523064 -0.36662522 -0.2344799 -0.046591315 0.28411737 0.36116636 -0.5238748 -0.76630306
0.5614927 -0.6363535 -0.010897789 0.22571771 -0.49518836 0.056694496 0.116626725 -0.31211284
-0.68925756 -0.26787105 -0.66467106 -0.561379 -0.32834068 0.34546927 0.14669456 0.16040003
-0.073079266 -0.3982731 0.10137712 -0.13006836 0.19153716 -0.026100254 -0.21504466 -0.08278074
-0.9367895 -0.0009433646 -0.24146324 -0.31985247 -0.077106826 -0.95331335 0.03406048 -0.24324882
0.304631 0.14223015 -0.26323766 0.3183413 -0.4528882 -0.4999255 0.20822608 -0.4662271
0.26806518 -0.019331405 -0.32754165 -0.7173944 0.038426287 -0.23301142 -0.09137797 0.2275998
-0.13508524 0.018768487 -0.19365771 -0.20093463 -0.03567221 -0.11334964 -0.039138887 0.32480702
-0.48248285 0.23829046 -0.13922954 0.009213833 0.28098392 0.21334237 0.25309703 -0.031776294
0.15365525 0.25455797 -0.51284903 0.09292769 -0.401219 -0.23207334 -0.30472985 -0.16776602
-0.2064713 1.0664502 -0.605266 -0.09025209 -0.21406405 -0.30265278 -0.46799898 -0.032187905
-0.25436127 -0.38083038 -0.20250657 -0.44308978 -0.16926147 -0.3851636 0.5631943 -0.46741343
-0.29634124 -0.19278228 -0.34928367 -0.17273882 -0.39896283 -0.06942079 -0.5458848 -0.53197855
-0.14109002 -0.5026304 -0.09507068 -0.3328752 -0.38998908 -0.8872132 0.07290668 0.13856184
0.0018918955 -0.26753694 0.44509527 -0.12380939 -0.27373612 -0.54115146 -0.47939768 -0.45581603
-0.79729795 0.17130074 -0.45281386 -0.5590644 -0.43463328 -0.19187982 -0.35268998 0.052924406
-0.33398414 -0.5534612 -0.39002213 -0.4813066 0.023278898 -0.6149476 -0.057591382 0.015412132
0.37997168 -0.31833223 -0.21295379 -0.13695954 -0.13545127 -0.33899575 -0.29482558 -0.2094884
-0.022359973 -0.1229625 -0.17301865 0.08585007 0.26400897 -0.10068813 -0.023639115 0.33997074
0.0029576975 -0.2526513 -0.02089636 -0.9877755 -0.48983505 0.0044174227 -0.047855362 0.42697036
-0.36839643 -0.28802505 -0.32637116 -0.054557655 -0.09938097 0.13345484 -0.59243244 -0.29872492
-0.72360665 -0.03684824 -0.16640812 0.04005978 -0.39132643 0.17358568 -0.7263599 -0.34740072
-0.09185769 -0.096175194 0.459626 -0.4347207 0.26041955 -0.8306757 -0.75196224 0.2691283

fc2.bias f4 [128]
00000000: f228 c8be 8dc4 853c b7e8 99bd 5238 cf3d
00000010: 1774 a7be 5cd8 51bf e193 b8be 2caa 55bf
00000020: 59d7 fbbe 9738 d7be d5b7 2dbe d7a5 72be
00000030: 7a2a d93c dc20 afbf 7d5d 05bf cbd2 f6be
00000040: a4d2 06bf 4be8 88be 1bf6 873e 8912 12be
00000050: c735 17bf 4a32 89be 84ec 8fbf da33 f9be
00000060: 3509 b8be dabe 9fbe 8e24 77bd be58 10be
00000070: a857 d1be 3dc2 c0bc 2c99 1ebe c7b4 9f3d
00000080: 49da 2cbf 6ad7 de3e 68fa 02bf 2619 823e
00000090: fd4b 29bf cc3a 05be 0063 d63d 6c4a 8f3e
000000a0: 0b73 a6bd f1da 74bf d189 2bbf de02 f3be
000000b0: e4de fdbe df96 c0bd 824e fabe e181 b0bf
000000c0: 7804 473d a9e7 e5bd 83d8 9dbd ca82 8abe
000000d0: 025a 84bd c802 afbe 3b69 a9bf 6495 9bbe
000000e0: 8861 59bf fe00 82bf 8959 f7bd e9e7 92bf
000000f0: 0d9e 93bd 1ba7 12bf 5001 d7bf 176b 59bf
00000100: dedf 04bf ea4d 05bd 4974 4fbf ab62 eebd
00000110: 8625 01bf aef9 1dbf 2fae 94bc 6e33 02bf
00000120: f80d 4fbf 6c2f 8fbe 7992 d6be 1d3e e93d
00000130: f511 17be 6ba1 53bf 53b9 72bf b9c9 9ebe
00000140: 7588 d2be 3361 62be c3d6 09bf 1b96 08bf
00000150: 077f d2be cc94 a5bd 120a 53bf 6be2 8fbe
00000160: 3fad 3c3b 0b8a 8abf e573 94bf 2af7 6ebf
00000170: b2de fabe e2f8 14bf 47e1 1bbf 4e24 193e
00000180: ab14 03bf bb34 71be 8870 7e3d 6716 77be
00000190: 4d0c 05bf 24b2 52be 06f2 88bf 74b8 eebd
000001a0: fbd5 52bf d7a5 05be 8a05 a2bc 502a 02bf
000001b0: 848d bfbe 7401 2fbf 3fec 90be a6e3 1cbf
000001c0: d2b9 d8be 1f14 5fbf 1a29 27bf 99cb 15bf
000001d0: 54e1 ecbe 0e57 afbf 91aa c2bd 3572 073e
000001e0: d260 a9be 9a03 05bf 8065 ddbe 9109 5abf
000001f0: a59b 75be f3c2 8dbf 0809 53bf bc8c 27bd
-0.3909374 0.016329074 -0.0751509 0.10118164 -0.32705757 -0.81970763 -0.36050323 -0.83462787
-0.49187735 -0.42035362 -0.16964658 -0.23696075 0.026509512 -1.3681903 -0.52095777 -0.48207697
-0.5266516 -0.26739725 0.2655495 -0.14264883 -0.5906643 -0.2679618 -1.1244054 -0.48672372
-0.35944524 -0.31200296 -0.060337596 -0.14096352 -0.4088719 -0.02353012 -0.15488118 0.077981524
-0.67520577 0.43523723 -0.5116334 0.25409812 -0.66131574 -0.1301071 0.104681015 0.27986467
-0.081274115 -0.9564658 -0.67007166 -0.47463125 -0.49584115 -0.094037764 -0.48888022 -1.3789636
0.048588246 -0.11225826 -0.07707312 -0.2705291 -0.0646248 -0.3418181 -1.3235239 -0.30387414
-0.84914446 -1.0156553 -0.12077624 -1.1477023 -0.0720788 -0.5728623 -1.6797276 -0.8492903
-0.51904094 -0.032545008 -0.8103681 -0.11639913 -0.5044788 -0.61709106 -0.018149463 -0.50859725
-0.8088069 -0.27965868 -0.41908625 0.113888 -0.14752944 -0.8266818 -0.9481403 -0.31013277
-0.41119733 -0.22107391 -0.53843325 -0.5335404 -0.4111254 -0.080850214 -0.8243724 -0.2810243
0.0028789786 -1.0823377 -1.1597868 -0.9334589 -0.48998028 -0.58192265 -0.6089062 0.14955255
-0.5120341 -0.23555271 0.062119037 -0.2412964 -0.51971895 -0.20575768 -1.069886 -0.116562754
-0.8235776 -0.13051544 -0.019778032 -0.50845814 -0.37412655 -0.6836159 -0.2830524 -0.61284864
-0.4232927 -0.8714008 -0.6529709 -0.5851379 -0.46265662 -1.3698442 -0.09505189 0.1322716
-0.3308168 -0.5195862 -0.432415 -0.8517085 -0.23985155 -1.1075119 -0.82435656 -0.0409057

fc3.weight f4 [2, 128]
00000000: d4cc a9be 3eaa ef3d 5bf7 803d 7614 a9be
00000010: 7daf e03e 58cd 8ebe 68d3 153e 9941 e3bd
00000020: d07e c23e 7484 f9bd 54d1 12bc 1384 88be
00000030: 48f1 e3bc fe0f 8e3e 089c 92be 014a f63d
00000040: 50b4 84be 8706 853d 40a1 5ebe 3c67 c4bc
00000050: 280c 5fbe f69e ccbd 103b 7a3e 0c9f a53d
00000060: a0d7 bcbe e262 2c3f b4cb 29bc 1197 d4bc
00000070: e879 82be a07e d73e ce5f 87bb 918c 9fbe
00000080: 06ba 9f3e 91f0 b43c ede1 993e 2d1d d43d
00000090: 1105 10be fc5a 053a e9c3 353e b804 e63e
000000a0: b8ef 60b9 d68d 8d3f 772f 073e c2b8 b0be
000000b0: 7380 a13d e57b 573e 7ac2 8ebe ecd5 cabc
000000c0: 9ebf 33bf abef 463e 39b7 b83e f5be b6be
000000d0: 0ad7 073d 342a d43e 3786 c63e 3c2d bf3e
000000e0: ec53 6fbd 5ecd fd3e a8fd e0bd 5ed2 0b3f
000000f0: 8cb8 523e 6d85 c73e 642b 633e 4fb7 ff3e
00000100: c246 1bbe d9ed 70bb bc7f 593f 47d2 8a3c
00000110: e0c0 d3be e406 50be 2a4c 6d3c 2faa ae3e
00000120: 9299 97be 3162 4e3d 94b9 d63e 3ebb f93e
00000130: 9b82 a63d 5ffd 7cbe 3bcf aebe 5700 493e
00000140: 317e 26bd ad07 f93e 7980 00bf a963 2b3f
00000150: 80e7 65be e4cb 383d 0bd5 e83d c25b 183f
00000160: 1a30 dabd d6fe 04be 3f62 56be bd14 d43d
00000170: d33c 633f e1eb b0be 0c44 aebe d888 6b3e
00000180: e253 a4be cb43 cfbb c18c 2c3e ed8f cbbe
00000190: e92f 183f 3335 fcbe 6232 103f 5ad7 bfbc
000001a0: 8dd5 15bf b086 6a3e b57d 96bd 3878 41be
000001b0: e3ae 14ba f71d 9fbe 4ea2 5f3e 7c29 40be
000001c0: 9405 febc 021b fabd c92b 0cbf e29f f2bd
000001d0: 5848 2e3e d938 bcbe addc f4bc f518 89bd
000001e0: 22a7 02be 97e2 eb3e ae95 54be ef1b adbd
000001f0: f87c 983e ebf2 42be c080 b73e a85a 8c3e
00000200: 1c2c 15be db84 8b3f 13b7 e13d 3f7f a6be
00000210: 738b ac3e ce76 c03e 225c 673e 6ecb 12be
00000220: eb67 08bf f592 733f 8803 81bd 823a e03e
00000230: 19fb 383f d7a8 37bf 1d27 053f c04c 1dbe
00000240: 6ffb 3d3f a3c2 633e 3786 14bf 23f6 843f
00000250: 263f 2b3f 6b45 f23e c9eb b4be 7f1b 6ebf
00000260: c167 283f 9c69 e13e 97bd 2e3b 0c56 34ba
00000270: 1d80 d73e d201 5dbf 13eb a73f cf5f 853e
00000280: e3bb 1c3f 78ac b8bf 3250 1dbf 0ee8 b7bf
00000290: 0599 473e 332a ad3c ec96 4a3e 9dfc bdbd
000002a0: 0ee8 74bb b43b 6ebf 45d8 74bf dd0b d7be
000002b0: a673 3abe 6315 12bf 48ce e53e defd 4e3e
000002c0: a75c 05bf 1b25 ddbe 9a73 1ebd 04f5 01be
000002d0: adc5 c8bc 39dd 003f 9c79 7bbf 027c 013f
000002e0: 6c86 58be c28e 4fbf 2a98 efbd c10b adbe
000002f0: f39c 773e 9330 1fbf c913 65bf ceda a9bf
00000300: 5667 e03e 70fb 8a3c 7e85 a1be f11e fabc
00000310: d1ec b5be aa89 793f e83c 903c bc35 ee3e
00000320: 9dc7 0c3f e44c 8bbf b3df 183f e758 b1bc
00000330: a2f8 e4bb feb9 ff3e 0434 f43e a0ea c83e
00000340: d415 d8bc 83fd 3bbf 5c91 83be 9f14 483e
00000350: 964a fc3e 2e3c 3f3c 3ddf 2ebf 8e5e e63e
00000360: 99e6 02bf 3e2d 423f f9bb 643e d808 93bf
00000370: 6bb9 3dbf 8079 8d3f 7d88 4ebd b1bb 2f3f
00000380: ae37 103d 6ab0 e53d 8c50 38bf 2085 5c3d
00000390: ea4a d23d 1baa 57be e450 5dbf d4d5 d43c
000003a0: ad14 413f 670b 133f d843 813d 311b bd3f
000003b0: 2ff4 323f 6252 0ebf 955a fe3e 53cb 0b3f
000003c0: 31e5 6dbf 3ce9 033f 2ad7 603f c08b eb3e
000003d0: d6c4 aa3e d869 1d3e 8cd3 15bd 9232 dabf
000003e0: 00b4 d2be dab5 e9be 8410 23bd a415 0f3f
000003f0: e6ae d43d cd24 4c3e 50db 4fbf a8c7 033d
-0.33164084 0.11702393 0.06297179 -0.33023423 0.43883887 -0.2789104 0.14631426 -0.11096496
0.37987375 -0.121834666 -0.0089610405 -0.26663265 -0.027825013 0.27746576 -0.28634667 0.12025834
-0.25918818 0.064953856 -0.217412 -0.023975007 -0.21781981 -0.09991257 0.24436593 0.080869764
-0.3688326 0.67338383 -0.010363508 -0.02595094 -0.25483632 0.42088795 -0.004131294 -0.3116193
0.31196612 0.022087367 0.3005518 0.10357127 -0.14064433 0.0005087105 0.17750515 0.44925475
-0.00021451607 1.105891 0.132017 -0.3451596 0.07885828 0.21043356 -0.2788275 -0.024760209
-0.7021426 0.19427364 0.36077288 -0.35692564 0.03316406 0.41438448 0.38774273 0.373392
-0.058429644 0.49570745 -0.10985881 0.5461787 0.20578212 0.38968983 0.22184521 0.4994454
-0.1516371 -0.0036762862 0.8496053 0.016945971 -0.4135809 -0.20315129 0.014483491 0.34114215
-0.29609352 0.05038661 0.4193846 0.48775667 0.0813038 -0.24706028 -0.3414248 0.19629036
-0.04064769 0.4863867 -0.50196034 0.66948944 -0.22451591 0.04511632 0.1136876 0.5951501
-0.10653706 -0.12987837 -0.20935915 0.10355518 0.88764685 -0.3455496 -0.3403629 0.2300142
-0.32095248 -0.00632522 0.16850568 -0.39758244 0.59448105 -0.49259338 0.5632688 -0.023418117
-0.5852898 0.22902942 -0.073481955 -0.18893516 -0.0005671812 -0.3107755 0.21839258 -0.18765825
-0.03100852 -0.122121826 -0.5475431 -0.118469015 0.17019784 -0.3676212 -0.029890383 -0.06694213
-0.12759069 0.46071312 -0.20760223 -0.084525935 0.29782844 -0.19037978 0.35840416 0.27412915
-0.14567608 1.0899919 0.11021247 -0.32518956 0.3370014 0.3759064 0.2259374 -0.14335415
-0.53283566 0.95146114 -0.06299502 0.43794638 0.72258145 -0.71742004 0.5201281 -0.15361309
0.7421178 0.22242217 -0.58017296 1.0387615 0.6689323 0.47318587 -0.3533614 -0.93010706
0.65783316 0.44025886 0.0026663297 -0.0006879277 0.4208993 -0.863309 1.3118614 0.2604966
0.6122419 -1.4427633 -0.61450493 -1.4367692 0.19491966 0.021138286 0.19784135 -0.09276698
-0.003736976 -0.9305985 -0.956425 -0.42001238 -0.18208179 -0.57063884 0.44883943 0.2021403
-0.520945 -0.43192372 -0.038684465 -0.12691122 -0.024508322 0.5033756 -0.98232436 0.50579846
-0.21145028 -0.81077206 -0.11698945 -0.3379803 0.24180965 -0.62183493 -0.89483315 -1.3269899
0.4382884 0.016965598 -0.3154716 -0.030532332 -0.3553224 0.97475684 0.017607167 0.4652537
0.54992086 -1.088284 0.5971634 -0.021648837 -0.006987647 0.49946588 0.47695935 0.39241505
-0.026377596 -0.73433703 -0.25696838 0.19539116 0.49275655 0.011672063 -0.68309385 0.44994015
-0.51133114 0.75850284 0.22337331 -1.1487074 -0.7411105 1.1052704 -0.050423134 0.6864577
0.03520935 0.11215289 -0.71997905 0.053837895 0.10268195 -0.21060984 -0.86451554 0.025980867
0.75422174 0.57439274 0.06311768 1.4773923 0.69903845 -0.55594456 0.49678484 0.54607123
-0.92927843 0.5152776 0.87828314 0.46005058 0.333533 0.15372407 -0.0365787 -1.7046683
-0.41152954 -0.45646554 -0.039810672 0.55892396 0.10384922 0.19935913 -0.8119402 0.03217283

fc3.bias f4 [2]
00000000: 4ae4 6a3f 7b7a 6c40
0.9175459 3.6949756
