p3_collab-compet/models/actor_1.pth (torch_old, 183792 bytes, 6 tensors)

fc1.weight f4 [256, 48]
0	0xbd064f1e	-0.032790296
1	0xbd1412eb	-0.036150854
2	0x3cddf178	0.02709268
3	0xbf28cda5	-0.6593879
4	0x3ef4b9b6	0.47797936
5	0x3f90bd8d	1.1307846
6	0x3d03af61	0.032149676
7	0xbf1b259c	-0.6060426
8	0x3e1c116b	0.1524102
9	0x3d7b6a0a	0.061380424
10	0x3ecc9b87	0.39962408
11	0x3b4fbe36	0.0031699068
12	0x3eb1254f	0.34598777
13	0x3fc4ce51	1.5375463
14	0x3eec4242	0.461443
15	0x3dc04d64	0.09389761
16	0x3ecc68db	0.39923748
17	0x3efd1bd2	0.49435288
18	0x3e3504f9	0.17677678
19	0x3f0a8213	0.5410473
20	0x3e7599a8	0.23984396
21	0x4021c8b6	2.5278754
22	0x3e5c8074	0.21533376
23	0x3f1c74ae	0.6111554
24	0x3f070708	0.52745104
25	0xbfcd668a	-1.6046917
26	0x3d98e101	0.07464791
27	0x3f8385b7	1.0275182
28	0xbef5e9a9	-0.4802983
29	0x3f89f849	1.0778896
30	0x3e2d8231	0.16944195
31	0x3f843a3c	1.0330272
32	0x3f4112a8	0.7541909
33	0xbf8c6abf	-1.0970076
34	0x3ebfc227	0.37452814
35	0x3f82917e	1.0200651
36	0xbebb5ac4	-0.36592686
37	0x3fc5070f	1.5392779
38	0x3eaef04e	0.34167713
39	0x3f8896c5	1.0671011
40	0x3f5352b2	0.8254806
41	0xbf772f85	-0.96556884
42	0x3ed71522	0.4200831
43	0xbf202a08	-0.62564135
44	0xbe6c3698	-0.23067701
45	0x40221aca	2.532885
46	0x3eeef57d	0.46671668
47	0xbf17e721	-0.5933705
48	0x3fb5cc39	1.4202949
49	0x3ea5bd87	0.3237116
50	0x3d91a493	0.07111468
51	0xbf5977e3	-0.8494856
52	0xbf11b76b	-0.569205
53	0xbf80f360	-1.0074272
54	0x3dd529d8	0.10408372
55	0xbf535988	-0.8255849
56	0x3fdce3c4	1.7257009
57	0x3e4ff0c7	0.20306693
58	0x3f057404	0.5213015
59	0xbf9b5b0d	-1.2137161
60	0xbf0e2056	-0.5551809
61	0xbf67546d	-0.903632
62	0x3f1c4884	0.6104815
63	0xbf9660a0	-1.1748238
64	0x3fab2c08	1.3372812
65	0x3d3be30b	0.045870822
66	0xbe8b380c	-0.27191198
67	0xbf6baa8c	-0.9205711
68	0xbef68942	-0.48151594
69	0xbf3a8b65	-0.7286895
70	0xbe92966b	-0.28630385
71	0xbf7723c0	-0.96538925
72	0x3f637af3	0.8885948
73	0x3f04d054	0.51880383
74	0xbcd978fa	-0.026546944
75	0xbfb6ef74	-1.4291825
76	0x3f0591b7	0.5217547
77	0xbf81a348	-1.0127954
78	0xbcf934db	-0.030420711
79	0xbfbd4527	-1.4786729
80	0x3f71a9c9	0.94399697
81	0x3e292dee	0.16521427
82	0xbe5831fa	-0.21112815
83	0xbf5a4ace	-0.8527039
84	0x3f0cd29a	0.5500885
85	0xbf8182a0	-1.0117989
86	0xbe73b5bc	-0.23799795
87	0xbf6b13f5	-0.91827327
88	0x3f79c6f2	0.9756919
89	0xbece8521	-0.40335944
90	0x3eb0b10b	0.34510073
91	0xbfc24afb	-1.5179132
92	0x3ec1aaf7	0.37825748
93	0xbf3433f9	-0.70391804
94	0x3e8c71dd	0.2743062
95	0xbfbd33d2	-1.4781439
96	0x3fb95260	1.4478264
97	0x3f05c33c	0.5225103
98	0x3da4eba6	0.08052759
99	0x3f46c6d8	0.7764716
100	0xbf41ef10	-0.75755405
101	0xbf8c1353	-1.0943397
102	0x3d57fc0c	0.052730605
103	0x3f5e89a7	0.8692879
104	0x3f91ae3d	1.1381298
105	0x3f0abe1b	0.5419633
106	0xbe145e37	-0.14489065
107	0x3db471c8	0.088107646
108	0xbf5c5392	-0.8606502
109	0xbfa5ae32	-1.2943785
110	0xbe33d04c	-0.17559928
111	0x3bc60bd8	0.0060438924
112	0x3f74365d	0.9539545
113	0x3f654bf5	0.89569026
114	0xbede6cb2	-0.43442303
115	0x3f1afea9	0.6054483
116	0xbf06b552	-0.5262042
117	0xbfd591b4	-1.668509
118	0xbee676eb	-0.45012602
119	0x3f1ec9b2	0.6202651
120	0x3f4ecfdc	0.8078592
121	0xbea69f16	-0.32543248
122	0x3eadc446	0.33938807
123	0xbe771b3c	-0.24131483
124	0x3f38d399	0.7219787
125	0xbf8c28f0	-1.0949993
126	0x3ed0aa22	0.407548
127	0xbe878bc8	-0.26473832
128	0x3f144eca	0.5793272
129	0xbe96646a	-0.29373485
130	0xbe4cf323	-0.20014624
131	0x3f132e61	0.57492644
132	0x3f50a9bb	0.8150899
133	0xbfa38661	-1.2775384
134	0xbe0db277	-0.1383761
135	0x3ef3fa03	0.4765168
136	0x3f2918b9	0.6605335
137	0xbe0639f8	-0.13108051
138	0xbe126457	-0.14296089
139	0x3ed48a9f	0.4151201
140	0x3f02b2cb	0.51054066
141	0xbfd9eba7	-1.702504
142	0xbd14fc74	-0.03637357
143	0x3ec449be	0.3833751
144	0x3edf8ab5	0.43660513
145	0x3fd46080	1.659195
146	0xbf529627	-0.82260364
147	0x3fdb0c3e	1.7113111
148	0xbebebb22	-0.37252146
149	0xbeb6f72d	-0.35735455
150	0xbf465c7c	-0.7748487
151	0x3fd2a4a8	1.6456499
152	0x3ef37476	0.4754979
153	0x3fe546f2	1.7912276
154	0x3d32cbd2	0.04365141
155	0xbe1253a8	-0.14289725
156	0xbfacca4c	-1.3499236
157	0xbe65eceb	-0.22453658
158	0x3cadcaf6	0.021214943
159	0xbdf629f5	-0.120197214
160	0x3f1e66f9	0.61875874
161	0x3fd3cd0b	1.6546949
162	0x3c04fe80	0.008117318
163	0xbf32f0d9	-0.69898754
164	0xbfd77671	-1.683302
165	0xbcdad7ec	-0.026714288
166	0xbdb01384	-0.08597472
167	0xbf2d91e0	-0.6780071
168	0x3ef19a5e	0.47188085
169	0xbe899a33	-0.26875457
170	0xbdd43b02	-0.10362817
171	0xbfdcdd2c	-1.7254996
172	0x3e8c5bc1	0.27413753
173	0xbeca54a3	-0.39517698
174	0xbd9bf4dd	-0.07615063
175	0xbfdd35e8	-1.7282076
176	0x3f1ef1aa	0.620875
177	0xbed0c8ef	-0.407783
178	0xbdb250aa	-0.08706792
179	0x3acbfaf0	0.0015562456
180	0x3fb0b107	1.3804024
181	0xbe89c36a	-0.26906902
182	0xbd57fb45	-0.052729864
183	0xbd8286cd	-0.063733675
184	0x3f2969a7	0.6617684
185	0xbeca8ef5	-0.39562193
186	0xbe3ce75c	-0.18447632
187	0x3ef620de	0.4807195
188	0x3fdf0d05	1.7425848
189	0x3dac56a2	0.084149614
190	0xbe8979dd	-0.26850787
191	0x3eefa96f	0.46808955
192	0x3ee61a08	0.44941735
193	0xbffde7d4	-1.9836373
194	0xbf1a1924	-0.6019461
195	0xbe92878c	-0.2861904
196	0xbe0a2800	-0.13491821
197	0xbf54c639	-0.83114964
198	0xbf0903ae	-0.5352124
199	0xbe9fde4e	-0.31224293
200	0x3eb97970	0.36225462
201	0xbffd2298	-1.9776182
202	0xbf0d2dee	-0.5514821
203	0xbf3467ec	-0.7047107
204	0xbf322e21	-0.6960164
205	0xbf5c4082	-0.8603593
206	0xbf1e60dd	-0.6186655
207	0xbf2a0af1	-0.66422945
208	0x3f0fdd6c	0.5619724
209	0xbfded826	-1.7409713
210	0x3f4331f5	0.76248103
211	0x3db09bbf	0.08623456
212	0xbf5e1d75	-0.867637
213	0xbf6e557e	-0.930992
214	0x3f4e0dae	0.80489624
215	0x3ca41c5c	0.020033054
216	0x3f4a8681	0.79111487
217	0xbe81b223	-0.2533122
218	0x3f069d16	0.52583444
219	0x3e684874	0.22683889
220	0x3d83af01	0.06429864
221	0xbf4b4dce	-0.79415596
222	0x3f15d8e8	0.585341
223	0x3eb1bca3	0.3471423
224	0x3f714c52	0.9425708
225	0x3e43fb82	0.19138911
226	0x3eddf81c	0.43353355
227	0x3f730ce1	0.94941527
228	0x3f307981	0.689354
229	0xbf6f402e	-0.93457305
230	0x3ef9ab08	0.487633
231	0x3f632b9f	0.88738436
232	0x3f5b5a7d	0.8568495
233	0x3f333c8a	0.7001425
234	0xbecc38f5	-0.39887205
235	0x3f3a4c5f	0.72772783
236	0x3f6cf846	0.92566335
237	0xbf74dce1	-0.95649534
238	0xbeac5961	-0.3366194
239	0x3f2c9033	0.6740753
240	0xbeb9c085	-0.36279693
241	0xbfd9d048	-1.7016687
242	0xbe4ec011	-0.20190455
243	0xc011f148	-2.2803516
244	0x3eec78b4	0.4618584
245	0x3f1cdbc9	0.61272866
246	0xbe3d2bc6	-0.1847373
247	0xc0120952	-2.2818189
248	0x3daeb8bc	0.08531329
249	0xbfa1606a	-1.2607548
250	0xbcd11e57	-0.025527162
251	0xbec72227	-0.38893244
252	0x3e13ffb0	0.14453006
253	0x3deeb7b9	0.11656136
254	0xbd3c33cd	-0.04594784
255	0xbec93ab6	-0.39302605

fc1.bias f4 [256]
0	0xbee2fe5a	-0.4433468
1	0xbf6b54f3	-0.919265
2	0xbf5ec67b	-0.8702161
3	0xbf56ba4c	-0.83878016
4	0xbf303228	-0.6882653
5	0xbe9a12a3	-0.30092344
6	0xbecfa681	-0.4055672
7	0xbf100b25	-0.56267005
8	0xbf27ec68	-0.655951
9	0xbec95b14	-0.393273
10	0xbee3ac7e	-0.4446754
11	0x3e6fb099	0.2340721
12	0xbf8df115	-1.1089197
13	0x3e1e4c40	0.15458775
14	0x3e94a185	0.2902948
15	0xbf8a9275	-1.0825945
16	0xbf0c0aa0	-0.5470371
17	0xbf56f135	-0.839618
18	0xbf48e495	-0.7847379
19	0xbf0c8cdd	-0.5490244
20	0xbefad12b	-0.48987707
21	0xbf408087	-0.7519612
22	0x3f019267	0.5061402
23	0xbf505c20	-0.8139057
24	0xbf8195f3	-1.0123886
25	0xbf9a74a6	-1.2066848
26	0xbf8f7752	-1.1208289
27	0xbeeb9dd0	-0.4601884
28	0xbf0995ec	-0.5374439
29	0xbdfb3fc9	-0.122680254
30	0xbf447e52	-0.7675525
31	0xbf0e1fe7	-0.5551743
32	0xbec626ea	-0.38701564
33	0xbe13bb7a	-0.14426985
34	0xbf456e8b	-0.771218
35	0xbe6cca5a	-0.23124066
36	0xbf4a4ef7	-0.7902674
37	0xbef7ca43	-0.483965
38	0xbee53428	-0.44766355
39	0xbf191a44	-0.59805703
40	0xbf4bd7b9	-0.7962604
41	0xbf4fe167	-0.8120331
42	0x3ec6234c	0.38698804
43	0xbf4b45d5	-0.7940343
44	0xbf12066c	-0.5704105
45	0xbf746fad	-0.95482904
46	0xbf840636	-1.0314395
47	0xbfa22dbd	-1.2670208
48	0xbf48c6a7	-0.7842812
49	0xbecb598c	-0.39716756
50	0xbf82511d	-1.0181004
51	0xbf4b97c0	-0.7952843
52	0xbeca27a6	-0.39483374
53	0xbf88e5ee	-1.0695169
54	0xbf63a390	-0.8892145
55	0xbf107d17	-0.5644087
56	0xbeff0865	-0.49811092
57	0xbf39165b	-0.72299737
58	0xbf4a2935	-0.78969127
59	0xbf7a1fe2	-0.977049
60	0xbf3865a2	-0.7203008
61	0x3eab9909	0.33515194
62	0xbf08ba4d	-0.5340927
63	0xbed33125	-0.41248432
64	0xbef169c9	-0.4715102
65	0xbed2f4a8	-0.41202283
66	0xbe6ad914	-0.22934371
67	0xbf5ea226	-0.8696617
68	0xbf50a9e3	-0.81509227
69	0xbeec775b	-0.4618481
70	0xbec34ad6	-0.38143033
71	0xbf47fe81	-0.7812272
72	0xbdf741a6	-0.12073068
73	0x3f31064d	0.6915024
74	0xbe435d7c	-0.1907863
75	0xbf175d0c	-0.59126353
76	0xbf6a3f28	-0.9150262
77	0xbf446598	-0.7671752
78	0xbe986e67	-0.2977173
79	0xbf592eb7	-0.84836906
80	0xbf8626fd	-1.0480648
81	0xbf0fd0cd	-0.5617798
82	0x3fbd1f75	1.4775225
83	0xbef8344b	-0.48477396
84	0xbf068402	-0.5254518
85	0xbf5a2a23	-0.85220546
86	0xbfb1b2c7	-1.3882684
87	0xbf0ab984	-0.54189324
88	0xbf3e8aae	-0.7443036
89	0xbf74d373	-0.95635146
90	0xbf623b1c	-0.88371444
91	0x3f1a5322	0.602831
92	0xbf1d0f40	-0.61351395
93	0xbf1644ee	-0.5869893
94	0x3dcd6312	0.10028662
95	0x3e11b760	0.14230108
96	0x3f20b3c3	0.62774295
97	0xbf3ce8ad	-0.73792535
98	0xbe8cef2b	-0.2752622
99	0xbe399121	-0.18121769
100	0xbe5c9755	-0.21542104
101	0x3e8ab1c7	0.27088758
102	0x3e0112f4	0.12604886
103	0xbe92b523	-0.2865382
104	0xbf6f87d9	-0.9356666
105	0x3e749061	0.23883201
106	0xbda21024	-0.07913235
107	0xbfa1660e	-1.260927
108	0xbeb808a7	-0.359441
109	0xbf40513b	-0.7512395
110	0xbf54c4af	-0.83112615
111	0xbf16fd2b	-0.58980054
112	0xbe07bf3d	-0.13256545
113	0xbd87c53b	-0.066294156
114	0xbfad62c4	-1.3545766
115	0xbf836166	-1.0264099
116	0x3f23704e	0.6384324
117	0xbf3ddd84	-0.7416613
118	0xbf19303f	-0.5983924
119	0xbf7f41fe	-0.9971007
120	0xbf52bdd4	-0.82320905
121	0xbf476617	-0.7789015
122	0xbf2be87b	-0.6715161
123	0xbe2cd244	-0.16877085
124	0xbf00b6fb	-0.50279206
125	0xbf541084	-0.828377
126	0xbf939423	-1.1529583
127	0x3f33f5c1	0.70296866
128	0x3cfc2f89	0.030784385
129	0xbd3da517	-0.04630002
130	0xbf12b09c	-0.57300735
131	0xbec53c67	-0.38522646
132	0x3f0736ff	0.5281829
133	0xbf45e7cb	-0.77306813
134	0xbea326a5	-0.3186542
135	0xbf1fce96	-0.624246
136	0xbddf14c7	-0.10892635
137	0xbb9abbce	-0.004722095
138	0xbf5480d2	-0.83009064
139	0x405e7e35	3.476453
140	0xbf74113f	-0.95338815
141	0xbf831c6b	-1.0243047
142	0xbf392f72	-0.7233802
143	0xbf1a1b0a	-0.6019751
144	0xbddaceee	-0.10684
145	0xbf0212af	-0.5080976
146	0xbf205742	-0.62633145
147	0xbec473a5	-0.3836948
148	0xbf509ac8	-0.8148618
149	0x3f6b9c87	0.92035717
150	0xbde75ede	-0.11297391
151	0xbf7336d3	-0.9500553
152	0xbf03fd81	-0.5155869
153	0xbf0894af	-0.53351873
154	0xbf3b9766	-0.7327789
155	0xbf63bf43	-0.8896372
156	0xbe9c83d2	-0.3056932
157	0xbf88ec5d	-1.0697132
158	0xbf2d2d6e	-0.67647445
159	0xbf0fe4e9	-0.56208664
160	0xbf43e615	-0.7652295
161	0xbf194ca2	-0.5988256
162	0xbf030086	-0.51172674
163	0xbeb028c5	-0.34406105
164	0xbf4e20f8	-0.80519056
165	0xbfa7d9ba	-1.311332
166	0xbf3a06c9	-0.72666603
167	0xbf1a64c5	-0.6031001
168	0x3df0cf67	0.11758309
169	0xbdb3f44e	-0.08786832
170	0xbe912bff	-0.2835388
171	0xbf1001a3	-0.562525
172	0xb988e4c9	-0.000261104
173	0xbf114c54	-0.5675709
174	0xbf3d8af9	-0.7404018
175	0xbf594a71	-0.84879214
176	0x3da8083c	0.082046956
177	0xbe615f5e	-0.22009036
178	0xbf8af5a0	-1.0856209
179	0xbf03d496	-0.51496255
180	0xbf38061c	-0.7188432
181	0x3eccc0cc	0.39990842
182	0xbf09271c	-0.535753
183	0xbf848947	-1.0354394
184	0xbf810797	-1.0080441
185	0xbf617c31	-0.88080126
186	0xbecd7e55	-0.40135446
187	0xbe8c4fa8	-0.27404523
188	0xbeeaf960	-0.45893383
189	0xbf6831a6	-0.9070076
190	0xbea968e9	-0.33087853
191	0xbf21c00d	-0.6318367
192	0xbf74c090	-0.9560633
193	0x3bb53a8b	0.0055306605
194	0xbf74d57a	-0.9563824
195	0xbf5e01bd	-0.867214
196	0xbf8d9194	-1.1060052
197	0xbf1c7137	-0.6111025
198	0xbf7c5315	-0.98564273
199	0xbf80fa51	-1.007639
200	0xbf25d579	-0.6477886
201	0x3eabf961	0.33588699
202	0xbf5dcb16	-0.8663801
203	0x3dcdf7f3	0.10057058
204	0x3e11c128	0.1423384
205	0x3daaabd7	0.08333557
206	0xbece8713	-0.40337428
207	0xbea7159b	-0.3263367
208	0xbf287328	-0.65800714
209	0xbf801240	-1.000557
210	0xbf49bcf6	-0.78803957
211	0xbe86ffb4	-0.2636696
212	0xbf041a98	-0.5160308
213	0xbf2a5465	-0.66535026
214	0xbf1765ce	-0.59139717
215	0xbf832acf	-1.0247439
216	0xbe55db71	-0.20884492
217	0x3e2343ae	0.15943787
218	0xbf448806	-0.76770055
219	0xbf4a129c	-0.78934646
220	0xbed6d06f	-0.41955897
221	0xbf0eb842	-0.55749905
222	0xbf9df432	-1.2340147
223	0xbf54a88e	-0.83069694
224	0xbe2d3631	-0.16915204
225	0xbf471230	-0.77762127
226	0x3e2bbafd	0.16770549
227	0xbeed11d9	-0.4630268
228	0xbf1ff0cc	-0.624768
229	0xbed7c2f2	-0.4214092
230	0xbf3a09d0	-0.7267122
231	0xbf1ef34e	-0.62090003
232	0xbf7faa18	-0.9986892
233	0xbf48a437	-0.7837557
234	0xbf30a3b3	-0.68999785
235	0xbf2aceb7	-0.6672167
236	0xbf8320e2	-1.024441
237	0x3e81f758	0.2538402
238	0xbf355269	-0.7082887
239	0x3e42bb9b	0.19016878
240	0xbf8b5dc4	-1.088799
241	0xbf6db498	-0.9285369
242	0x3f814536	1.0099247
243	0xbee2eb3a	-0.4432009
244	0xbf9aa067	-1.2080201
245	0xbfaa0af5	-1.3284594
246	0xbf735f3f	-0.9506721
247	0xbef5680e	-0.4793095
248	0xbede2269	-0.43385628
249	0xbf302ff0	-0.68823147
250	0xbf885bd1	-1.065302
251	0xbf3cbb61	-0.7372342
252	0xbf647d4e	-0.892537
253	0xbeb1c1ad	-0.34718075
254	0xbe8e6b9d	-0.27816477
255	0xbf227016	-0.6345228

fc2.weight f4 [128, 256]
0	0xbda4f04b	-0.08053645
1	0x3d059ba0	0.03261912
2	0x3cff9075	0.031196812
3	0xbceadca3	-0.02866966
4	0xbd4abfe6	-0.049499415
5	0xbcc89596	-0.02448539
6	0x3d9975b5	0.07493154
7	0xbcb0873d	-0.021548862
8	0xbdab980f	-0.08378612
9	0xbd94ea66	-0.072712705
10	0xbcc1ba5c	-0.023648433
11	0x3b3fd0e6	0.00292688
12	0xbde01d3f	-0.10943078
13	0xbd8a1427	-0.06742125
14	0x3be4bc04	0.006980421
15	0xbcd0a56a	-0.0254695
16	0xbdb52d11	-0.08846486
17	0xbddcf903	-0.10789683
18	0xbd83d8c3	-0.064378284
19	0xbd7b4070	-0.06134075
20	0xbe02af87	-0.12762271
21	0xbcdbf329	-0.026849346
22	0xbdaa12ac	-0.08304343
23	0xbc8d6b5e	-0.01726311
24	0xbda93ee1	-0.08263946
25	0xbc5255ee	-0.01283787
26	0xbc6a15a3	-0.014287385
27	0x3d353e67	0.044248965
28	0xbdbcf276	-0.09225933
29	0xbda7243f	-0.0816121
30	0xbdff5336	-0.12467043
31	0xbd284794	-0.041083887
32	0x3d38dace	0.045130543
33	0x3b923121	0.004461423
34	0xbde1da4b	-0.11027964
35	0xbdc587fc	-0.096450776
36	0xbda38945	-0.079851665
37	0xbdade14c	-0.084902376
38	0xbd452c5d	-0.04813801
39	0xbdb38b2a	-0.08766778
40	0xbdbf7c69	-0.09349901
41	0x3d1a9e43	0.037748586
42	0xbdab38bd	-0.08360431
43	0xbdc209f8	-0.09474558
44	0xbd9d6f68	-0.07687265
45	0xbdb918f0	-0.090379596
46	0xbdb02266	-0.08600311
47	0x3d92f9c8	0.07176548
48	0xbd97f24d	-0.07419262
49	0x3d43d11c	0.047806844
50	0x3d890e5d	0.06692193
51	0xbdae1131	-0.08499373
52	0x3c618914	0.013765592
53	0xbd5ac3c6	-0.05340936
54	0x3c6beff4	0.014400471
55	0xbd79f16a	-0.061021246
56	0xbd5835d0	-0.052785695
57	0x3d045f47	0.032317426
58	0xbcf6038d	-0.03003099
59	0x3cee5fb7	0.029098375
60	0xbba34467	-0.0049825194
61	0x3a26b7f8	0.0006359811
62	0xbc378fa0	-0.011203676
63	0xbd4a8054	-0.04943879
64	0x3d075394	0.03303869
65	0x3c25af13	0.010112542
66	0xbd0a2994	-0.03373106
67	0xbda8b708	-0.082380354
68	0xbdbc99cd	-0.09209023
69	0xbb63595a	-0.003469071
70	0xbd49fc87	-0.049313094
71	0xbdc750ee	-0.09732233
72	0x3b9559ed	0.004557839
73	0xbce29e34	-0.027663328
74	0x3c3860be	0.011253534
75	0x3d87ea64	0.06636503
76	0xbc3e3568	-0.011609413
77	0xbd348047	-0.044067647
78	0xbd52ddca	-0.051481046
79	0xbd32855d	-0.043584216
80	0xbdb4dea5	-0.088315286
81	0xbd9d6ad6	-0.07686393
82	0xbceb20d2	-0.028702173
83	0xbd5c0ab3	-0.05372114
84	0xbd13e472	-0.036106534
85	0x3caf092a	0.021366674
86	0x3d8cb405	0.068702735
87	0x3cd2e869	0.025745587
88	0xbd819cc9	-0.063287325
89	0xbb74b4e9	-0.0037339276
90	0xbdd72736	-0.10505526
91	0xbde585ea	-0.11207183
92	0xbd8e9a85	-0.06963066
93	0xbd3469f4	-0.044046357
94	0xbbfa80a4	-0.0076447297
95	0xbc834627	-0.016024662
96	0xbd8ea390	-0.06964791
97	0xbc174dcb	-0.009234856
98	0xbcfe0060	-0.031006038
99	0x3d461df2	0.0483684
100	0x3d050711	0.032477442
101	0xbc79810b	-0.01522852
102	0x3cd7816d	0.026306832
103	0xbdbf4813	-0.09339919
104	0xbddad5d6	-0.10685317
105	0x3d172826	0.036903523
106	0xbcbffd54	-0.023436226
107	0xbd4a631c	-0.049410924
108	0xbda54724	-0.080702096
109	0xbdd7cce9	-0.105371304
110	0x3ce237bb	0.027614465
111	0x3cace24e	0.021104004
112	0xbd86e726	-0.06587057
113	0xbddf3665	-0.10899047
114	0xbd61e47e	-0.055149548
115	0xbc0bf5b4	-0.008542467
116	0xbdc50dd9	-0.09621782
117	0xbcf5a70f	-0.029986886
118	0xbdd6fb50	-0.10497153
119	0xbc0e37d2	-0.008680301
120	0xbcc2f64f	-0.02379909
121	0xbdd3208b	-0.103089415
122	0xbdccf21e	-0.10007118
123	0xbd664b34	-0.056224063
124	0x3d578dd0	0.052625477
125	0xbc9da771	-0.019244881
126	0x3c939671	0.018016072
127	0xbcfb7611	-0.030695947
128	0xbdfbaae8	-0.12288457
129	0x3c0eedc2	0.008723678
130	0x3c15308d	0.009105814
131	0xbe06925b	-0.13141768
132	0xbd941530	-0.07230604
133	0x3c2dc8e2	0.010606976
134	0x3d2031e4	0.03911008
135	0xbdd3dddd	-0.103450514
136	0x3b66c7d2	0.0035214317
137	0x3c480e70	0.012210473
138	0x3b9823d2	0.004642942
139	0xbdbd1bb4	-0.092337996
140	0x3ca8b806	0.020595562
141	0x3ce09e2f	0.027419178
142	0x3d5d1195	0.053971846
143	0xbdc18a26	-0.09450178
144	0x3d405252	0.046953507
145	0x3c931946	0.017956387
146	0x3c268f80	0.010166049
147	0xbdb9968d	-0.090619184
148	0x3cd54c0a	0.026037235
149	0xbd4a4916	-0.049386106
150	0xbc913885	-0.017727146
151	0xbdbb5605	-0.09147266
152	0x3c7b43e9	0.015336015
153	0xbd0f1d2b	-0.034939926
154	0xbd4522ef	-0.04812902
155	0x3d7de4f6	0.061985932
156	0xbd016f6b	-0.031600397
157	0xbd4d097b	-0.05005787
158	0xbc2ccfdd	-0.010547605
159	0xbc230dd2	-0.0099520255
160	0xbd522f0d	-0.051314402
161	0xbd852605	-0.06501392
162	0xbd64416a	-0.055726446
163	0xbde49c98	-0.111626804
164	0x3dc3b22e	0.095554695
165	0xbcafce36	-0.021460634
166	0x3ca8cc1c	0.02060514
167	0x3d17a79d	0.037025083
168	0xbdc9221d	-0.0982096
169	0x3b4e8417	0.0031511837
170	0xbd15043b	-0.036380988
171	0xbda9db32	-0.08293761
172	0xbaaee869	-0.001334441
173	0xbda4585a	-0.08024664
174	0x3d360ddf	0.044446822
175	0xbd75dd10	-0.060025275
176	0xbc30c953	-0.010790187
177	0xbd54a3ee	-0.051914148
178	0x3cf32fab	0.029685816
179	0xbd6674d2	-0.056263752
180	0x3d20a96e	0.03922408
181	0xbd3c05d4	-0.045903996
182	0x3b73ed1c	0.0037220186
183	0x3d469b36	0.048487864
184	0xbc14f00c	-0.009090435
185	0x3d16958e	0.03676372
186	0x3d364120	0.0444957
187	0xbcab9d15	-0.020948926
188	0xbd5fd171	-0.0546431
189	0x3cf9f859	0.03051393
190	0x3d2705bd	0.040776957
191	0xbd96ea84	-0.07368949
192	0xbdca9765	-0.098921575
193	0xbc04158b	-0.008061777
194	0xbd6fc664	-0.05853881
195	0xbb8faff7	-0.0043849903
196	0xbc84ce9d	-0.016211802
197	0x3c8079da	0.015683103
198	0xbd2949cd	-0.041330148
199	0xbdc5812c	-0.09643778
200	0xbd6ba67f	-0.05753183
201	0xbdab912e	-0.083773
202	0x3d95bccf	0.07311403
203	0x39c36d1a	0.00037274585
204	0x3c458901	0.01205659
205	0xbcb2d2df	-0.021829067
206	0xbd872c66	-0.06600265
207	0x3c9f01f6	0.019410115
208	0xbd1bc913	-0.038033556
209	0x3d96a2b7	0.07355254
210	0xbd17fb43	-0.037104856
211	0xbb1f443b	-0.0024302143
212	0xbdaadb12	-0.083425656
213	0x3d081e8c	0.033232257
214	0x3cd84929	0.026402073
215	0xbcbe2bdd	-0.023214275
216	0x3d1c339e	0.038135163
217	0xba64a865	-0.00087226025
218	0x3d2c236f	0.04202598
219	0xbda43ba6	-0.080191895
220	0x3d255408	0.04036334
221	0xbd93e84a	-0.0722204
222	0x3c52e3c8	0.01287169
223	0x3c1cfb3f	0.009581386
224	0x3cd6371f	0.02614933
225	0xbdc44705	-0.095838584
226	0x3cad18db	0.021130016
227	0xbdba5395	-0.09097973
228	0xbc682674	-0.014169324
229	0xbdfb6539	-0.12275166
230	0xbd239390	-0.03993565
231	0xbc7dff6a	-0.01550279
232	0xbcccfd7b	-0.025023213
233	0x3d1f61e5	0.03891172
234	0xbda94949	-0.08265931
235	0xbd91abfe	-0.07112883
236	0xbc69b6cc	-0.014264774
237	0xbd300ce7	-0.042981055
238	0xbd411596	-0.047139727
239	0x3d6034a7	0.054737713
240	0x3c0489f6	0.008089533
241	0xbc9fc46f	-0.019502847
242	0x3ce441a0	0.027863324
243	0xbda144b6	-0.07874434
244	0xbd40c967	-0.047067072
245	0xbd99a1d7	-0.075015716
246	0x3db55c2f	0.08855473
247	0xbc1157d6	-0.008871039
248	0x3c3012a4	0.010746632
249	0xbd043ce8	-0.032284647
250	0xbda85927	-0.082201295
251	0x3d443b82	0.047908314
252	0xbca40636	-0.020022493
253	0x3d845e41	0.0646329
254	0xbdcc4bf3	-0.09975424
255	0x3d882ca8	0.066491425

fc2.bias f4 [128]
0	0xbd48a083	-0.0489812
1	0xbf99418e	-1.1973131
2	0xbe4deddd	-0.20110269
3	0xbd4e1c0c	-0.050319716
4	0xbed01b50	-0.40645838
5	0xbf4aac5f	-0.7916927
6	0xbeb9190e	-0.36151928
7	0xbeb88712	-0.3604055
8	0xbd7c6392	-0.061618395
9	0xbe11844c	-0.14210624
10	0xbfd6ff00	-1.679657
11	0xbeab5b88	-0.3346827
12	0xbf82a2cb	-1.020593
13	0xbd466fed	-0.048446584
14	0xbd994551	-0.07483924
15	0xbf0abb04	-0.54191613
16	0xbedc06af	-0.4297385
17	0xbe11e300	-0.1424675
18	0xbfb3e782	-1.4055026
19	0xbf058a00	-0.52163696
20	0xbc453a78	-0.012037866
21	0x3e065371	0.13117768
22	0xbf70a25d	-0.93997747
23	0xbed6f85f	-0.41986367
24	0x3e9d1c22	0.30685526
25	0xbf56fd9d	-0.83980733
26	0xbf2abc43	-0.66693515
27	0xbf52c412	-0.8233043
28	0xbef1890d	-0.47174874
29	0x3db717e1	0.089401014
30	0xbdfc8b28	-0.123312294
31	0xbe7968cd	-0.24356385
32	0xbe93c4d8	-0.28861117
33	0xbc358ca8	-0.011080898
34	0xbf10d18f	-0.5656976
35	0xbef2f89a	-0.47455293
36	0xbf4d55dd	-0.8020914
37	0xbf1e40d2	-0.6181766
38	0xbf1657d9	-0.58727795
39	0xbfb7242e	-1.4307916
40	0xbf52a411	-0.82281595
41	0x3dd9a080	0.10626316
42	0xbec09453	-0.37613162
43	0xbe8baecd	-0.272818
44	0xbf637177	-0.8884501
45	0xbef8e1b3	-0.48609695
46	0xbf5f7978	-0.8729472
47	0xbf60fbd7	-0.8788428
48	0xbebe9cd7	-0.37229034
49	0x3e1337d3	0.14376764
50	0xbef9b852	-0.48773438
51	0xbf50ea81	-0.81607825
52	0xbf0e1bf8	-0.55511427
53	0xbf889af6	-1.067229
54	0xbfd921f0	-1.6963482
55	0x3da9267c	0.082592934
56	0xbe8724df	-0.26395318
57	0xbe22ebfa	-0.1591033
58	0xbf4478d2	-0.7674686
59	0x3a81a3d1	0.000989074
60	0xbda59d24	-0.08086613
61	0xbecf40e2	-0.4047919
62	0xbecb1c5b	-0.3967007
63	0xbef22660	-0.47294903
64	0xbe1cbb0f	-0.15305732
65	0xbf3bad60	-0.73311424
66	0xbd388173	-0.045045327
67	0xbf3e0cf2	-0.742385
68	0xbe0133ae	-0.1261737
69	0x3d80bac2	0.06285621
70	0x3d0934a2	0.03349746
71	0xbe84c677	-0.25932667
72	0xbcfbed74	-0.030752875
73	0xbde812fd	-0.11331747
74	0xbeded0e5	-0.4351875
75	0xbf15031e	-0.5820788
76	0x3ca42680	0.02003789
77	0xbf2b432a	-0.6689936
78	0xbddf5481	-0.1090479
79	0xbe3ff718	-0.18746603
80	0xbf6bb961	-0.9207974
81	0xbeca96da	-0.39568216
82	0xbe2af1b2	-0.16693762
83	0xbde157c1	-0.11003066
84	0xbeeb8965	-0.4600326
85	0xbd5b4c00	-0.053539276
86	0xbe0131fc	-0.12616724
87	0xbe72c32c	-0.23707265
88	0xbf924105	-1.1426092
89	0xbe859bdf	-0.26095483
90	0xbf5ef2d2	-0.87089264
91	0xbea98bd5	-0.33114496
92	0xbcf1dfa1	-0.02952558
93	0xbf70b228	-0.94021845
94	0xbec653ce	-0.38735813
95	0xbd43f0b4	-0.047836974
96	0xbfb2ff1c	-1.3984103
97	0xbef5a12b	-0.47974524
98	0xbea579ff	-0.32319638
99	0xbd202d88	-0.039105922
100	0xbefc0056	-0.49219006
101	0xbfa7d58c	-1.3112044
102	0xbf58f9f7	-0.84756416
103	0xbd77823a	-0.060426928
104	0xbeb734f1	-0.3578258
105	0xbe50130d	-0.20319767
106	0xbe604266	-0.21900329
107	0xbf43c71c	-0.7647569
108	0xbe21be01	-0.15795137
109	0xbe2750d2	-0.16339424
110	0xbeee2d78	-0.46519065
111	0xbf89c875	-1.07643
112	0xbf27c30a	-0.6553198
113	0xbf0459f7	-0.51699775
114	0xbdbfce44	-0.09365514
115	0x3d1d9652	0.038473435
116	0xbd7dd4a0	-0.061970353
117	0xbf6d40de	-0.92677104
118	0xbf1ed36d	-0.6204136
119	0xbf033384	-0.5125048
120	0xbed0f11a	-0.40808946
121	0xbf62046b	-0.8828799
122	0xbeebd80c	-0.46063268
123	0xbf780ddc	-0.9689615
124	0xbf7d64ca	-0.98981917
125	0xbfae0f4b	-1.3598417
126	0xbee2426f	-0.4419131
127	0x3e5ced21	0.21574832

fc3.weight f4 [2, 128]
0	0x3c4123f4	0.011788357
1	0xbf18507f	-0.5949783
2	0xbde27ea8	-0.11059314
3	0xbcf78092	-0.030212674
4	0x3f3cad5f	0.73702043
5	0xbee36f95	-0.44421068
6	0x3c494012	0.012283342
7	0x3e8d53e2	0.2760306
8	0x3bf37cf5	0.0074306675
9	0xbe48019d	-0.19531865
10	0xbfab9fae	-1.3408105
11	0x3e9191f6	0.28431672
12	0x3ea3c928	0.31989408
13	0xbc61e7ad	-0.013788146
14	0x3c82b360	0.015954673
15	0xbf0f3908	-0.559464
16	0x3e150a71	0.14554764
17	0x3ecc1fae	0.3986792
18	0xbc85a683	-0.01631475
19	0x3e8aaf9f	0.27087113
20	0x3bbad749	0.0057019335
21	0x3e9b4244	0.30323994
22	0x3eca768f	0.39543578
23	0x3daae772	0.08344926
24	0xbef75e63	-0.483142
25	0x3d920606	0.07130055
26	0xbdcad02a	-0.099029854
27	0xbe4a24de	-0.19740626
28	0xbd8099bc	-0.062793225
29	0x3d095bd8	0.033534855
30	0xbda7f2b0	-0.08200586
31	0x3eb78d9b	0.35850224
32	0x3e536a5f	0.20646046
33	0x3d0dfc88	0.03466466
34	0x3c8bbaad	0.017056787
35	0x3ca5c17f	0.020233868
36	0xbeaf3dad	-0.34226742
37	0x3eb569c9	0.3543227
38	0xbde2c8cc	-0.11073455
39	0xbe347869	-0.17624058
40	0xbe906377	-0.28200886
41	0x3e32b3d3	0.1745141
42	0xbf78ac76	-0.97138155
43	0x3a719c59	0.0009216718
44	0xbe8af9d3	-0.27143726
45	0xbd8cd4f3	-0.06876554
46	0xbf20e0c7	-0.62842983
47	0x3d8fb234	0.070164114
48	0x3e71d442	0.23616126
49	0xbec5bf1b	-0.38622364
50	0xbdc5b9b2	-0.09654559
51	0xbea473f2	-0.3211971
52	0x3d2d1071	0.042252008
53	0xbe9ede72	-0.31029087
54	0xbed568bf	-0.41681477
55	0x3ec14f7e	0.3775596
56	0x3e3531c4	0.17694765
57	0xbcf4bfd5	-0.029876629
58	0xbe820988	-0.25397897
59	0xbbf95b6e	-0.007609776
60	0x3cade909	0.021229284
61	0x3ddf31ac	0.10898146
62	0x3e8d646d	0.2761568
63	0x3e20d48d	0.15706082
64	0xbe8139c3	-0.2523938
65	0xbf874307	-1.056733
66	0xbd5069c7	-0.050882127
67	0x3ed31972	0.4123035
68	0xbc0433ee	-0.008069022
69	0xbca6e8e1	-0.020374717
70	0xbdafe012	-0.0858766
71	0xbd95c94f	-0.07313787
72	0x3e84ba23	0.2592326
73	0xbd0a62c0	-0.03378558
74	0x3e985b06	0.29756945
75	0x3efbd34f	0.49184653
76	0xbd1344db	-0.035954338
77	0x3edba088	0.42895913
78	0xbcb894ce	-0.022531893
79	0xbbe40d2b	-0.0069595776
80	0x3d5c7566	0.053822897
81	0xbf0c3c49	-0.5477949
82	0x3eac28bc	0.33624828
83	0xbbd22d0a	-0.0064140605
84	0x3f0280a6	0.5097755
85	0xbda83171	-0.08212555
86	0x3f0a6da3	0.5407354
87	0xbe676419	-0.22596778
88	0xbd6b53a5	-0.057452817
89	0xbdb7f450	-0.08982146
90	0x3ef52311	0.47878316
91	0x3ec44fc8	0.38342118
92	0x3ec93f99	0.39306334
93	0xbf275b92	-0.653741
94	0xbe72deb4	-0.23717767
95	0xbb8aefa1	-0.004239992
96	0xbf145850	-0.57947254
97	0x3e636fdb	0.22210638
98	0x3da97093	0.08273425
99	0xbc82757b	-0.01592516
100	0xbeea2c23	-0.457368
101	0xbf9ffdfe	-1.2499387
102	0xbfaf045d	-1.3673207
103	0xbb5720c7	-0.0032825933
104	0xbc7ce96a	-0.01543651
105	0x3ecdafa5	0.4017307
106	0x3edb546e	0.42837852
107	0xbe33d7bb	-0.17562763
108	0xbb878bde	-0.0041365465
109	0x3c8e7dad	0.017393911
110	0x3ea24b47	0.31698057
111	0xbf019b0e	-0.5062722
112	0xbe76f567	-0.24117051
113	0x3f2c299e	0.67251
114	0x3eb51c85	0.3537332
115	0x3f0804a7	0.531321
116	0xbc52f3e5	-0.012875532
117	0x3ef70653	0.48247012
118	0x3e35dbb6	0.17759594
119	0xbd4c0fd3	-0.04981978
120	0x3ed715c1	0.42008784
121	0x3dd0ab7a	0.101889566
122	0x3ed43257	0.41444656
123	0xbe4f5233	-0.202462
124	0xbec2f669	-0.3807862
125	0xbe5b65a2	-0.21425489
126	0xbdec0b4e	-0.11525594
127	0xbe932733	-0.28740844
128	0x3c31b9b8	0.010847501
129	0xbb83638b	-0.004009669
130	0x3d9097e1	0.070602186
131	0xbd831f5b	-0.06402465
132	0xbc0c5ea8	-0.00856749
133	0xbf801afd	-1.0008236
134	0xbe8875b9	-0.26652315
135	0x3e114882	0.14187816
136	0x3c089651	0.0083366195
137	0x3e11d513	0.14241438
138	0xbeb11581	-0.3458672
139	0xbe310588	-0.17287266
140	0xbfbf0609	-1.4923717
141	0x3c710092	0.014709609
142	0x3eb46072	0.35229832
143	0xbf4fb123	-0.81129664
144	0xbe3375d8	-0.17525423
145	0xbeb490df	-0.35266778
146	0x3efdb64c	0.49553144
147	0xbd4f4a3f	-0.050607916
148	0xbccff96b	-0.025387486
149	0x3deffe44	0.11718419
150	0x3f0c8286	0.5488666
151	0xbe960b36	-0.29305428
152	0x3f1912d4	0.59794354
153	0x3ebde7ac	0.37090814
154	0x3e4bed4b	0.19914739
155	0xbf849d3b	-1.0360483
156	0xc000c0ab	-2.0117595
157	0x3eb72283	0.35768518
158	0xbd6025fa	-0.054723717
159	0x3dae8bd3	0.08522763
160	0xbe1ca934	-0.15298921
161	0xbcf5587e	-0.029949423
162	0xbfc759bb	-1.5574259
163	0x3f6d2a65	0.92642814
164	0x3f0d44d5	0.55183154
165	0xbf4bacba	-0.79560435
166	0xbf2e4e91	-0.6808863
167	0x3de0ec58	0.10982579
168	0xbe839164	-0.25696862
169	0x3ddca141	0.10772944
170	0xbdecab9f	-0.115561716
171	0xbdcb3fee	-0.09924303
172	0xbf31a87f	-0.6939773
173	0xbf10e02f	-0.56592077
174	0x3dd9bd00	0.10631752
175	0xbe3438c7	-0.17599784
176	0xbf8336ee	-1.0251138
177	0x3f98bf2f	1.1933345
178	0xbf8bf5ab	-1.0934347
179	0x3e614ca6	0.22001895
180	0xbf88e699	-1.0695373
181	0xbf8f68c5	-1.1203848
182	0xbf98e02e	-1.1943414
183	0xbf4716a7	-0.7776894
184	0xbf5cdce8	-0.86274576
185	0x3ec67a13	0.3876501
186	0xbd6a3869	-0.057182703
187	0x3c1c5f62	0.009544225
188	0xbc05c210	-0.008163944
189	0xbe89fed3	-0.26952228
190	0xbefb42d9	-0.49074438
191	0xbfa15c72	-1.2606337
192	0xbf4e12cc	-0.8049743
193	0xbe8dbb2c	-0.27681863
194	0xbdd21b2e	-0.1025909
195	0x3efad8b6	0.48993462
196	0xbd3d3966	-0.046197318
197	0xbc086d81	-0.008326889
198	0x3f10b15f	0.56520647
199	0xbf543b2f	-0.82902807
200	0xbe4848de	-0.19559047
201	0xbb3c5ff0	-0.0028743707
202	0xbf749cbf	-0.95551676
203	0xbf9bc929	-1.2170764
204	0xbcfb72a0	-0.030694306
205	0x3e4369b7	0.19083296
206	0x3f25bb14	0.64738584
207	0x3e4d52ca	0.20051113
208	0x3edcb7f9	0.4310911
209	0x3ee8a7a7	0.4544041
210	0xbfb124f4	-1.3839402
211	0x3be19d9a	0.0068852426
212	0xbee84854	-0.45367682
213	0x3ce331b8	0.027733669
214	0xbf2859a8	-0.65761805
215	0x3e37c5ab	0.17946498
216	0xbf9adfcd	-1.2099549
217	0x3f984cef	1.1898478
218	0x3e3264d5	0.17421277
219	0x3e8ba4c2	0.27274138
220	0xbfe2c75d	-1.7717091
221	0xbfa283f2	-1.2696517
222	0xbf3f6e79	-0.7477794
223	0x3d1f34b7	0.038868632
224	0xbe8ecd6e	-0.27891105
225	0xbf03ba71	-0.5145636
226	0xbecabfbb	-0.39599404
227	0xbb6f9064	-0.003655457
228	0xbebae484	-0.3650247
229	0xbf902b4a	-1.1263211
230	0xbf0bdd94	-0.54634976
231	0x3c89aa37	0.016804798
232	0xbbb930b7	-0.005651559
233	0xbfdc7e57	-1.7226056
234	0xbdaf20ba	-0.08551164
235	0xbd897054	-0.06710878
236	0xbaf4eca2	-0.0018686245
237	0xbe23ab22	-0.1598325
238	0xbeabb77f	-0.33538434
239	0x3e3ab33a	0.18232432
240	0x3eb95954	0.36200964
241	0xbfa90039	-1.3203193
242	0x3e008b14	0.12553054
243	0xbfe51354	-1.7896523
244	0xbc451378	-0.0120285675
245	0xbe52726f	-0.20551465
246	0xbf31f8e7	-0.6952042
247	0xbf0580be	-0.5214957
248	0x3cc92195	0.024552146
249	0xbfae80e6	-1.3633087
250	0xbe344387	-0.17603885
251	0xbfa2ef22	-1.2729228
252	0xbf3a2e80	-0.72727203
253	0xbf874876	-1.0568988
254	0xbf1ba21c	-0.60794234
255	0xbf50787c	-0.81433845

fc3.bias f4 [2]
0	0x3d21f4d2	0.03954012
1	0xc03d282e	-2.9555774
