p3_collab-compet/models/actor_0.pth (torch_old, 183782 bytes, 6 tensors)

fc1.weight f4 [256, 48]
000000 e3 51 7c 3f ad cc 4a bf e6 00 70 3e fb 0b ea bd
       0.9856245 -0.7921856 0.23437843 -0.11428066
000010 5c 5d b3 be 6e a7 a4 bf 31 2e 75 3e e4 99 79 bd
       -0.35032165 -1.2863595 0.23943402 -0.060937777
000020 af 09 2f 3f 29 a5 a4 bf 7b f6 18 bd 55 b5 5c bf
       0.6837415 -1.2862903 -0.037344437 -0.8621419
000030 0c 58 16 bf 3c 44 64 bf f6 98 c8 3c 2c 7b 45 bf
       -0.587281 -0.8916662 0.024487 -0.7714107
000040 da 1f 49 3f 70 87 b7 bf 18 18 b9 3e 10 ce b2 bf
       0.78564227 -1.4338207 0.36151195 -1.3969135
000050 e9 e2 b9 be c1 c6 90 bf 33 d6 cc 3e fc d4 a9 bf
       -0.3630593 -1.1310655 0.4000717 -1.3268123
000060 94 ed 9a 3f ea 28 30 be 42 f1 4c 3e 48 bc 7e 3e
       1.2103753 -0.17203107 0.20013908 0.24876511
000070 57 2d b2 3e 10 6d ab bf ff 02 97 3e b7 30 82 3e
       0.34800217 -1.3392658 0.29494473 0.2542779
000080 bf c4 80 3f c6 37 0d bf 3d 97 0c 3e 9c d6 b0 be
       1.0060042 -0.5516323 0.13729568 -0.34538734
000090 56 3d 11 3f b5 d2 63 bf e7 e7 d5 3d 31 c1 98 be
       0.56734216 -0.8899339 0.104446225 -0.29834893
0000a0 86 0d 8c 3f b5 35 c8 be 6f 48 5a 3f fe 70 00 bf
       1.0941627 -0.39103475 0.85266775 -0.5017241
0000b0 10 95 be 3e ea 22 90 bf e5 39 66 3f 82 5c f0 be
       0.372231 -1.1260655 0.8993209 -0.46945578
0000c0 c1 12 b4 3f fd a9 fb bf ba f0 a6 be 3e a9 b0 bf
       1.4068223 -1.9661251 -0.32605535 -1.3801649
0000d0 1a e6 d3 bd 7b cb c1 bf 21 0f 96 be 43 9a ad bf
       -0.10346623 -1.5140222 -0.29308417 -1.3562702
0000e0 b0 64 57 3f 11 c1 27 c0 98 1a 18 be 04 d0 98 bf
       0.8413801 -2.6211588 -0.14853895 -1.1938481
0000f0 a1 f9 ec be 28 ad 14 be ad 1c 73 bd cd d5 93 bf
       -0.46284202 -0.14519179 -0.05935352 -1.1549622
000100 78 db 2a 3f 9d c7 3b c0 9d 47 9d 3d 97 54 a6 bf
       0.6674113 -2.9340584 0.07679675 -1.2994565
000110 f5 f6 f5 be b2 65 24 3f b8 9f 7f 3d c5 11 ac bf
       -0.48039976 0.64217675 0.06240818 -1.3442923
000120 55 e2 58 3f 07 77 8d 3f a6 e2 2f 3f ee fe 01 3f
       0.84720355 1.1051949 0.68705213 0.50779617
000130 2f 76 65 3d 76 7b c2 bf c0 e4 2e 3f c2 a6 ea 3e
       0.05602091 -1.5193927 0.68317795 0.4583035
000140 fb 26 fb 3e 44 1c 03 3f 25 b9 cc bd 1e 2e 48 3f
       0.49053177 0.51215005 -0.09996251 0.7819537
000150 81 5e ea 3e b9 b7 81 be 91 e2 01 be a7 65 37 3f
       0.45775226 -0.25335482 -0.12684084 0.71639484
000160 8a 42 c6 3e ac 44 aa 3e 81 2e ee be 6f 66 9c be
       0.3872264 0.33255517 -0.46519855 -0.305469
000170 03 19 c1 3e 49 bc 2a 3f 1d 37 09 bf b9 09 88 be
       0.37714395 0.6669355 -0.5359972 -0.26569918
000180 36 be 8b be ef 3d 56 3f a1 d4 27 3e 12 77 a3 3f
       -0.27293557 0.83688253 0.16389705 1.2770712
000190 49 dd 00 40 43 30 de be 0c 5d 0b 3e a1 58 af 3f
       2.0135062 -0.43396196 0.13609713 1.3698922
0001a0 71 2a 58 be 74 34 bb 3f f5 b0 80 be d8 9e 0e 3f
       -0.2110994 1.4625382 -0.25135008 0.55711126
0001b0 cd 40 98 3f 71 43 06 bf 90 6b 90 be 90 39 f3 3e
       1.1894776 -0.5244666 -0.28207064 0.47504854
0001c0 b6 ac 36 be 27 56 e9 3f 6c 86 fa 3e c4 a6 d8 3e
       -0.17839321 1.8229417 0.4893068 0.42314732
0001d0 11 6b 04 3f 9e a0 3a bf 8b 7c f2 3e be 3c e0 3e
       0.5172587 -0.7290133 0.47360644 0.43796343
0001e0 ad 71 87 3e 6a 22 59 bf 73 85 b8 3e dc b5 e4 bf
       0.26453915 -0.84818137 0.36039314 -1.7867999
0001f0 2e 24 03 c0 cc 86 de be a0 6b db 3e 68 b5 e7 bf
       -2.0490832 -0.43462217 0.4285555 -1.8102236
000200 b9 3d 41 3e 2b 9f 4a bf 80 21 19 be 43 02 fa be
       0.18871202 -0.7914912 -0.14954185 -0.4882985
000210 b0 15 9e bf d0 f3 01 bf 82 c0 b3 bd 5e 32 16 bf
       -1.2350368 -0.50762653 -0.08776952 -0.58670604
000220 6f cc c1 3e 35 0a e4 be 5e 90 5d bd 98 13 1f 3f
       0.37851283 -0.44539037 -0.054092757 0.6213927
000230 99 6d 08 bf c3 54 43 bf 86 09 57 3d 1a f3 16 3f
       -0.5329223 -0.7630121 0.052499317 0.58964694
000240 87 68 c2 3e 60 e4 b9 3c 25 f7 2b 3e 86 7a ff 3e
       0.37970373 0.022691905 0.16793497 0.49898165
000250 f4 b9 f5 be cf 22 b5 be 7a dc 5c 3e 06 dd dd 3e
       -0.47993433 -0.3537812 0.2156848 0.4333269
000260 09 07 2c 3e 4f 06 f2 3d ec 5a a1 bd 81 15 72 3f
       0.16799559 0.118176095 -0.0787867 0.9456406
000270 a1 ca 1c bd 8d 10 a4 be 96 4c cf bd 7d e4 77 3f
       -0.03827918 -0.32043877 -0.101220295 0.9683302
000280 d1 e4 b2 3e 47 5c 3a 3f 5f fd 3c 3e 24 a3 e8 3f
       0.34940198 0.72797054 0.18456028 1.8174787
000290 a0 63 72 3e 70 95 22 bf 8c 47 b9 3d a8 52 eb 3f
       0.23670816 -0.63509274 0.090468496 1.83846
0002a0 bb 54 c4 3e 79 91 2f c0 63 ac 08 3f 60 44 0c c0
       0.38345894 -2.743254 0.5338804 -2.1916733
0002b0 b6 5a c3 3e c7 7f c8 be 10 b5 0f 3f b2 70 0c c0
       0.38155144 -0.39159986 0.56135654 -2.1943784
0002c0 be c9 a1 3e d7 be 5a c0 9f 34 02 be dd a5 66 3f
       0.3159923 -3.417898 -0.12715386 0.9009684
0002d0 f3 cf 8c 3d 3b dd ba be 98 15 be bd 5c ee 55 3f
       0.06875601 -0.3649691 -0.092814624 0.8356683
0002e0 53 57 ce 3e 3b 16 51 c0 02 e9 3c 3d ec 72 82 3f
       0.40300998 -3.2669818 0.04612065 1.0191321
0002f0 01 af 35 be 70 33 06 bf d1 58 1b bd 01 d5 80 3f
       -0.1774254 -0.5242224 -0.0379265 1.0065004
000300 98 ce fd 3e f3 b1 95 be 15 d4 21 3f 07 95 02 3f
       0.4957168 -0.29237327 0.63214236 0.5100865
000310 1a 13 22 be 4d 4c 96 bf d7 e9 32 3f 6c d3 f7 3e
       -0.15827599 -1.1742035 0.6988806 0.4840349
000320 ec 37 25 3f 04 d9 00 be 13 b0 99 3e ae 08 f8 bd
       0.64538455 -0.12582785 0.30017146 -0.121110305
000330 46 3c 66 3d d2 31 bc bf 21 92 6e 3e 06 25 a5 bd
       0.056209825 -1.4702704 0.23297931 -0.08063702
000340 e4 5c 10 3f 01 de 39 3e 98 23 a0 be 39 13 07 bf
       0.5639174 0.18151094 -0.31277156 -0.52763706
000350 56 dd 57 3e c1 10 ee bf 18 6c 8a be 53 05 18 bf
       0.21080527 -1.8598863 -0.27035594 -0.59383124
000360 65 cb 2e 3f 10 9e 00 bf 4f 4e 58 be 0d b4 95 bf
       0.68279105 -0.50241184 -0.21123622 -1.1695572
000370 90 85 b3 3d 3a 90 91 bf 5c 60 1b be e7 4d 86 bf
       0.087657094 -1.137214 -0.15173477 -1.0492524
000380 b5 46 21 3f ba fc 4f bf de 5e 57 bf b9 fa df bf
       0.62998515 -0.81245005 -0.8412913 -1.749839
000390 49 c3 80 bd ed b1 c5 bf 76 84 49 bf 94 eb e7 bf
       -0.06287248 -1.5444924 -0.78717744 -1.8118768
0003a0 7d 45 22 3f 70 ec 69 bf 09 7d cd 3d 20 b3 98 3d
       0.6338728 -0.913764 0.10033614 0.074560404
0003b0 4a 73 1c be cb 54 f1 bf 12 7e 26 3e 7d 45 ab 3c
       -0.15278354 -1.8854002 0.1625903 0.020907158
0003c0 cb d3 0b 40 f2 5f 23 bc 4a 6d e9 bc 16 c0 ae 3e
       2.1848018 -0.009971606 -0.028494496 0.34130925
0003d0 33 60 db be d0 ef ac 3d 15 9d 39 bc 9a ff ad 3e
       -0.42846832 0.08444178 -0.011328955 0.3398407
0003e0 79 7f 30 40 1f 27 02 3e ac 37 4e 3f d2 69 65 be
       2.7577803 0.12710236 0.805537 -0.22403648
0003f0 66 85 16 bf bc 5b 1b be 5a fd 48 3f e8 99 69 be
       -0.587973 -0.15171713 0.78511584 -0.22812617

fc1.bias f4 [256]
000000 05 c5 dc be 45 3b df be bb b8 ce bd a5 70 df be
       -0.43119064 -0.43599907 -0.10093828 -0.43640628
000010 8d 71 3a bf 7f 62 4e be d8 92 40 bf da 9e 74 bf
       -0.72829515 -0.20154761 -0.75224066 -0.9555489
000020 05 9d 11 bf f4 33 55 bf ea 2f 56 bf 7e 17 35 bf
       -0.5688022 -0.832824 -0.8366686 -0.7073897
000030 cc 4a ba bd 0a 1c 9a bf 28 b3 4c bf 84 f5 bf be
       -0.090962976 -1.2039807 -0.7996087 -0.37492
000040 1f 3a 03 bb de 6f a0 bf 21 fa 7b bf 83 66 7b be
       -0.0020023657 -1.2534139 -0.9842854 -0.24550824
000050 f2 d4 c8 be 0e 30 3b bf 2a 76 a5 bd 0f eb 3a bf
       -0.39224964 -0.731202 -0.08079179 -0.7301492
000060 85 09 aa 3c e4 84 b1 be ec e9 56 bf 1a ec 8e bf
       0.020756492 -0.346717 -0.83950686 -1.1165802
000070 48 fe a3 bf 55 97 62 bf 54 63 61 bf 67 66 93 be
       -1.2811975 -0.88512164 -0.8804219 -0.28789064
000080 bb 7c 53 bf bb 80 d0 3e f3 93 1f bf 72 0e 74 bf
       -0.826122 0.40723214 -0.6233513 -0.9533454
000090 d7 d3 94 bf a9 87 3d be 49 c7 9a bf 69 32 31 bf
       -1.1627148 -0.18508781 -1.2092067 -0.69217545
0000a0 c1 df 4a bf fc 32 22 bf e1 b6 a6 3e 0c 41 53 bf
       -0.7924767 -0.63359046 0.325614 -0.8252113
0000b0 37 a8 5a bf 76 1d 6a bf 28 57 60 bf 48 94 ff be
       -0.85412925 -0.91451204 -0.8763299 -0.49917817
0000c0 59 60 39 bf 53 e3 15 bf e1 b3 8b bf 54 0b 7e bf
       -0.7241264 -0.58549994 -1.091427 -0.99236035
0000d0 b8 54 89 bf e4 9a 4b bf fc 28 20 bf 2b 02 4a bf
       -1.0728979 -0.7953322 -0.6256254 -0.7890956
0000e0 fc 08 9a be a6 f3 6c 3f c3 a8 69 bf f6 d7 78 bf
       -0.3008498 0.9255928 -0.91273135 -0.9720453
0000f0 ec 5e 76 bf 0a bd 99 bf d7 11 8f bf db 25 3b bf
       -0.9623859 -1.2010815 -1.1177319 -0.7310464
000100 36 08 a5 3e ae 87 89 bf af 39 79 bf 80 e0 33 bf
       0.32232827 -1.0744531 -0.97353643 -0.70264435
000110 77 14 c3 bf ba 2b 85 bf 2d 5b 43 bf bf da 32 be
       -1.524062 -1.0403969 -0.76311 -0.17466258
000120 f5 27 5c be ab 78 88 be 72 86 60 bf 3f d9 63 bf
       -0.21499617 -0.26654562 -0.8770515 -0.89003366
000130 99 05 d0 3e 2b d4 74 bf 07 ab b7 bf 3c 0f 33 bf
       0.4062927 -0.9563624 -1.4349068 -0.6994512
000140 45 3a 1d bf d5 d5 57 3e cb fd d4 be 43 9f b6 bd
       -0.6141704 0.21077664 -0.4159988 -0.089170955
000150 46 f1 b3 be c5 b3 14 bf c3 db 98 be b8 05 a6 bd
       -0.35145015 -0.58086807 -0.29855165 -0.081065595
000160 02 be 84 bf e8 45 79 3e c8 77 70 bf bd fa 93 bf
       -1.0370486 0.24343073 -0.9393277 -1.1560894
000170 59 e7 53 bf b2 08 7b bf 61 03 53 bf 2f b5 d5 be
       -0.82774884 -0.98060143 -0.8242703 -0.41739795
000180 c8 42 fe be 1d 53 b4 be ac 3e ac be 45 54 03 bf
       -0.49660325 -0.3521966 -0.33641565 -0.5130046
000190 50 2c 19 bf 5f 08 5c bf 90 f3 07 bf 8c 0e 8e bf
       -0.5983324 -0.85950273 -0.5310602 -1.1098189
0001a0 df 12 9e bf 45 05 47 40 11 15 94 bf 6b 74 45 bf
       -1.2349509 3.1096966 -1.1568929 -0.77130765
0001b0 7c 5a 2c be 46 a5 80 bf 27 c0 72 bf 7e c2 4b bf
       -0.16831392 -1.0050437 -0.9482445 -0.79593647
0001c0 ee 40 e8 be 2f 89 44 bf 95 4a 0a bf 32 4a 56 bf
       -0.45362037 -0.76771826 -0.54020053 -0.83706963
0001d0 7a 26 24 bf fb 76 08 bf 52 ba 61 bf a8 1a 53 be
       -0.6412121 -0.5330655 -0.8817493 -0.20615637
0001e0 26 ba 97 bb 10 1e 7f bf 4d e9 5e bf f0 79 20 bf
       -0.004630345 -0.99655247 -0.8707474 -0.6268606
0001f0 ca 22 49 bf 3c f0 b9 be 28 5c 52 bf 34 16 e5 bd
       -0.7856871 -0.36316097 -0.8217187 -0.111858755
000200 aa f6 4e bf 5f 01 be be 2f 40 91 bf 79 bb 02 bd
       -0.8084513 -0.3711042 -1.1347712 -0.03191707
000210 0c fd 97 be 0e 37 43 bf 0c b9 4d bf fa 1a 01 bf
       -0.29685247 -0.7625588 -0.80360484 -0.5043179
000220 88 42 7a bf 0d 98 74 bf 32 f1 2d be 61 8e a0 bf
       -0.9775777 -0.9554451 -0.1698654 -1.254345
000230 41 f1 6f bf 63 74 6e be 78 5a 28 bf 1c ff 96 bf
       -0.937275 -0.23286586 -0.65763044 -1.1796603
000240 0e 8f 65 bf 4a 01 83 be c5 af c4 be 45 2b 2c 3f
       -0.8967141 -0.2558692 -0.38415352 0.67253524
000250 ea 2e 08 bf 2c 18 54 bf b2 84 48 bf 12 8a 6e bf
       -0.53196585 -0.82849383 -0.78327477 -0.9317943
000260 33 09 47 bf 44 b0 67 bf 07 07 a3 bf 3e 7f 06 bf
       -0.7774841 -0.90503335 -1.273652 -0.52537906
000270 07 87 36 3f cb 6f 28 bf 7a f4 44 bf 44 b5 05 be
       0.71299785 -0.6579558 -0.7693554 -0.13057429
000280 bd 09 42 bf 0a f1 81 bf e2 90 73 bf 54 7a 4b bf
       -0.7579611 -1.0151684 -0.9514295 -0.7948353
000290 4b 67 94 bf c8 4e 8b bf 3e b1 7f bf af c9 2f bf
       -1.1594023 -1.0883417 -0.99879825 -0.6866712
0002a0 d3 e3 87 bf 71 00 95 bf f3 2d ca be ac b9 4c bf
       -1.0616401 -1.164076 -0.3948818 -0.7997081
0002b0 83 48 81 be 68 f0 1f bf 87 9d 80 bf 56 d3 6f be
       -0.25250635 -0.62476206 -1.0048074 -0.23420462
0002c0 e5 d6 5c bf 8a 69 15 bf 30 0d 39 bf 75 5e 6b bf
       -0.86265403 -0.58364165 -0.7228575 -0.91941005
0002d0 fd b1 67 bf f4 58 55 bf 33 34 06 bf 55 30 9a bf
       -0.90505964 -0.83338857 -0.524234 -1.2046
0002e0 22 97 9e bf 67 7f 83 bf 48 cf 34 bf 10 b3 ab 3b
       -1.2389872 -1.0273255 -0.70628786 0.005239852
0002f0 86 c9 52 bf ce d8 15 bf ce a8 56 be 1f 5e 19 bf
       -0.8233875 -0.5853394 -0.20962831 -0.5990924
000300 1d ce 84 bf 8c 08 4a 40 6a 4b 53 bf b6 36 78 be
       -1.0375401 3.1567717 -0.8253695 -0.2423962
000310 97 1d 7b bf 7c bd 97 bf ce 39 20 bf 94 6f 55 bf
       -0.98092026 -1.1854701 -0.625882 -0.8337338
000320 1b 5b 21 bf 32 95 15 3d 39 1f 0c bf c1 69 29 bf
       -0.6302964 0.036519237 -0.5473514 -0.6617699
000330 0b 4a 39 bf 97 4a b0 be 66 05 85 bf 3f 56 65 bf
       -0.72378606 -0.34431908 -1.0392272 -0.89584726
000340 22 a9 72 bf 1b 9c f0 be e2 d0 77 bf 65 92 52 bf
       -0.94789326 -0.469941 -0.96803105 -0.8225463
000350 d7 4b c5 be 87 b8 43 bf 0f f6 4f 3f 7c 6e 8c 3e
       -0.38534424 -0.7645344 0.8123483 0.27428043
000360 a2 5d 70 bf bf 7b 8a bd 12 36 34 bf c8 71 32 bf
       -0.9389287 -0.06761884 -0.70395005 -0.69704866
000370 d1 84 26 bf 1f 47 c8 be fc 4e 17 bf c9 12 04 bf
       -0.6504641 -0.3911676 -0.59104896 -0.51591164
000380 0f db 10 3e 7e ca 88 be cc f6 5d bf 0b 24 f0 3a
       0.14146064 -0.2671699 -0.8670471 0.0018321289
000390 7a f1 ee be be 8c 6c bf c0 bc 24 bf ed ee 40 bf
       -0.46668607 -0.92402256 -0.6435051 -0.7536457
0003a0 20 96 5d bf 7e 87 7b bf 29 93 3e 3f 56 3d 53 bf
       -0.865572 -0.9825362 0.744433 -0.82515466
0003b0 44 58 3b bf 5f d5 22 bf dd 8a 88 bf 10 9e 49 bf
       -0.7318156 -0.6360683 -1.0667378 -0.7875681
0003c0 9d 5d 39 3e e1 16 be be 65 b2 c8 be 57 29 4e bf
       0.18102117 -0.3712683 -0.39198604 -0.8053183
0003d0 23 5f 54 bf 11 c7 fa be e6 5d 7e bf da bb 87 bf
       -0.8295767 -0.4898 -0.9936203 -1.0604203
0003e0 d4 dc 1d bf 55 96 3f bd 3a 07 56 bf 3b 90 63 bf
       -0.6166508 -0.046774227 -0.83604777 -0.88891953
0003f0 cc 13 b6 bf 51 e5 44 bf 35 f5 b3 be e0 30 97 bf
       -1.4224792 -0.7691241 -0.35148016 -1.181179

fc2.weight f4 [128, 256]
000000 dd 81 2e bf 2f f4 de be 3d 03 81 3e 61 8a ca 3e
       -0.68166906 -0.43545672 0.25197783 0.395587
000010 51 7c 53 be ce d4 03 be 08 fc 03 bf c3 65 bb 3e
       -0.20652892 -0.12874147 -0.51556444 0.36601076
000020 14 59 6b be ff 2d 88 bd 46 b1 e1 3e 4f 57 6f 3f
       -0.229832 -0.06649398 0.4408056 0.934926
000030 c3 e0 c9 bf 1b 06 27 3e 19 de 2a 3e fa eb 60 3e
       -1.5771717 0.16310923 0.16686286 0.21965018
000040 db 2e a3 3e d7 77 37 bd 55 a4 60 be c7 b1 ad bf
       0.31871685 -0.044792023 -0.21937688 -1.3569878
000050 ef 33 a1 3d f3 bc 07 3e 3c 88 47 be f3 d0 be 3f
       0.07871234 0.13255672 -0.19485563 1.4907516
000060 55 ea c5 bd 05 b2 a6 be 5a d5 69 bf a4 9b b2 3f
       -0.09663836 -0.32557693 -0.91341174 1.3953748
000070 ab a4 4c 3f 8f f8 81 3e d2 01 c4 3e 28 28 45 bf
       0.79938763 0.25384948 0.3828264 -0.770144
000080 19 c8 3f 3f 7d 7a c1 3e 5a 88 0a bf e8 4a 48 bf
       0.749147 0.37788764 -0.54114306 -0.782393
000090 28 6e ef be 78 7f f4 bd 30 d6 ba be a8 82 d2 bf
       -0.4676373 -0.11938375 -0.36491537 -1.6446123
0000a0 54 95 79 be 89 28 df 3e 12 d2 6d be c7 6b 52 bf
       -0.2437337 0.43585613 -0.23224667 -0.82195705
0000b0 46 36 73 3e 1b 28 ca 3e 01 92 d5 be 35 df ca 3e
       0.23751172 0.39483723 -0.41712955 0.39623418
0000c0 e3 31 bf be 83 eb 9a bd 86 cf fb 3d f8 0d 94 3a
       -0.37342748 -0.075644515 0.12295441 0.0011295667
0000d0 c3 bd 72 bf 07 00 36 3e a8 29 fc be 2e 9f b6 3e
       -0.94820803 0.17773448 -0.4925053 0.3566832
0000e0 31 ef 52 3e 42 cb bb be 71 9c 49 be 34 a4 d4 be
       0.20599057 -0.3667851 -0.19688584 -0.41531527
0000f0 e6 f2 ba 3d fa 47 e6 be 4a cb 2d 3e c2 87 d1 be
       0.091283605 -0.4497679 0.1697208 -0.40923887
000100 d6 78 e5 be fb 4c 82 be b0 fd c9 3c 69 76 6e 3d
       -0.44818753 -0.25449356 0.0246571 0.058218393
000110 87 d1 a7 3f 69 a7 38 be 50 26 77 3f 10 14 e3 be
       1.3110818 -0.18032612 0.96542835 -0.44351244
000120 71 30 79 3f c6 20 23 3e d1 1c 2d 3e 32 02 36 be
       0.9733954 0.15930471 0.16905524 -0.17774275
000130 d9 e1 c4 3e 42 85 35 bf 7d 1e 49 bf 07 fe f4 bd
       0.38453558 -0.7090646 -0.78562146 -0.11962514
000140 ef 6f 30 bf ab c2 49 be d4 ec 95 3e de b4 17 3f
       -0.689208 -0.19703166 0.29282248 0.59260356
000150 49 8f b6 3e d4 be c7 be 95 15 60 bf 91 4e 39 3e
       0.35656193 -0.39012778 -0.8753293 0.18096377
000160 f9 88 f9 be e0 fd 70 be 25 5a 0a 3f d3 cb ee bb
       -0.48737314 -0.23534346 0.540438 -0.0072874813
000170 93 45 13 be fa 25 fe be 1d cb 96 bf b1 64 e0 3e
       -0.14382009 -0.4963835 -1.1780735 0.4382682
000180 08 c1 01 bf 29 2a 2f be 17 8e 32 bf a6 7e 72 bf
       -0.5068517 -0.17105927 -0.6974806 -0.947245
000190 85 cf a3 be 01 04 fb be 16 f2 c4 3c 26 81 6e bf
       -0.31994262 -0.49026492 0.024041217 -0.93165815
0001a0 13 cc b5 bd 7f 5f cc bd 62 e9 1d bf e9 9c a3 be
       -0.08876815 -0.09979152 -0.6168424 -0.3195565
0001b0 55 d0 d2 bc ce 31 f5 bd 26 10 9d 3e 58 73 6b 3d
       -0.025734106 -0.1197239 0.30676383 0.057483047
0001c0 e4 04 94 3d 3b 76 a9 be f0 80 49 3e c2 77 be be
       0.07227495 -0.33098015 0.19678092 -0.37200743
0001d0 de 8a bd be 86 ff f9 be 4a 95 a0 be 51 8d 37 3f
       -0.3702001 -0.4882776 -0.313639 0.71700007
0001e0 c2 8e 39 3e ec 21 50 3e b8 42 4f bd 8e c2 77 bf
       0.18120864 0.2032544 -0.050600737 -0.9678124
0001f0 94 a2 c9 bd e4 d0 7f be 78 f8 04 3e f4 1b 73 3e
       -0.098454624 -0.24982029 0.12985408 0.23741132
000200 84 b5 09 bf 9c 38 39 bf db 5d a0 be 98 d7 96 3f
       -0.53792596 -0.72352004 -0.31321606 1.1784544
000210 78 3b 59 be f6 48 c0 3e 08 4b 91 be 17 0f db 3e
       -0.21214092 0.37555665 -0.28377557 0.4278495
000220 44 8c 85 3d 5c a9 1d 3e 07 12 20 3f 08 5c ac be
       0.06520894 0.15396637 0.6252751 -0.33663964
000230 7e dc 74 3f 0f f8 7f 3e f3 cc fa 3e ad 7b df bd
       0.95648944 0.2499697 0.4898449 -0.10912261
000240 b0 a2 2c bf e0 63 fc 3c 86 7d a0 3e 55 fd 54 3e
       -0.6743574 0.030809343 0.31345767 0.20799764
000250 6c 5a 39 be 22 cf 20 3e eb bd 11 3f 9d c7 b2 3e
       -0.181009 0.15704015 0.56930417 0.34917918
000260 a2 7c e0 be f3 2b 96 3e c5 14 dc 3e 5e 2a 6f bf
       -0.43845087 0.29330406 0.42984596 -0.9342402
000270 66 86 07 3e 76 32 f8 bd 24 c0 eb be f9 e8 ed be
       0.13234863 -0.12119 -0.4604503 -0.46466807
000280 a9 bc 8d be 4f f3 52 be d7 c2 63 bf 73 75 d5 be
       -0.27683 -0.20600627 -0.88969177 -0.4169117
000290 fc 52 cc 3d b7 a8 de bc 34 ab 99 3e f2 45 2b bf
       0.099767655 -0.027180059 0.3001343 -0.66903603
0002a0 88 dd 00 c0 c7 ff 9b 3d 54 91 9d bf db 04 de 3e
       -2.0135212 0.07617145 -1.2309976 0.4336308
0002b0 7b 79 ef 3e a1 4b 98 be 7f 21 11 3e 69 f7 6e bf
       0.4677237 -0.297452 0.14172934 -0.9334627
0002c0 4f 6c 88 bf 8b f0 cd 3d 20 85 a4 be 58 29 5c bf
       -1.0658053 0.100556456 -0.32132816 -0.86000586
0002d0 4d aa a9 3e 45 be 2d 3f a2 ab d4 3e 1c c0 78 bf
       0.33137742 0.67868453 0.41537195 -0.97168136
0002e0 77 32 82 bf 41 9c d8 3e e5 5f ac 3e 1b ac 5e 3e
       -1.0171651 0.42306712 0.33666912 0.2174534
0002f0 a9 b1 9b bf b6 4c ba bf 0a 85 d9 3e 7d b3 3f 3e
       -1.2163593 -1.455466 0.42484313 0.18720813
000300 33 9c 9e bf 51 8e 83 bb eb a2 8a bf b2 6d 3f be
       -1.2391418 -0.004014768 -1.0830969 -0.18694189
000310 a1 16 5e bf d9 22 8d 3e 41 cf 80 be 59 02 94 be
       -0.8675328 0.2756565 -0.25158122 -0.2890804
000320 a9 5e 9f 3f 06 0a 1f bf 65 8b d8 bd fd d0 dd 3e
       1.2450763 -0.6212467 -0.105734624 0.43323508
000330 57 6e 76 bf 70 ac 1c bf 81 8d 59 be 1b 7d 0f bf
       -0.96262115 -0.6120062 -0.21245386 -0.5605027
000340 eb da ef 3e 51 63 da 3e 75 6c fd 3d a9 bd 9a be
       0.4684671 0.42653897 0.12374202 -0.30222824
000350 88 f6 51 3e 9b ed c9 3f 71 7a 50 be 6a 73 10 bf
       0.205042 1.5775636 -0.20359208 -0.5642611
000360 c2 80 3c 3f cb 1d f6 be bd 76 46 3e 23 f6 86 bf
       0.7363397 -0.48069605 0.19381233 -1.0543865
000370 14 18 39 bc 1e 4a d2 3e 8d c1 0f 3f 60 e8 a7 be
       -0.011297245 0.41072172 0.5615471 -0.32794476
000380 c7 09 15 3e 38 1e 40 bf 35 66 df 3e 7b a8 93 bc
       0.14554511 -0.7504611 0.43632665 -0.018024674
000390 d2 90 7b 3e 17 d0 8b bd 4f 70 8d 3e b1 a2 a4 be
       0.24566963 -0.06826799 0.27624747 -0.32155374
0003a0 78 50 5f bf 67 9f 4a bf f6 5d 23 be 43 5a 4e 3e
       -0.8723216 -0.7914948 -0.15953812 0.2015162
0003b0 1c fc a4 be 3b a5 43 bf 07 2b 33 3f 33 c0 b1 3e
       -0.32223594 -0.76423997 0.6998753 0.3471695
0003c0 ae ff a7 3e f3 83 30 bf d4 7f f1 3d 10 9c a7 be
       0.32812256 -0.6895134 0.117919594 -0.32736254
0003d0 7e b0 08 bf df 47 61 be 1b e4 6e be 2e 61 33 3f
       -0.53394306 -0.22000073 -0.23329203 0.7007016
0003e0 90 9c cb 3d 87 0a b9 be 5c 2a a5 be 4f 32 d6 be
       0.09941971 -0.36140844 -0.3225888 -0.41835257
0003f0 06 07 a7 3e d9 47 ed 3d b5 1d 94 bf a6 04 80 3f
       0.32622546 0.115859695 -1.1571566 1.0001419

fc2.bias f4 [128]
000000 37 25 a6 be 6b 7f b1 bd 09 34 3f be 1e 8b 89 bf
       -0.32450268 -0.08666881 -0.18672194 -1.074558
000010 b9 c3 a7 bf e8 0e 56 3d 61 bc bb be f5 de d3 bf
       -1.3106605 0.05226031 -0.3666716 -1.6552416
000020 99 75 fd be 36 e8 9e bc 8d 1b 17 bf de b0 a2 3e
       -0.49503782 -0.019397836 -0.59026414 0.31775564
000030 6d 10 28 be 97 b3 37 bd a4 f6 3b bf a7 6a ea bd
       -0.16412516 -0.044849005 -0.7342322 -0.114461236
000040 f4 14 36 bf ab ec 2d bf 51 16 81 bf 94 9a 6b be
       -0.7112572 -0.6793925 -1.0084935 -0.23008186
000050 f5 2a 56 bd 2c e9 cc be 1e 70 19 be d5 2a 43 bf
       -0.05228706 -0.40021646 -0.14984176 -0.7623723
000060 2e 03 cb 3c 31 04 99 be 10 d3 9b be c6 1f 6b bf
       0.02478179 -0.2988601 -0.30434465 -0.9184536
000070 92 d6 b4 bd dc 40 30 bf 4c 15 ff 3c 08 62 aa bd
       -0.088299885 -0.6884897 0.031138085 -0.08319479
000080 54 31 a0 be 28 b3 8e bf 74 7b e6 bf 42 b4 ca be
       -0.31287634 -1.1148424 -1.8006425 -0.3959065
000090 3f cc 31 be d9 9d 8b be 49 bf ab bf dc 71 3b bf
       -0.1736307 -0.27268866 -1.3417751 -0.7322061
0000a0 ce 25 6d be bb b1 91 bf 26 3a ac bf f1 fa 55 be
       -0.23158953 -1.1382364 -1.3455245 -0.20896508
0000b0 3d f8 c1 be 01 11 b5 bd c0 2b 8a bf 41 0a eb 3d
       -0.37884703 -0.08841134 -1.0794601 0.11476565
0000c0 33 f9 cc bf c5 d3 91 be 46 b2 bb bf 89 b4 cb be
       -1.601355 -0.2848188 -1.466378 -0.39786175
0000d0 ae 1f 76 bd 86 7a 33 bf e2 7d 9a 3e bc ad 59 bf
       -0.060088806 -0.7010883 0.30174166 -0.8503072
0000e0 eb f7 c0 be ed 56 50 bf 26 be a2 be 9b d7 6b bf
       -0.37689146 -0.8138264 -0.31785697 -0.9212586
0000f0 7a a7 8a bf 51 d3 d9 bd c0 c0 b5 be 36 e7 04 be
       -1.083236 -0.106360085 -0.3549862 -0.12978825
000100 e6 6f 14 bf e7 22 79 bf ec 12 8f bf bc 40 b4 bf
       -0.57983243 -0.9731888 -1.117765 -1.4082255
000110 2b cc db bc e6 5a 6b be 7b 39 2e bf 1f bc 0e bf
       -0.026830753 -0.22983894 -0.6805646 -0.557558
000120 19 2d b1 be 3c cb 18 be 5b 96 cf be 15 3e 88 be
       -0.3460472 -0.14921278 -0.405444 -0.26609865
000130 58 4b 86 3d d9 9e 43 be 73 14 67 bf aa 13 0c be
       0.065573394 -0.19103564 -0.9026558 -0.13679376
000140 ae 8e b5 bd a1 e6 50 bf 71 c1 fb be 5e 4a 89 be
       -0.088651046 -0.8160191 -0.49171022 -0.2681455
000150 7d 2a ac be ba f3 82 bf 93 16 a7 be bb be b3 bf
       -0.33626166 -1.023063 -0.3263441 -1.4042581
000160 db ce 31 be 0a da 85 be b4 e6 02 bf a0 df de be
       -0.17364065 -0.26142913 -0.51133275 -0.43529987
000170 e3 9a a0 be 59 f3 d7 be 37 c6 0c bf 43 6d f2 bf
       -0.3136817 -0.42177847 -0.5498995 -1.8939594
000180 65 4b b4 bf bd 78 91 be 40 6e 66 3d 75 87 8e bf
       -1.4085509 -0.28412428 0.056257486 -1.1135088
000190 81 e5 ed bd 42 c4 1d bf 9e bf a1 bf 8a 12 d3 be
       -0.1161604 -0.6162759 -1.2636602 -0.41225082
0001a0 2e 02 8a be bc 67 89 bf 88 c2 1b 3e 43 7d 12 3b
       -0.26954788 -1.0734782 0.15210927 0.0022352494
0001b0 b0 78 5e bf aa 2d 8b bf 3c a8 77 bd 76 8b aa be
       -0.86902905 -1.087331 -0.060463175 -0.33309525
0001c0 e5 9d c1 bb c9 e2 fa be b1 19 51 bf c2 10 31 bf
       -0.005908715 -0.49001148 -0.81679827 -0.69166195
0001d0 de 47 a8 be cc c1 29 bf 94 93 8d 3a 71 c3 11 bf
       -0.3286733 -0.66311336 0.0010801428 -0.56938845
0001e0 7c c3 2a be c9 af 97 be a8 8d 48 bf 14 5d d6 be
       -0.16676134 -0.296263 -0.7834115 -0.41867888
0001f0 83 9a 25 bf d3 63 53 be 49 20 97 be 56 4c 7e be
       -0.6468889 -0.20643549 -0.2951682 -0.24833807

fc3.weight f4 [2, 128]
000000 85 69 46 3a 48 d4 4c 3c f7 1d 06 3c 5b 7a ba bf
       0.0007568824 0.012501784 0.008185855 -1.456859
000010 db d7 74 bf 3d 77 03 be 30 64 d8 bc 93 3d 2b bf
       -0.9564187 -0.12838455 -0.02641496 -0.6689083
000020 1d f5 82 3e bc 8d f6 3c 3d 67 88 3e fa f0 3c 3f
       0.25577632 0.030096881 0.26641265 0.738052
000030 c1 98 62 3c 6a fb dc 3d 64 c8 b1 3e c2 76 d7 3c
       0.013830365 0.10790141 0.34723198 0.026301745
000040 d7 9b fc be 1f 03 54 3e 75 5d 16 bf 7d 29 69 3e
       -0.49337646 0.20704316 -0.58736354 0.22769733
000050 19 c4 b7 bd 21 14 50 3e ca 86 74 3e 20 ac 1b bf
       -0.089729495 0.20320179 0.23879543 -0.60809517
000060 6c c0 ad 3e 5b b0 78 3e 91 94 93 be f0 86 1a 3d
       0.3393587 0.24286024 -0.28824285 0.037726343
000070 7f 1b 88 bb ad 57 75 3e 9d 76 b5 3e d7 f0 00 3d
       -0.0041536684 0.23959227 0.35442057 0.031479683
000080 55 e0 db 3e 6f c0 1b bf cf 3e 0b be 15 01 9b be
       0.4294459 -0.60840505 -0.13598178 -0.30274263
000090 0f 46 31 be 85 c3 c0 3e af b9 ed be 57 3b 89 be
       -0.17311881 0.3764917 -0.46430728 -0.26803085
0000a0 a5 58 8d 3e 72 7f 58 bc 11 e3 28 3d e8 f5 d0 3c
       0.27606693 -0.013213979 0.041232172 0.025507882
0000b0 a4 f1 ed 3e 37 3b b9 bb f8 8a 2b 3e 3d 2d b8 3e
       0.4647342 -0.005652811 0.16752231 0.35972014
0000c0 1c e7 1c bf 1c 30 a3 3c 5e 74 86 3c e8 bd 2f bf
       -0.61290145 0.019920401 0.01641291 -0.6864915
0000d0 6b 34 47 3b 98 fd 40 3e 88 c2 06 bd ed 1a 7f 3e
       0.0030396234 0.18846738 -0.032900363 0.24912615
0000e0 92 37 cb 3e b2 21 cf be 41 bc 16 3e ca 36 a0 be
       0.39690834 -0.40455395 0.1472025 -0.312918
0000f0 c9 e8 84 3e c3 40 01 3c 8c cf 84 be 6c b4 37 be
       0.2595885 0.007888976 -0.25939596 -0.17939919
000100 07 07 38 be 49 71 9c 3d c1 95 2f be e1 20 20 bf
       -0.1797143 0.07638795 -0.1714697 -0.6255017
000110 68 9b cc bb 32 a4 a6 3e ed 55 22 3e 11 0a 57 3e
       -0.006244112 0.32547146 0.1585309 0.20999934
000120 b0 82 20 be 0a 07 27 3d 5f de 2c 3e 2a 0b e6 3d
       -0.15674853 0.040778197 0.16881703 0.11232598
000130 8e f6 21 3e e8 9b d5 3e c6 cb 8d 3e d9 14 18 be
       0.1581671 0.4172051 0.2769453 -0.14851703
000140 2d 69 26 be 54 13 0f bf 7a 3b 9a 3e 42 84 91 3e
       -0.16251059 -0.5588887 0.30123502 0.28421217
000150 44 da 86 3e e7 f5 07 bd cd 7c 86 be 26 95 e1 3c
       0.26338398 -0.033193495 -0.2626709 0.02753694
000160 37 70 ad 3e 1c 11 68 3d 6b 63 57 3e 40 57 61 3e
       0.33874676 0.05665694 0.21034019 0.2200594
000170 79 9c bf 3d 32 42 ed 3e 84 90 be 3d 91 4f 85 3d
       0.09356017 0.46339566 0.09304908 0.06509317
000180 df 31 86 3d 53 e1 48 be ae e9 19 3c d5 be 0e bf
       0.06552481 -0.19617204 0.0093940925 -0.55759937
000190 48 fd 0b bd 0f 96 89 3e d1 87 aa be 96 12 fa 3d
       -0.034177095 0.26872298 -0.33306745 0.12210576
0001a0 fa 6f aa 3e 12 d0 f2 be c0 7b 18 be 35 5e b9 3a
       0.33288556 -0.4742437 -0.14890957 0.0014142456
0001b0 ef 77 27 bf ad 37 94 be e3 fa ec 3b 4e 9f 38 3e
       -0.6541738 -0.28948727 0.0072320565 0.1802952
0001c0 dd 6a 54 3e a3 8b 89 3d 32 43 2e be ce d1 13 bf
       0.2074389 0.06716087 -0.1701782 -0.5774201
0001d0 d1 0f 6b 3e ac c9 75 3e 95 8c 09 3e eb 6b c5 3e
       0.22955252 0.24002713 0.13432534 0.38558897
0001e0 50 dd e4 3d 49 e3 6c 3e 94 42 43 3e 96 6a c3 3e
       0.111750245 0.23133577 0.19068366 0.38167256
0001f0 f2 aa ac 3e e4 4b f8 3a 1f eb 28 3e b2 25 0d 3e
       0.3372417 0.0018943516 0.16495942 0.13783911
000200 b0 88 d4 3f b1 b6 6e bd 84 dd fc 3d 8c 1c 5d 3f
       1.6604214 -0.058279697 0.12346938 0.86371684
000210 55 63 a2 3f ad 2b ea bf 08 d7 16 3f 81 00 8d 3e
       1.2686564 -1.8294579 0.5892186 0.27539447
000220 53 6c 16 3f aa 50 cd bd 25 0b f4 3e 1a 67 2e bf
       0.5875904 -0.10025151 0.47664753 -0.6812607
000230 01 9a 14 bd 31 5b c7 3e ac 88 f1 3e 97 52 b9 bc
       -0.036279682 0.3893676 0.47174585 -0.02262239
000240 8b f3 bb 3f 9b 27 0f 3f d3 ea 94 3f 55 43 12 40
       1.4683698 0.5591981 1.1634163 2.2853596
000250 55 71 be 3d 2c 91 83 bf ac d0 5b be 12 97 cf 3e
       0.0929896 -1.0278678 -0.21466321 0.40544945
000260 4e 5d 59 3e 31 47 89 be ee 32 c4 bd 63 a1 ba 3f
       0.21226999 -0.26812127 -0.095800266 1.4580501
000270 9c 1f d4 3d a1 14 68 3f aa e8 17 3d 03 b4 54 bf
       0.103575915 0.9065648 0.03708712 -0.83087176
000280 f7 bb 6e bd d0 91 fa 3e c3 d3 44 3f da a1 68 be
       -0.058284726 0.4893937 0.7688562 -0.22717991
000290 f9 4f 94 bf ef 7c 09 3e 62 c0 19 3e b6 a5 48 3e
       -1.1586906 0.13426565 0.15014794 0.19594464
0002a0 c0 fb 6e 3f 17 0c 16 be bb 7f ff 3e 7c db 1e 3e
       0.9335289 -0.1465305 0.49902138 0.15513414
0002b0 21 d4 b1 be bb ea 2f 3c 16 ee 9d bf c0 71 57 3f
       -0.34732154 0.010737116 -1.2338283 0.84157944
0002c0 14 91 65 3e 8f 23 b8 be fd fc e9 3c 3d 12 c1 3f
       0.22418624 -0.3596463 0.028563017 1.5083691
0002d0 3a bf 5c 3c 22 a7 89 bd 68 24 dc 3e d4 6b 52 3f
       0.013473326 -0.06721331 0.42996526 0.8219578
0002e0 e8 1d 2f 3d 27 c8 21 bf ec d4 7d 3e ee df 45 3f
       0.04275313 -0.63196033 0.24788254 0.77294815
0002f0 44 38 ff 3e c6 66 08 3d 16 3b a5 bf 7f 04 ea b9
       0.49847615 0.033301137 -1.2908657 -0.00044635308
000300 a4 7a 3d 3e 42 55 85 3f 32 31 57 3f 03 30 82 3d
       0.18503815 1.0416644 0.8405944 0.06356814
000310 93 e3 e9 3c f1 8e 44 be 90 5b 30 3f a1 99 a8 bf
       0.028550899 -0.19195153 0.68889713 -1.3171884
000320 a5 92 a7 bf f3 62 f9 3c 7f 1e 90 bd 1e 7e b9 3d
       -1.3091627 0.03044269 -0.07037067 0.09057258
000330 aa 0e a4 3c f7 0d 17 3d 26 2e 49 bf 06 85 0b bf
       0.020026524 0.036878552 -0.7858604 -0.5449985
000340 67 52 35 bf d9 48 10 be 33 da 3d 3e d9 04 eb bc
       -0.7082886 -0.14090289 0.18540268 -0.028688835
000350 63 2d 9a bf df 6c 7b be 4c 01 aa 3f 12 e9 18 bf
       -1.2045101 -0.2455325 1.3281646 -0.5973064
000360 36 75 94 bf e6 83 c1 be a0 33 91 3e 1d 0c a8 3f
       -1.159827 -0.37795943 0.283597 1.3128697
000370 4e b5 91 3e d2 14 8a 3f c4 48 2a 3f 6a 6f fb 3e
       0.28458637 1.0787604 0.6651728 0.4910844
000380 de b9 89 3d 72 3b 17 be a1 3b 08 3e 96 89 9d 3f
       0.067249045 -0.1476877 0.13303997 1.2307613
000390 f0 bf 81 3d b6 27 f7 3e af f4 a8 3f 94 a6 19 3f
       0.06335437 0.48272485 1.3199672 0.60019803
0003a0 b3 37 d7 bb f0 cd 3f bf c4 7c a2 3f 1f 5c 04 c0
       -0.006567919 -0.7492361 1.2694325 -2.0681226
0003b0 e9 07 8c 3e b9 e4 a8 be d3 ab 5c 3c 37 5c 32 3d
       0.27349785 -0.32987002 0.0134687 0.043544974
0003c0 a4 ca 33 bf 8b f0 bc 3f 3f 98 79 3f f6 fc c9 3e
       -0.7023108 1.4760908 0.97497934 0.39450806
0003d0 0b 03 04 3f e7 04 f1 3e df af 73 bd 1e c7 a8 3e
       0.51567143 0.47074053 -0.059493896 0.32964414
0003e0 62 e9 84 3f 19 17 a3 3f ee 34 43 3f 49 a0 40 bf
       1.0383723 1.2741424 0.7625264 -0.75244576
0003f0 03 37 ad 3f a4 1f 43 3f ce b1 32 3e 4c cb 33 3c
       1.3532413 0.76220155 0.1745064 0.010973763

fc3.bias f4 [2]
000000 70 ea 6b 3f 8a ea 05 c1
       0.921546 -8.3697605
