p3_collab-compet/models/actor_1.pth (torch_old, 183722 bytes, 6 tensors)

fc1.weight f4 [256, 48]
0	0xbe9d037a	-0.30666715
1	0xbec0753c	-0.37589443
2	0xbeabf59d	-0.33585826
3	0x3f326466	0.69684446
4	0x3e8c98be	0.27460283
5	0xbd921407	-0.07132726
6	0xbea95f05	-0.33080307
7	0x3f400c0e	0.75018394
8	0xbba8243e	-0.0051312735
9	0xbe0d32ac	-0.13788861
10	0xbdc55803	-0.096359275
11	0x3ed34747	0.41265318
12	0x3e5fc86c	0.21853799
13	0xbdc50ed2	-0.096219674
14	0xbd0d765e	-0.034536712
15	0x3f00ddaa	0.5033823
16	0x3e0e3836	0.1388863
17	0x3e2ca067	0.16858064
18	0xbea2f818	-0.31829906
19	0x3fa08a37	1.254218
20	0x3e667582	0.22505763
21	0x3dffe20e	0.124942884
22	0xbe8f3a34	-0.27974093
23	0x3fa9833b	1.3243173
24	0x3f5d05d3	0.8633701
25	0xbf1de849	-0.61682564
26	0x3e2cefed	0.168884
27	0xbec091df	-0.3761129
28	0xbe8dc87d	-0.27692023
29	0xbdfe6b8f	-0.12422859
30	0x3e870191	0.26368383
31	0xbebdbf79	-0.37060145
32	0x3f7f9136	0.9983095
33	0xbf180b2f	-0.59392065
34	0x3ea3ec41	0.32016185
35	0xbf28367d	-0.6570814
36	0xbe743372	-0.2384775
37	0xbdc18224	-0.094486505
38	0x3e931a5d	0.2873105
39	0xbf1c2bff	-0.6100463
40	0x3f6d65e8	0.9273362
41	0xbf266df7	-0.65011543
42	0xbf4d4bc9	-0.80193764
43	0xbf5dd608	-0.8665471
44	0xbe5d1226	-0.21588954
45	0x3e0510b1	0.12994649
46	0xbf415a85	-0.75528747
47	0xbf5593a8	-0.8342843
48	0xbd10eeac	-0.035383865
49	0x3afc50b1	0.0019250122
50	0xbea20ee6	-0.31651992
51	0xbf75c4a5	-0.9600318
52	0xbd760dfd	-0.060071934
53	0xbf873d12	-1.0565512
54	0xbe912d7e	-0.2835502
55	0xbf6fa6dc	-0.9361398
56	0x3ea3269c	0.31865394
57	0xbe06bbeb	-0.13157623
58	0x3dbc7675	0.092022814
59	0x3e279506	0.16365442
60	0xba69eb30	-0.00089232903
61	0xbfb031d4	-1.3765206
62	0x3e399146	0.18121824
63	0x3e4f68ec	0.20254868
64	0x3e73fadb	0.23826163
65	0x3e602032	0.21887282
66	0xbe05d45c	-0.1306929
67	0x3fbd37c8	1.4782648
68	0x3ca637dc	0.020290308
69	0xc00515d1	-2.0794566
70	0xbe149116	-0.14508471
71	0x3fb77ab0	1.4334316
72	0x3ef34c16	0.47518986
73	0x3e98c9fc	0.29841602
74	0xbeb47b0f	-0.35250136
75	0xbf3ec14b	-0.7451369
76	0x3c4ecb96	0.012621781
77	0xbf87eced	-1.0619179
78	0xbeb67691	-0.35637334
79	0xbf4b6d5d	-0.7946375
80	0x3f105422	0.56378376
81	0x3ebc5bad	0.36788693
82	0xbd992514	-0.07477775
83	0x3f42ba81	0.7606583
84	0xbb899a1c	-0.0041992795
85	0xbfbe0a04	-1.4846807
86	0xbdd0302e	-0.101654395
87	0x3f31f19b	0.69509286
88	0x3f00f8dc	0.5037973
89	0x3f01f027	0.5075707
90	0x3ebfb530	0.37442923
91	0x3f25f2b1	0.6482344
92	0xbdfd0540	-0.12354517
93	0xc003800a	-2.05469
94	0x3e9b7512	0.30362755
95	0x3f302105	0.68800384
96	0x3e435448	0.1907512
97	0xbec0fef1	-0.37694505
98	0xbe1fbcac	-0.15599316
99	0x3f5f0125	0.8711112
100	0x3eb843b8	0.35989165
101	0xbf16d623	-0.58920497
102	0xbe3c33e6	-0.18379173
103	0x3f76c389	0.9639211
104	0x3e82b2f3	0.25527152
105	0xbeb80400	-0.35940552
106	0xbd128a56	-0.03577646
107	0x3eefded0	0.4684968
108	0x3e9fa0c1	0.31177333
109	0xbf0e7545	-0.5564769
110	0xbd882ff0	-0.06649768
111	0x3ec5db28	0.38643765
112	0x3e5c4e55	0.21514256
113	0xbe523558	-0.20528162
114	0xbeb6178b	-0.35564837
115	0x3ef8eed5	0.48619714
116	0x3e57404a	0.21020618
117	0xbf321e64	-0.6957762
118	0xbebe2179	-0.37134913
119	0x3f004266	0.50101316
120	0x3e4c591a	0.19955865
121	0x3eaf2641	0.34208873
122	0xbec4365d	-0.38322726
123	0xbf8d17f4	-1.1022935
124	0xbeca7a92	-0.3954664
125	0xbf17016d	-0.5898655
126	0xbea1511b	-0.3150719
127	0xbf9017ac	-1.1257224
128	0x3df9fad7	0.12206047
129	0xbc967fb1	-0.018371435
130	0xbf1f5f7c	-0.6225507
131	0xbfa85c92	-1.315325
132	0xbeb6f471	-0.3573337
133	0xbf0a25ea	-0.539641
134	0xbf0f8eec	-0.56077456
135	0xbfb4f59c	-1.4137454
136	0x3e9dbac7	0.30806562
137	0xbe88f787	-0.26751348
138	0x3e10efec	0.14154023
139	0xbfa1b3dc	-1.2633014
140	0xbe674a55	-0.22586949
141	0xbf3ad236	-0.72977006
142	0x3e7e1446	0.24812421
143	0xbfa5c444	-1.295052
144	0xbde3d134	-0.11123887
145	0x3f8eead0	1.1165409
146	0xbf11afa0	-0.5690861
147	0x3eb555c9	0.3541701
148	0x3dc7a8ab	0.09748968
149	0xbf4cb2c5	-0.7996028
150	0xbf057650	-0.52133656
151	0x3e93b6e9	0.28850487
152	0xbe6c8e15	-0.23101075
153	0x3f8bc189	1.0918437
154	0xbe4c9b8f	-0.19981216
155	0x3f19344f	0.5984544
156	0x3e19b4ea	0.1501042
157	0xbf8cb298	-1.0992002
158	0xbe6394e0	-0.2222476
159	0x3f1f03b1	0.6211501
160	0x3db5247e	0.08844851
161	0x3f93a1f7	1.1533803
162	0x3e53dc00	0.20689392
163	0xbdda11f7	-0.10647958
164	0x3e5dda8e	0.21665403
165	0xbfd2b8f0	-1.6462688
166	0x3de702da	0.11279841
167	0xbdaf1a7f	-0.085499756
168	0x3f26b543	0.65120333
169	0x3fadb128	1.3569689
170	0xbeb47c2b	-0.35250983
171	0xbeb224fa	-0.34793836
172	0xbe489458	-0.19587839
173	0xbf566183	-0.8374254
174	0xbea669e6	-0.3250267
175	0xbeb3875e	-0.35064214
176	0x3f1e3627	0.6180138
177	0x3f84681e	1.0344274
178	0xbdcde0a0	-0.100526094
179	0xbeda4d03	-0.4263688
180	0xbdf5010b	-0.119630896
181	0xbf92657c	-1.143722
182	0xbd878b3a	-0.06618352
183	0xbefbb98e	-0.49165004
184	0x3f330ede	0.6994456
185	0x3f996dbd	1.1986614
186	0xbca7c8e9	-0.020481544
187	0xbdbf6fe6	-0.09347515
188	0xbe21257a	-0.15736952
189	0xbfc4883a	-1.5354073
190	0xbdd60e9d	-0.10452006
191	0xbdd94de0	-0.106105566
192	0xbe95a45d	-0.29226962
193	0xbbc5d782	-0.0060376534
194	0xbe77270d	-0.2413599
195	0xbf8f3d9b	-1.1190675
196	0xbfe2df4c	-1.7724395
197	0xbe7211cb	-0.236396
198	0xbe32d121	-0.17462589
199	0xbf929359	-1.1451217
200	0xbe064030	-0.13110423
201	0xbe25c0ec	-0.16186875
202	0xbc924985	-0.017857322
203	0xbed91f26	-0.42406577
204	0xbfcf7300	-1.620697
205	0xbea5093e	-0.32233614
206	0xbdae2e9a	-0.08504982
207	0xbec46592	-0.38358742
208	0x3d8f6d5d	0.07003281
209	0x3e82dc65	0.25558773
210	0xbdc83c41	-0.097771175
211	0xbe44712b	-0.19183795
212	0xbf8693dd	-1.0513874
213	0xbf4af659	-0.79282147
214	0xbd62be03	-0.05535699
215	0xbe841e63	-0.25804433
216	0x3d9bba85	0.07603935
217	0xbe1c8cb1	-0.15288045
218	0xbe893f21	-0.26805976
219	0xbf1f96de	-0.6233958
220	0x3fd9d586	1.7018287
221	0xbe4c30db	-0.19940512
222	0xbe5590d6	-0.20856032
223	0xbf00cb47	-0.50310177
224	0x3da68b42	0.0813203
225	0xbe508420	-0.20362902
226	0xbe7bea41	-0.2460108
227	0xbeda0f50	-0.42589808
228	0x3fce98ba	1.6140358
229	0xbecb0938	-0.3965547
230	0xbe44850e	-0.19191381
231	0xbef9d312	-0.48793846
232	0x3ee61e42	0.4494496
233	0x3dd2eba9	0.10298855
234	0x3e98de02	0.2985688
235	0xbc83a8d3	-0.016071713
236	0x3f8e016e	1.1094186
237	0xbf517e1b	-0.81833047
238	0x3eb8be9f	0.36082932
239	0xbd8ecb0d	-0.069723226
240	0x3fa42558	1.2823896
241	0xbf2def7a	-0.6794354
242	0xbd65e673	-0.056127977
243	0xbfa95552	-1.3229163
244	0xbe9de62c	-0.3083967
245	0xbea93efe	-0.33055872
246	0xbd1f9212	-0.038957663
247	0xbfa9856e	-1.3243845
248	0x3f834b8a	1.0257428
249	0xbf3c31b9	-0.7351337
250	0xbe8f5c30	-0.2800002
251	0xbf945f90	-1.1591663
252	0xbf04dff7	-0.51904243
253	0xbef904b3	-0.48636398
254	0xbe99d0e0	-0.3004217
255	0xbf94e5ac	-1.163259

fc1.bias f4 [256]
0	0xbf0240c7	-0.5088009
1	0xbece32da	-0.40273172
2	0xbe6f2244	-0.23352915
3	0xbee877a4	-0.4540378
4	0xbf054a59	-0.5206657
5	0xbf1b1cb4	-0.6059067
6	0xbf3b7753	-0.7322895
7	0x3d939e6b	0.0720795
8	0xbf3da098	-0.7407317
9	0xbf0ee8e7	-0.5582413
10	0xbefaa3c3	-0.48953065
11	0xbe6420cc	-0.22278136
12	0xbe4d35f3	-0.20040111
13	0xbf13dafe	-0.5775603
14	0xbefa37aa	-0.48870593
15	0xbed30085	-0.41211334
16	0xbecd3c89	-0.40085247
17	0xbec5371b	-0.38518605
18	0xbf2cf77e	-0.67565143
19	0xbe72231f	-0.2364621
20	0xbf11bc8f	-0.5692834
21	0xbee9d3fb	-0.4566954
22	0x3ed9a066	0.42505187
23	0xbe8f3deb	-0.27976927
24	0xbf25c196	-0.64748514
25	0xbf221444	-0.6331217
26	0xbe228441	-0.15870763
27	0xbf294b48	-0.66130495
28	0xbf50c296	-0.81546915
29	0xbdd003e6	-0.101569936
30	0xbe32bcc3	-0.1745482
31	0xbe0adfc6	-0.13561925
32	0xbd9613ff	-0.07328033
33	0xbee37e2d	-0.44432202
34	0xbf402aae	-0.75065124
35	0xbf19dbc9	-0.6010099
36	0xbf349717	-0.70543045
37	0x3dd66a52	0.10469498
38	0xbf5370c7	-0.8259396
39	0xbf220ea4	-0.6330359
40	0xbf024d40	-0.50899124
41	0xbeeb5827	-0.45965692
42	0xbe512fcf	-0.20428394
43	0xbdcc7740	-0.09983683
44	0xbf635e35	-0.88815624
45	0xbf2afbab	-0.66790265
46	0xbe8fb7bc	-0.28069866
47	0xbf36c521	-0.71394545
48	0x3e1fc070	0.15600753
49	0xbe2257b8	-0.15853775
50	0xbeac7f2d	-0.33690777
51	0xbeeedaea	-0.46651393
52	0xbf100142	-0.5625192
53	0xbf06194f	-0.5238237
54	0xbf17802b	-0.59179944
55	0xbe614ecf	-0.2200272
56	0xbf1a1f1e	-0.6020373
57	0x3d049857	0.032371845
58	0xbece3b7f	-0.40279767
59	0xbf17f5e6	-0.59359586
60	0xbf00fbf0	-0.50384426
61	0xbeeca396	-0.46218556
62	0xbecfb9ab	-0.4057134
63	0x3ed1abea	0.40951473
64	0xbe1cef85	-0.15325744
65	0xbbe74353	-0.007057586
66	0xbe893432	-0.26797634
67	0x3e27e0e4	0.16394383
68	0xbec10ef0	-0.3770671
69	0xbeb1015e	-0.34571356
70	0xbeb24cbb	-0.34824166
71	0xbeeaa042	-0.45825392
72	0xbeb00847	-0.34381315
73	0x3ed8df83	0.42358026
74	0xbf0f043d	-0.5586584
75	0xbf01de91	-0.50730234
76	0xbf8d9692	-1.1061575
77	0xbf844816	-1.0334499
78	0xbea5d121	-0.32386115
79	0xbf0f323c	-0.55936027
80	0xbef45d98	-0.47727656
81	0xbf054315	-0.52055484
82	0xbe17ba0a	-0.14817062
83	0x3d80c0f8	0.06286806
84	0xbe9b2dc6	-0.3030836
85	0xbf200efb	-0.6252286
86	0xbf429d40	-0.76021194
87	0xbec60fba	-0.38683873
88	0xbf3d1954	-0.7386677
89	0xbee3c91a	-0.44489366
90	0xbf039219	-0.513948
91	0xbe0417d3	-0.12899713
92	0xbecddfeb	-0.40209898
93	0xbea489b2	-0.32136303
94	0xbf3f6dca	-0.747769
95	0xbf2943e0	-0.66119194
96	0xbec508cb	-0.3848327
97	0xbe437ed0	-0.19091344
98	0x3e75da6b	0.24009101
99	0xbe2e5679	-0.17025174
100	0xbefa60b5	-0.48901907
101	0xbecef712	-0.40422875
102	0xbe45c2bc	-0.19312567
103	0xbece7978	-0.40327048
104	0xbf0f5913	-0.5599529
105	0xbe5ccda7	-0.21562825
106	0xbf17c27d	-0.5928114
107	0xbf057125	-0.5212577
108	0xbe64caba	-0.22342959
109	0xbea072c7	-0.31337568
110	0xbe65c63f	-0.22438906
111	0x3f8ce315	1.10068
112	0xbeda99fe	-0.42695612
113	0xbf0a2457	-0.539617
114	0xbf32a575	-0.6978372
115	0xbefe42f1	-0.49660447
116	0xbeac4fa6	-0.33654517
117	0xbf02e50e	-0.5113076
118	0xbe7bca11	-0.24588801
119	0xbf6297fb	-0.88513154
120	0xbf0bcc40	-0.54608536
121	0xbedbbde6	-0.4291832
122	0xbe9486e0	-0.2900915
123	0xbe96e0dc	-0.2946843
124	0xbe4a22a3	-0.19739775
125	0xbf07bd45	-0.5302318
126	0x3f25785f	0.64636797
127	0xbe603b65	-0.21897657
128	0xbe535216	-0.20636782
129	0xbf122092	-0.5708095
130	0xbf308f1b	-0.6896836
131	0xbf086482	-0.5327836
132	0xbf343531	-0.70393664
133	0xbf205fa1	-0.6264592
134	0xbf393a26	-0.7235435
135	0xbf2c48d6	-0.6729864
136	0x3dec7f82	0.11547758
137	0xbed99702	-0.42498022
138	0xbf216b4a	-0.63054335
139	0xbe934ddb	-0.28770337
140	0xbf87688a	-1.0578778
141	0xbf2b75c5	-0.6697658
142	0xbf2af42d	-0.6677883
143	0xbc3520ac	-0.011055153
144	0xbeee33cf	-0.46523902
145	0xbdef4249	-0.11682565
146	0xbed88530	-0.42289114
147	0xbea42bf3	-0.3206478
148	0xbefbf676	-0.49211472
149	0xbf1c779c	-0.6112001
150	0xbf30cf97	-0.69066757
151	0xbf2eedc9	-0.6833158
152	0xbef2918e	-0.47376674
153	0xbec6cc10	-0.38827562
154	0xbe79e197	-0.24402462
155	0xbf5ae19b	-0.85500497
156	0xbf0bf247	-0.5466656
157	0xbee6f98f	-0.45112273
158	0xbf0c8d7f	-0.54903406
159	0xbf384fa8	-0.71996546
160	0xbf183670	-0.59458065
161	0xbec50f04	-0.3848802
162	0xbf196ac0	-0.5992851
163	0xbe3712e0	-0.17878294
164	0xbeaafc45	-0.3339559
165	0xbf0abe35	-0.5419648
166	0xbf4eef4a	-0.80833876
167	0xbd65a9b4	-0.056070045
168	0xbed1a4a6	-0.4094593
169	0xbf0c1dbb	-0.54732865
170	0xbddc74df	-0.10764479
171	0xbf5fb165	-0.8738006
172	0xbf4ed003	-0.8078615
173	0xbf604f8d	-0.87621385
174	0xbe073665	-0.13204344
175	0xbed48441	-0.41507152
176	0xbf1f6515	-0.62263614
177	0xbf29f2dc	-0.663862
178	0xbe722bd0	-0.23649526
179	0xbe05ee0f	-0.13079093
180	0xbf2e9f6b	-0.68212
181	0xbec65712	-0.38738304
182	0xbef2c963	-0.4741927
183	0xbf691074	-0.9104073
184	0xbf176b2a	-0.59147894
185	0xbf2814fc	-0.6565702
186	0xbeffcf9d	-0.49963084
187	0xbe2643b1	-0.1623676
188	0xbef2433b	-0.47316918
189	0x3c0c34b3	0.008557486
190	0x3e7a7aff	0.24460982
191	0xbdca7f17	-0.09887522
192	0xbf381b76	-0.719169
193	0xbf5b8fb9	-0.8576618
194	0xbf0cc27d	-0.54984266
195	0xbf3bc9f5	-0.73355037
196	0xbf095f59	-0.53661114
197	0xbef75e00	-0.48313904
198	0xbe9c2c67	-0.30502626
199	0xbe92172e	-0.2853331
200	0xbf02c410	-0.5108042
201	0xbe1bc468	-0.15211642
202	0xbebc6ec4	-0.36803257
203	0x3f03b02c	0.5144069
204	0xbf20db4e	-0.6283463
205	0xbe08152a	-0.13289323
206	0xbebfb570	-0.37443113
207	0x3de14c1d	0.110008456
208	0xbf2f6c39	-0.6852451
209	0x3bb5c916	0.005547653
210	0xbf1e2fb1	-0.6179152
211	0x3e16b72a	0.14718309
212	0xbe95c227	-0.2924969
213	0xbf120cb0	-0.5705061
214	0xbf123ef5	-0.57127315
215	0xbf3a5884	-0.72791314
216	0xbf2e42d3	-0.68070716
217	0xbf273182	-0.6530992
218	0xbf591f38	-0.8481326
219	0xbf4e6acb	-0.80631703
220	0xbede3ed2	-0.43407303
221	0xbdbe396d	-0.09288297
222	0xbf3bbdb5	-0.73336345
223	0xbbc09d54	-0.00587813
224	0xbeff3f46	-0.4985296
225	0xbe8948e3	-0.2681342
226	0xbeb01d72	-0.34397465
227	0x3f1f97dc	0.62341094
228	0xbed90fcb	-0.42394862
229	0xbeb29f57	-0.34887192
230	0xbf375abe	-0.71622837
231	0xbf152015	-0.5825208
232	0xbec8f073	-0.39245948
233	0xbf177f75	-0.5917886
234	0xbe9379af	-0.28803775
235	0xbf203a00	-0.625885
236	0xbe92ad9e	-0.28648084
237	0xbec46329	-0.38356903
238	0xbe907d17	-0.28220436
239	0x3ca44572	0.020052645
240	0xbdfe3453	-0.12412324
241	0xbf0cee69	-0.55051285
242	0xbf1cf75c	-0.6131494
243	0xbef4b88d	-0.4779705
244	0xbf57512a	-0.8410822
245	0xbf1aecc6	-0.6051754
246	0xbf45c965	-0.7726043
247	0xbef10d17	-0.470803
248	0xbebe0247	-0.37111112
249	0xbe87a5a7	-0.2649357
250	0xbf4a1dd4	-0.78951764
251	0xbf0f2631	-0.5591765
252	0xbf3e4ef8	-0.74339247
253	0xbf45051c	-0.7696092
254	0xbd802c92	-0.06258501
255	0xbf41557a	-0.7552105

fc2.weight f4 [128, 256]
0	0xbed787f5	-0.42095914
1	0xbe476b7b	-0.19474594
2	0xbf0d7e65	-0.5527099
3	0xbe4eb8bf	-0.20187663
4	0x3e82df1b	0.2556084
5	0xbea438b9	-0.32074526
6	0xbf00ff91	-0.50389963
7	0xbde3100c	-0.11087045
8	0xbd17d2cb	-0.037066262
9	0xbf1dd86c	-0.6165836
10	0xbec96609	-0.3933566
11	0x3d1eb982	0.038751133
12	0xbdd7dc6d	-0.1054009
13	0xbed0b84d	-0.4076561
14	0xbe647cea	-0.22313276
15	0xbedabb8d	-0.42721215
16	0xbe0c900c	-0.13726825
17	0x3c9a6f65	0.018851945
18	0xbf581215	-0.8440259
19	0x3e827a46	0.25483912
20	0xbe2b1117	-0.16705738
21	0xbeaac3dd	-0.33352557
22	0xbee1c341	-0.4409428
23	0xbe3763e5	-0.179092
24	0xbf232792	-0.63732255
25	0xbf59460b	-0.848725
26	0xbe27df75	-0.16393836
27	0xbcf98910	-0.030460864
28	0xbe53b2e1	-0.20673706
29	0x3e470da8	0.19438803
30	0xbebd248d	-0.3694195
31	0xbeb93bfa	-0.3617857
32	0x3e9b6c0e	0.30355877
33	0xbdd81ab0	-0.10551965
34	0xbea74672	-0.32670933
35	0xbf1a2824	-0.602175
36	0x3e48b142	0.19598868
37	0xbe0b4148	-0.13599122
38	0x3e3bca50	0.18338895
39	0xbe61665e	-0.22011706
40	0xbeafd144	-0.34339345
41	0x3e3f5411	0.18684413
42	0xbe4e0a56	-0.2012113
43	0xbecff4f6	-0.40616578
44	0xbf029ed4	-0.510236
45	0x3e4a9159	0.19782008
46	0xbdf40c91	-0.11916459
47	0xbed36227	-0.41285822
48	0xbe53a02f	-0.20666574
49	0xbedbee20	-0.42955112
50	0xbe8e6259	-0.27809408
51	0xbe9c237d	-0.30495825
52	0x3e1acf23	0.15118079
53	0xbf291b60	-0.66057396
54	0x3eb682f5	0.35646787
55	0xbec5ab9b	-0.38607487
56	0xbf72371d	-0.94615346
57	0xbcf2ae7b	-0.029624214
58	0xbf52fc69	-0.824164
59	0xbf031deb	-0.51217526
60	0xbf10458a	-0.5635611
61	0xbe318600	-0.17336273
62	0xbeb8e77f	-0.36114118
63	0xbedaae2f	-0.42711017
64	0xbd7779f1	-0.060419027
65	0xbd1e56fe	-0.03865718
66	0xbf554a21	-0.83316237
67	0xbe27389d	-0.1633019
68	0xbdc4cf76	-0.096098825
69	0x3d5d72ad	0.05406444
70	0x3ee0ef68	0.43932652
71	0x3ce8170e	0.028331306
72	0x3e0ec5ec	0.13942689
73	0xbe63c95e	-0.22244784
74	0xbdc6b163	-0.097018026
75	0x3ecc5449	0.39908054
76	0xbf42cfa5	-0.7609809
77	0xbdbcc65f	-0.09217524
78	0xbde7e3d2	-0.1132275
79	0xbe812477	-0.25223133
80	0x3e91ec6b	0.28500685
81	0xbe78dada	-0.24302235
82	0xbfa9fbcc	-1.3279967
83	0xbe46932b	-0.19392078
84	0xbdfbc0d8	-0.122926414
85	0xbdcbd13b	-0.09952017
86	0xbeaaebd3	-0.33383045
87	0xbeb6ce70	-0.35704374
88	0x3e8e9342	0.27846724
89	0xbe60a263	-0.21936946
90	0xbe36ce4c	-0.17852134
91	0xbf066751	-0.525014
92	0xbe5e2bd5	-0.21696408
93	0xbde7850a	-0.11304672
94	0x3e8f0f33	0.27941284
95	0xbe6495fe	-0.22322842
96	0xbe7cd33c	-0.24689955
97	0x3ea7df18	0.32787395
98	0xbf095bc9	-0.5365568
99	0x3e1f46d3	0.15554361
100	0xbdaf17cd	-0.085494615
101	0xbea5f18f	-0.32410857
102	0xbf45ec30	-0.7731352
103	0xbf4ed7e1	-0.80798155
104	0xbedc3f30	-0.43016958
105	0x3e3ed88e	0.18637297
106	0xbe6eb47d	-0.23311038
107	0xbe344d89	-0.17607702
108	0x3e0e6a7a	0.13907805
109	0xbea6f245	-0.32606712
110	0xbf16e5a6	-0.58944166
111	0xbf1f4e2d	-0.6222866
112	0xbf548be5	-0.8302596
113	0xbf0a5cd8	-0.5404792
114	0xbe1de254	-0.15418369
115	0x3ee13051	0.43982175
116	0xbe143a73	-0.14475422
117	0xbeb2a6fd	-0.34893027
118	0xbed041cc	-0.406752
119	0xbf59f1db	-0.8513467
120	0xbdd28495	-0.10279194
121	0xbebb45ec	-0.36576784
122	0xbe90fdc2	-0.28318602
123	0xbe908a05	-0.282303
124	0xbe65b9f9	-0.22434224
125	0xbe252d12	-0.16130474
126	0x3ec488bd	0.38385573
127	0xbed83648	-0.42228913
128	0x3ccb4b03	0.024816042
129	0x3e7c6ea9	0.24651588
130	0xbb2b7186	-0.0026160195
131	0xbdd1d275	-0.102452196
132	0xbf5403a7	-0.82818073
133	0xbf363e2e	-0.7118863
134	0xbe24d618	-0.16097295
135	0xbecf6b20	-0.40511417
136	0xbde014c2	-0.10941459
137	0xbe352999	-0.1769165
138	0x3ce08355	0.027406374
139	0xbebd4480	-0.36966324
140	0xbda79751	-0.08183158
141	0x3d50a8c8	0.050942212
142	0xbf1d847f	-0.615303
143	0xbf827235	-1.0191103
144	0xbf67bf03	-0.90525836
145	0xbe515912	-0.20444134
146	0xbcf1bdad	-0.02950939
147	0x3e45a46e	0.19301006
148	0xbdda0026	-0.106445596
149	0xbf10e1dd	-0.5659464
150	0xbeaa598d	-0.33271447
151	0xbd946c9e	-0.072472796
152	0x3e323a63	0.17405085
153	0xbf23e729	-0.640246
154	0xbf121e3e	-0.57077396
155	0xbf6addec	-0.91744876
156	0xbeda11f4	-0.42591822
157	0xbf2025c3	-0.6255762
158	0xbf32be57	-0.69821686
159	0xbed75d7b	-0.42063507
160	0xbf0d0ab2	-0.55094445
161	0xbecd5b62	-0.40108782
162	0xbc94192c	-0.01807841
163	0xbf9175b9	-1.1364051
164	0xbf4c6d36	-0.7985414
165	0xbf370307	-0.71488994
166	0xbf8619ed	-1.0476662
167	0x3f413229	0.75467163
168	0x3e458f9e	0.19293067
169	0x3eb2fe02	0.34959418
170	0xbf075019	-0.52856594
171	0xbe58c903	-0.2117043
172	0xbf457cf7	-0.77143806
173	0xbd7baa63	-0.06144179
174	0x3f06a152	0.52589905
175	0xbe90db45	-0.2829229
176	0xbeda9b6d	-0.42696705
177	0xbe872f89	-0.26403454
178	0xbcbdb6f3	-0.023158526
179	0xbf7b3880	-0.9813309
180	0x3f0cfb53	0.5507099
181	0xbe0ab18e	-0.13544294
182	0xbe141f88	-0.14465153
183	0xbe74bb29	-0.23899521
184	0x3f0c2714	0.5474713
185	0xbe84ef2a	-0.25963718
186	0x3ea8dd34	0.32981265
187	0x3f2472e1	0.6423779
188	0xbf07fe36	-0.5312227
189	0xbe9129d7	-0.28352234
190	0xbd948d9c	-0.07253572
191	0xbf08638e	-0.5327691
192	0xbda3b352	-0.07993187
193	0x3e0b0c9c	0.13579029
194	0xbe842740	-0.25811195
195	0xbe423c58	-0.18968332
196	0xbd8d0f39	-0.06887669
197	0xbf33cb79	-0.7023235
198	0xbeb46cd7	-0.35239288
199	0xbe93360a	-0.28752166
200	0x3ebf57fe	0.3737182
201	0xbe228542	-0.15871146
202	0x3ed028d6	0.40656155
203	0x3df107f4	0.11769095
204	0xbf4f446c	-0.8096378
205	0xbf09bdd3	-0.53805274
206	0xbd93750a	-0.07200058
207	0xbe2f7937	-0.17136084
208	0xbf0c3642	-0.5477029
209	0xbe2f2586	-0.17104158
210	0xbe6bfc07	-0.2304536
211	0xbcd701aa	-0.02624591
212	0xbd964e3b	-0.0733914
213	0xbdd4480e	-0.10365306
214	0xbd4f54a0	-0.050617814
215	0x3e2873cc	0.16450423
216	0xbe61a354	-0.22034961
217	0xbe583ce2	-0.21116975
218	0xbe9fa64d	-0.31181565
219	0xbd874efd	-0.06606863
220	0xbf02b5a5	-0.5105842
221	0xbe58858a	-0.21144691
222	0xbf0e0236	-0.55472124
223	0x3dd90fa6	0.10598688
224	0xbe303c52	-0.1721051
225	0x3eb493ab	0.35268912
226	0xbeae8263	-0.34083852
227	0xbd057624	-0.03258337
228	0x3edaaf8a	0.4271205
229	0xbd9186bc	-0.07105777
230	0x3eb9bbd7	0.36276123
231	0x3ea999b3	0.33125076
232	0xbe7f01c6	-0.2490302
233	0x3d89ba51	0.0672499
234	0xbe0bd33e	-0.13654801
235	0xbee96d55	-0.45591226
236	0xbf1dd487	-0.61652416
237	0x3e114f92	0.1419051
238	0x3edaeb4d	0.42757645
239	0xbf0e5d8c	-0.5561149
240	0xbe39b786	-0.18136415
241	0xbe9b5d7b	-0.30344757
242	0xbed278d7	-0.41107818
243	0xbf0d5a63	-0.55216044
244	0x3dba3284	0.09091666
245	0xbdf8e9a2	-0.12153937
246	0xbe8112e4	-0.25209725
247	0xbea667f3	-0.32501182
248	0xbd850a4a	-0.06496103
249	0xbf6d77fc	-0.92761207
250	0xbe3f94a5	-0.18709047
251	0xbf244082	-0.6416093
252	0xbe4885c7	-0.19582282
253	0xbf2404c8	-0.64069796
254	0xbe9f38ae	-0.3109793
255	0xbd602a4c	-0.054727837

fc2.bias f4 [128]
0	0xbef80b77	-0.48446247
1	0xbe9dd24d	-0.3082451
2	0xbefb32c5	-0.49062172
3	0xbf71696c	-0.94301486
4	0xbeb25989	-0.34833935
5	0xbf13deed	-0.5776203
6	0x3f93bc36	1.1541812
7	0x3d99114a	0.07474001
8	0xbfa59295	-1.2935358
9	0xbf04e45e	-0.5191096
10	0xbdf71449	-0.12064416
11	0xbe0b670d	-0.1361353
12	0x3e375ce1	0.17906524
13	0xbde5460e	-0.111950025
14	0x3d1c2db9	0.038129542
15	0xbe59388e	-0.2121298
16	0xbeed81cb	-0.46388087
17	0xbf971fab	-1.1806539
18	0xbf463ab8	-0.7743335
19	0xbef31972	-0.4748035
20	0xbd7ab082	-0.061203487
21	0xbe6c0db6	-0.23052105
22	0xbebf1e0b	-0.37327608
23	0xbea2efdd	-0.31823626
24	0xbecd8e33	-0.40147552
25	0xbff03527	-1.8766221
26	0xbf066764	-0.5250151
27	0xbf08b251	-0.5339709
28	0xbf031298	-0.51200247
29	0xbe88479f	-0.26617143
30	0xbf3cc073	-0.73731154
31	0xbf0cf47a	-0.5506054
32	0xbf0b1b3b	-0.54338425
33	0xbe94f100	-0.29090118
34	0xbf968ae0	-1.1761131
35	0xbf1bd8cd	-0.60877687
36	0xbd82c067	-0.06384354
37	0xbf0be07f	-0.5463943
38	0xbf3d6351	-0.7397967
39	0xbf31bff1	-0.69433504
40	0xbed65acb	-0.41866145
41	0xbf23238a	-0.63726103
42	0xbf8533ff	-1.0406493
43	0x3e13df51	0.14440657
44	0xbed7c50f	-0.4214253
45	0xbe289e16	-0.16466555
46	0xbef7316c	-0.48279893
47	0xbe2d60f2	-0.16931513
48	0xbf31fd2c	-0.69526935
49	0xbe0cfe32	-0.13768843
50	0x3e4e6ea3	0.20159392
51	0xbe26434b	-0.16236608
52	0xbe3cd1ce	-0.18439409
53	0xbeea5f83	-0.45775995
54	0xbf12f8a3	-0.5741064
55	0xbf3bacd3	-0.73310584
56	0xbf89f9de	-1.0779378
57	0xbcef8571	-0.029238435
58	0xbeed6360	-0.4636488
59	0xbf7f8333	-0.9980957
60	0xbe370781	-0.17873956
61	0xbe3212e8	-0.17390025
62	0xbf50c9b6	-0.81557786
63	0xbf383187	-0.7195057
64	0xbdd18706	-0.10230832
65	0xbf2c98a1	-0.67420393
66	0xbed74cd1	-0.42050794
67	0xbe0c60d4	-0.13708812
68	0xbf21d2c1	-0.6321221
69	0xbf36f667	-0.7146973
70	0xbf192d3a	-0.59834635
71	0x3ea46198	0.32105708
72	0xbddd9175	-0.10818759
73	0xbf6e514f	-0.9309282
74	0xbf543fc0	-0.82909775
75	0xbfbeeea0	-1.4916573
76	0xbb71cbe0	-0.00368952
77	0x3e9f3154	0.31092322
78	0xbe810ce3	-0.25205144
79	0xbf8b8087	-1.0898598
80	0xbf0c13f4	-0.54717946
81	0xbf0b345d	-0.54376775
82	0xbebc8ba0	-0.36825275
83	0x3cd0c3f5	0.025484065
84	0xbe6bf9c9	-0.23044504
85	0xbfa373d5	-1.2769724
86	0xbde9ba8a	-0.11412533
87	0xbee42028	-0.44555783
88	0xbfe2e5b7	-1.7726353
89	0xbf0d24d2	-0.5513431
90	0xbf0e359b	-0.55550545
91	0x3e0e407d	0.13891788
92	0xbf3fa9e1	-0.7486859
93	0xbf28473a	-0.65733683
94	0xbec7e122	-0.3903895
95	0xbea79410	-0.3273015
96	0xbf50b1a8	-0.8152108
97	0xbec44a86	-0.38338107
98	0xbf773860	-0.96570396
99	0xbc42e4d0	-0.011895373
100	0xbdc66e1a	-0.09688969
101	0xbd1f822f	-0.038942512
102	0xbf3a6f27	-0.72825855
103	0x3f602d31	0.87568957
104	0xbefe7f29	-0.4970639
105	0xbec2ba4c	-0.38032758
106	0xbe2f88d2	-0.17142037
107	0xbf57e1e2	-0.84329045
108	0xbe9b654f	-0.3035073
109	0xbf6b2827	-0.9185814
110	0xbcd958cf	-0.026531605
111	0xbca4da99	-0.020123767
112	0xbeb5712b	-0.35437903
113	0xbef58dfc	-0.47959888
114	0xbe6926a1	-0.22768642
115	0xbfeb302b	-1.8374075
116	0xbec95ad6	-0.39327115
117	0xbe4776f5	-0.19478972
118	0x3e49c067	0.19702302
119	0x3e0f0dde	0.13970134
120	0xbef91a4f	-0.48652884
121	0xbf547c2b	-0.83001965
122	0xbe9ae5c9	-0.30253437
123	0x3e26f0f9	0.16302861
124	0xbf9256b6	-1.1432712
125	0x3d3347a6	0.0437695
126	0xbef7089e	-0.48248762
127	0xbf361ed1	-0.7114077

fc3.weight f4 [2, 128]
0	0x3edcfca6	0.43161505
1	0x3e9ab756	0.30218
2	0xbe1081a1	-0.1411195
3	0x3daf976a	0.08573802
4	0xbe9041c9	-0.2817519
5	0x3e475075	0.19464286
6	0xbd76cbee	-0.060253076
7	0x3ec2e008	0.38061547
8	0xbf0be440	-0.54645157
9	0xbebaf1e7	-0.36512682
10	0x3cab2a4b	0.02089419
11	0x3e970b38	0.29500747
12	0x3e3a48db	0.18191855
13	0x3d83f79b	0.06443711
14	0xbe98344f	-0.29727408
15	0x3ebbfc91	0.3671613
16	0x3dcd4046	0.10022025
17	0xbe92948f	-0.28628966
18	0xbe4d19b1	-0.20029332
19	0xbf0436e6	-0.5164627
20	0x3e82b111	0.25525716
21	0x3e227994	0.15866691
22	0x3eb1fb20	0.34761906
23	0xbda2c15d	-0.07947037
24	0x3f0a9610	0.5413523
25	0xbf0ed084	-0.5578692
26	0xbe8e94a3	-0.27847776
27	0xbe16512a	-0.14679399
28	0x3d373062	0.044723876
29	0x3e1121ed	0.14173098
30	0x3e0c266c	0.13686532
31	0xbf2a8150	-0.66603565
32	0xbe94dbb9	-0.29073885
33	0x3ee43216	0.44569463
34	0x3d49e29c	0.049288377
35	0xbecfd17e	-0.40589517
36	0x3ecaa3f2	0.39578205
37	0x3c09e28f	0.008415832
38	0x3f1c0e01	0.6095887
39	0xbe3dec41	-0.18547155
40	0xbe3d31e6	-0.18476066
41	0x3d9db573	0.07700624
42	0xbeb0176e	-0.34392875
43	0x3e8dd757	0.27703354
44	0xbee6ab39	-0.45052508
45	0xbd4c3166	-0.049851798
46	0xbe5d90bb	-0.21637242
47	0xbd11e465	-0.035618205
48	0xbea8aac2	-0.32942778
49	0x3e4a86f0	0.19778037
50	0x3eef7551	0.46769193
51	0x3f088442	0.5332681
52	0xbd021dc6	-0.031766675
53	0x3cd11d48	0.025526658
54	0xbe93afed	-0.28845158
55	0x3e22c8a3	0.1589685
56	0xbe28f09d	-0.16498037
57	0x3b8bab7b	0.0042623854
58	0xbdca1b4c	-0.09868488
59	0xbe3bded9	-0.18346728
60	0x3ba6f67c	0.005095301
61	0x3eb431cf	0.3519425
62	0xbea99f9d	-0.33129588
63	0x3e4873cf	0.19575427
64	0x3c50f7ba	0.012754375
65	0xbe571c5f	-0.21006916
66	0xbde22ecd	-0.11044083
67	0xbe8638aa	-0.26215106
68	0xbe3636a7	-0.17794286
69	0xbe86ef9f	-0.2635469
70	0x3e9ec753	0.31011447
71	0x3ebbde29	0.36692932
72	0xbdad279d	-0.08454821
73	0x3e7fe358	0.24989069
74	0xbe2f38ea	-0.17111555
75	0xbeb60ce8	-0.35556722
76	0x3ece773d	0.40325347
77	0x3e9368bd	0.28790846
78	0xbf001448	-0.50030947
79	0xbedcabf7	-0.4309995
80	0xbed0b6c0	-0.40764427
81	0xbea1fb35	-0.31636968
82	0x3e056cc9	0.1302978
83	0xbe330697	-0.17482983
84	0x3e866219	0.26246718
85	0xbd259800	-0.04042816
86	0xbcbeab09	-0.023274915
87	0xbe9499e1	-0.2902365
88	0xbe1a31dd	-0.15058084
89	0x3edc7737	0.43059704
90	0xbe6842b3	-0.22681694
91	0x3f47935c	0.7795923
92	0x3e19d765	0.15023573
93	0x3ec7cf57	0.39025375
94	0x3ec9f7df	0.39446923
95	0xbe12a92b	-0.14322345
96	0xbd895184	-0.06705001
97	0x3e8c6f93	0.27428874
98	0xbed9da57	-0.42549393
99	0xbdf07a10	-0.117420316
100	0xbda88d2d	-0.08230052
101	0x3e9726db	0.29521832
102	0x3eab953f	0.33512303
103	0x3e73c025	0.23803766
104	0xbed0dd48	-0.40793824
105	0xbd8350ee	-0.064119205
106	0x3e83b85c	0.25726593
107	0xbe3be989	-0.18350805
108	0x3c011469	0.007878401
109	0xbe464138	-0.19360816
110	0x3ed5c205	0.41749588
111	0x3e4bba28	0.19895232
112	0x3e0d4542	0.13795951
113	0xbe5228b6	-0.20523342
114	0xbe462b7b	-0.19352524
115	0xbf11272a	-0.56700385
116	0x3da9494b	0.08265933
117	0x3c8b4650	0.017001301
118	0xbe2fc290	-0.17164063
119	0xbebbd6a0	-0.36687183
120	0xbe84195c	-0.25800598
121	0xbe5f21fa	-0.21790305
122	0x3da60295	0.08105961
123	0xbe6c753b	-0.23091595
124	0xbe66f060	-0.22552633
125	0x3e709307	0.23493586
126	0x3e8f35bf	0.27970693
127	0xbea9fb71	-0.33199647
128	0x3e099098	0.13434064
129	0xbc5a2fbe	-0.013317047
130	0x3f3893aa	0.7210032
131	0x3f0baa5c	0.5455682
132	0x3e5b049f	0.21388482
133	0x3c95685d	0.01823824
134	0x3f487f20	0.7831898
135	0xbe220d70	-0.15825438
136	0x3e7633bd	0.24043174
137	0xbec0a79c	-0.37627876
138	0xba4452d0	-0.00074891467
139	0x3d826ee5	0.06368808
140	0xbea579ff	-0.32319638
141	0xbd9e8cb5	-0.077416815
142	0x3e1f39db	0.15549414
143	0x3f22aa73	0.63541335
144	0xbe345a3f	-0.17612551
145	0x3eff90da	0.499152
146	0x3f6a133e	0.9143561
147	0xbe9f613f	-0.3112888
148	0x3ef70fe1	0.48254302
149	0xbb9141f0	-0.004432909
150	0xbd20feaf	-0.039305385
151	0xbf50fd36	-0.8163637
152	0x3f1d158d	0.6136101
153	0xbbe57b58	-0.007003229
154	0x3eb8bd87	0.36082098
155	0x3d926409	0.071479864
156	0x3f3e843f	0.7442054
157	0x3d9dca12	0.077045575
158	0xbe900af5	-0.2813336
159	0xbf3b91a6	-0.73269117
160	0x3f4bb4ab	0.7957255
161	0x3f0de58c	0.55428386
162	0x3e5e7a57	0.21726356
163	0xbf298ee3	-0.6623365
164	0xbe8cb2c2	-0.2748013
165	0x3f060639	0.52353245
166	0xbd8ad454	-0.067787796
167	0x3f10fb08	0.56633043
168	0x3f054181	0.52053076
169	0x3f652e2a	0.89523566
170	0xbe0e6242	-0.1390467
171	0xbea1f055	-0.3162867
172	0x3ebfd45a	0.374667
173	0x3c62ca36	0.013842156
174	0xbf4df11e	-0.8044604
175	0xbc875233	-0.016518688
176	0x3ebbce50	0.3668084
177	0xbf033567	-0.5125336
178	0xbe80e7a1	-0.2517672
179	0xbdaeddc2	-0.08538391
180	0x3c89a940	0.016804338
181	0xbf127c4f	-0.5722093
182	0xbecda00d	-0.40161172
183	0xbe3aec4d	-0.18254204
184	0xbeeddb42	-0.46456343
185	0xbc3462af	-0.011009856
186	0xbf3d8c5e	-0.7404231
187	0x3d22d776	0.03975626
188	0xbf91f9f3	-1.1404403
189	0xbc8c95c3	-0.017161256
190	0xbe3db0ce	-0.18524477
191	0xbdbf451d	-0.09339354
192	0x3cb02de1	0.021506252
193	0x3f4e695d	0.8062952
194	0xbf82dfda	-1.0224564
195	0xbe9311ad	-0.28724423
196	0xbefa4537	-0.48880932
197	0x3ef9cd7a	0.4878958
198	0x3e505db8	0.20348251
199	0x3f58b56e	0.8465184
200	0xbde3dfed	-0.11126695
201	0x3f404170	0.7509985
202	0x3f667a4d	0.90030366
203	0x3d4e716e	0.050401144
204	0xbe1aa669	-0.15102543
205	0xbdb7e5f5	-0.08979408
206	0xbe4cf6f4	-0.2001608
207	0xbe3bedcf	-0.18352436
208	0xbec89858	-0.3917873
209	0x3d86f7ff	0.0659027
210	0x3e3efbc8	0.18650734
211	0x3f412612	0.75448716
212	0xbf083406	-0.5320438
213	0xbebc5214	-0.3678137
214	0x3c18d5a4	0.00932828
215	0xbf254a95	-0.6456693
216	0x3f1bc0e1	0.60841185
217	0x3dc996fe	0.098432526
218	0xbf0bcf12	-0.5461284
219	0x3d2c7253	0.042101216
220	0x3f794303	0.97367877
221	0x3ea09390	0.3136258
222	0xbdf0a5f5	-0.11750404
223	0xbee69e45	-0.45042625
224	0xbf00ed25	-0.50361854
225	0xbf4afbc4	-0.79290414
226	0xbe1e40da	-0.15454426
227	0x3dd15660	0.10221553
228	0x3f3aebe2	0.7301618
229	0x3f3f0d0b	0.74629277
230	0x3db5a923	0.08870151
231	0x3f8eb112	1.1147788
232	0x3e861ca6	0.26193732
233	0x3f0adf0c	0.5424659
234	0x3f9ca090	1.22365
235	0x3edd3bf3	0.432098
236	0xbe989cd2	-0.29807144
237	0x3ec449c8	0.3833754
238	0xbf0810fd	-0.5315092
239	0xbf5de54e	-0.86678016
240	0xbef660d5	-0.48120752
241	0x3d7263a9	0.059177075
242	0xbf1bbe93	-0.6083767
243	0x3ccb4e53	0.024817621
244	0x3ec857e2	0.3912955
245	0x3d443867	0.047905352
246	0x3ea7cb22	0.32772166
247	0xbf647e3f	-0.89255136
248	0x3c329b4d	0.010901284
249	0xbe7aecd4	-0.24504405
250	0x3fa41766	1.2819641
251	0xbf1a40c9	-0.60255104
252	0xbd9edb2e	-0.07756649
253	0xbf27b39a	-0.65508425
254	0x3f8dc682	1.1076205
255	0x3e973c9f	0.29538438

fc3.bias f4 [2]
0	0xbeec1aa7	-0.46114084
1	0x3fe3cda6	1.7797134
