p3_collab-compet/models/best_critic_1.pth (torch_old, 185256 bytes, 5 tensors)

fcs1.weight f4 [256, 48]
000000 5b 02 8c 40 f3 e4 03 3e 02 0b 67 be 75 28 3f 3f
       4.3752875 0.12880306 -0.22562793 0.7467111
000010 e3 42 86 bf 5c 0a 0b be a6 94 77 be d3 f1 46 3f
       -1.0489162 -0.1357817 -0.24177799 0.77712744
000020 2b 3c 2b 40 02 02 ec be 95 68 63 be bc 24 82 3d
       2.6755474 -0.46095282 -0.22207864 0.06354663
000030 55 40 1e be 46 eb a3 3e 0a d7 ec bd 5d a7 da 3c
       -0.15454228 0.32015437 -0.11564453 0.026691133
000040 dc 15 91 40 86 52 40 be a9 37 09 be c4 81 2b 3f
       4.5339184 -0.1878148 -0.13400139 0.6699488
000050 83 84 33 3f 81 77 10 3f 17 df c0 bd 1e 92 14 3f
       0.7012407 0.5643235 -0.09417551 0.5803546
000060 d2 01 cc 3f d6 46 79 bf a1 61 07 be 9b 38 e8 be
       1.5938056 -0.9737371 -0.13220836 -0.45355687
000070 35 8b 7a 3f d9 5f 4c be 20 a3 2c be 30 e0 d6 be
       0.97868663 -0.19958438 -0.16859102 -0.41967916
000080 5e 1b f7 3f f7 a3 93 bf 36 a2 7c bd 6e 31 28 bd
       1.9305227 -1.1534413 -0.061678134 -0.041062765
000090 bb 38 d8 3d 14 39 b1 3e 6c 4f a9 bd c8 f3 6f 3c
       0.105576955 0.3461386 -0.08267102 0.014645524
0000a0 10 1b d9 3f e5 94 cf bf 8f 92 1a be 41 5b 89 be
       1.6961384 -1.6217314 -0.1509497 -0.26827434
0000b0 fb 78 3e bf 37 2e 10 3f 43 81 13 be 28 06 44 be
       -0.7440335 0.5632052 -0.14404778 -0.19142973
0000c0 5c a5 d7 3e 03 45 64 3f 35 92 c6 bc 46 58 53 be
       0.42118347 0.89167804 -0.024239639 -0.20639142
0000d0 49 56 9f be 38 d6 68 bf 94 ec 66 bd e6 13 09 be
       -0.31120518 -0.9095187 -0.056377962 -0.13386497
0000e0 d5 50 7b 3f ac 11 96 3f 76 dd a2 bd 13 e2 17 be
       0.98170215 1.1724143 -0.079523966 -0.14832334
0000f0 92 c7 b0 3b b6 90 56 be 22 07 b3 bd e9 88 05 be
       0.0053948844 -0.2095364 -0.08741595 -0.13040508
000100 a7 b6 16 40 38 35 bd 3f 21 22 9b bd c5 40 f7 3e
       2.3548982 1.4781866 -0.07574869 0.48291603
000110 49 e2 5f 3f 51 48 97 bf bd 53 c1 bd 39 df cc 3e
       0.8745466 -1.1818944 -0.094398 0.40014055
000120 ff b0 23 3f 13 7a 90 3e 6d 0d 14 be 2e e5 94 3d
       0.6394195 0.28218135 -0.14458247 0.07270275
000130 b8 7b 6b 3e 14 d7 62 bf cb ad 43 be bf be 7e 3d
       0.22996414 -0.88609433 -0.19109266 0.06219363
000140 5a 42 17 3f bc 3c 62 be 20 c9 e6 bd 15 21 35 bf
       0.5908562 -0.22093481 -0.1126883 -0.70753604
000150 4f 04 86 bd 4c dc 2b be fe 6e 96 bd 31 61 3f bf
       -0.065437905 -0.16783255 -0.07345389 -0.7475768
000160 c4 bd 0f 3f 84 e1 9d bd f5 87 ae bd 25 dd 12 bf
       0.56148934 -0.07709029 -0.085220255 -0.5736869
000170 4f 4f 5e bf a7 37 8f bf 05 f7 d8 bd 39 a8 0c bf
       -0.86839765 -1.1188859 -0.1059399 -0.5494419
000180 0b 59 4c be 66 f3 da 3f 4e 35 9c 39 4b 70 cc bd
       -0.19955842 1.7105529 0.00029794354 -0.09982356
000190 93 4a 13 bf f9 28 6c bf 74 2a 62 bc 84 f2 ae bb
       -0.57535666 -0.9225002 -0.013804067 -0.0053389687
0001a0 40 ee ad 3e 32 84 cc 3f 86 87 b4 bd c6 89 99 3b
       0.33970833 1.5977843 -0.088149115 0.0046856133
0001b0 82 11 e2 be 32 15 a5 be e8 4c 33 3c e6 7b 88 bc
       -0.44153982 -0.32242733 0.010943629 -0.016660642
0001c0 96 7b 0b 3f 3e d3 2f 3f 83 5f e6 bd d1 73 c0 3e
       0.5448545 0.68681705 -0.11248686 0.3758836
0001d0 09 5a c4 3e e3 88 b1 3f bc c1 b5 bc 86 8c fa 3e
       0.3834994 1.38699 -0.022187106 0.48935336
0001e0 d9 5b 7c 3e d3 59 15 40 58 b5 8b bc 02 4a 89 3d
       0.24644412 2.3336074 -0.017054245 0.06703569
0001f0 99 8f 14 3f d7 81 68 bf f3 e0 82 3d cf 13 2d bc
       0.5803161 -0.9082312 0.06390562 -0.010563805
000200 0a 45 8c 3e 22 07 34 40 0e 61 de 3c 66 06 12 3e
       0.27396423 2.8129354 0.027145889 0.14260253
000210 be d3 ee 3e 7a 4e af be d6 5a 59 3c 84 94 1a 3e
       0.4664592 -0.3423956 0.013266286 0.15095717
000220 42 f8 3a 3d c7 13 00 3f 8f 64 1d 3d 96 15 86 bf
       0.045646913 0.5003018 0.03842598 -1.0475338
000230 6b d4 b9 be 25 3f b6 3f c0 d4 72 3d 14 9a 7b bf
       -0.36294875 1.423802 0.059284925 -0.9828198
000240 7c 6f a7 bf 0e d9 23 c0 73 e8 e6 3c a0 47 9b 3d
       -1.3080897 -2.560123 0.028187012 0.07582021
000250 10 20 4c 3f 84 28 a8 3f ab 0d 12 bc 82 cf cb 3d
       0.79736423 1.3137364 -0.0089143915 0.09951688
000260 ea bf 98 3e cb ca f7 bf 35 2e fb bd 94 8c 98 3e
       0.2983392 -1.9358763 -0.12264673 0.29794753
000270 9c d2 59 be 73 87 b5 3d 13 f3 81 bd de 49 3d 3e
       -0.21271747 0.088637255 -0.06345191 0.1848521
000280 c5 24 c1 3f 39 e8 f1 bf 26 36 1c bd 02 88 0a 3e
       1.5089346 -1.8898994 -0.038137577 0.13528445
000290 4a 20 b2 be c2 80 2a c0 c5 31 cb bd da 12 39 3e
       -0.3479026 -2.6641088 -0.09921602 0.18073598
0002a0 fa 07 15 3f 8c 92 e8 bf 38 c7 3f bd c8 2f bd 3c
       0.58215296 -1.8169723 -0.04682085 0.023094073
0002b0 30 83 54 bf 46 80 9c 3f 96 b7 3a bc c8 df 93 3d
       -0.83012676 1.2226646 -0.011396309 0.07220417
0002c0 39 f6 b2 3e 62 b4 11 c0 2f b9 53 3d d4 c0 25 bd
       0.34953478 -2.2766347 0.051690277 -0.0404671
0002d0 88 71 5b 3e e9 43 fc 3d 55 44 61 bd 2d c2 a9 bd
       0.21430027 0.1231764 -0.054996807 -0.08288989
0002e0 0a a2 e9 3e a5 17 37 c0 ab c4 11 3d 59 ef 25 be
       0.45631438 -2.8608181 0.035587948 -0.16204585
0002f0 24 12 c1 3e 20 d5 2b c0 ac 5a ba 3c 9b df 37 be
       0.37709153 -2.684883 0.022748314 -0.17956392
000300 a1 7e be be 3c f2 c7 bf 3f 0c 3b 3d f5 39 3c bf
       -0.37205985 -1.5620799 0.045665976 -0.73525935
000310 8f ee c4 3e eb 74 99 be 7b 64 e2 bc 43 9b 42 bf
       0.38463256 -0.29972014 -0.027635803 -0.7601816
000320 0b bd 52 be 88 7a e9 bf b5 15 28 bd 15 d9 98 bd
       -0.20579927 -1.8240519 -0.041036326 -0.0746328
000330 09 89 8c 3d 5e 00 cb bf 66 44 e7 bc e4 4b 6a 3c
       0.06862075 -1.5859487 -0.028230857 0.01430032
000340 d4 1a 60 bc c1 18 cf bf 51 e3 27 be de 1c 0b 3f
       -0.013678271 -1.6179429 -0.16395308 0.5434092
000350 f5 0b 36 bf 9a b0 30 c0 68 56 f5 bd 62 d3 0c 3f
       -0.71111995 -2.760779 -0.11979371 0.55010045
000360 34 b2 4e 3c f8 e7 13 bf d1 12 48 bc 3a 94 49 3f
       0.012615729 -0.5777583 -0.012211517 0.787418
000370 29 8e cf be ec d9 70 be 64 4a 08 bc 5a 48 4d 3f
       -0.40538147 -0.2352063 -0.008318517 0.80188525
000380 66 56 c0 3e b9 3f 9a bf e4 4c 79 be 8f 28 a5 ba
       0.37565917 -1.2050697 -0.24345738 -0.0012600588
000390 80 2d 86 3c 0e e1 d5 bf 3c 34 1a be 7b c3 c6 3d
       0.016379118 -1.6709306 -0.15058988 0.09705254
0003a0 39 c9 74 3f 3d f6 91 bf 32 ad 0f be 1e 1e c8 be
       0.9561954 -1.1403271 -0.14030913 -0.39085478
0003b0 c5 b5 3b 3f ba f2 34 c0 a0 e0 a4 bd f1 df e5 be
       0.73324233 -2.8273149 -0.08050656 -0.44897416
0003c0 41 d6 86 3e ae 66 a8 bf 89 42 b6 be 43 15 82 be
       0.26335338 -1.3156335 -0.35597637 -0.25406846
0003d0 82 ad 4d be fb 4b c3 bf 27 b3 af be d7 83 50 be
       -0.20085719 -1.5257562 -0.3431637 -0.20362793
0003e0 14 74 bb 3f f8 73 a2 bf f4 ce 81 bd fd 8d ff be
       1.4644799 -1.2691641 -0.06338301 -0.49913016
0003f0 cb 8e a7 be 6f 09 4b bf 85 68 44 bd 64 7a ef be
       -0.3272613 -0.7931127 -0.04795124 -0.46773064

fcs1.bias f4 [256]
000000 34 b8 dc bf 39 59 a0 bf b0 70 35 bf ee 43 45 3f
       -1.7243714 -1.2527229 -0.7087507 0.7705678
000010 7d 4e 1c c0 18 6b 07 c0 b4 ff fd bd 4e d7 bf be
       -2.4422905 -2.1159115 -0.12402287 -0.37468952
000020 33 7b 1a c0 c3 f1 d2 bf af 38 39 c0 46 ef 6f c0
       -2.4137695 -1.648003 -2.8940847 -3.748979
000030 ad b1 0f bf d5 91 dd be 3e 2a 78 be 08 5c a3 bf
       -0.56130487 -0.43275324 -0.24234864 -1.2762461
000040 76 71 ef bf ba e2 c4 bf f2 be 56 c0 06 a1 72 bf
       -1.87065 -1.5381691 -3.3554044 -0.9477695
000050 a9 3d 13 c0 ac ec 5a bf ba 28 88 3e d5 5e 68 bf
       -2.3006384 -0.8551738 0.26593572 -0.907697
000060 b4 d8 e7 bf 9a 66 b7 be 24 de 80 bf 1c 25 8e bf
       -1.8113008 -0.35820466 -1.0067792 -1.1105075
000070 af c6 95 bf 6d 5c 39 c0 08 aa 53 bf d8 25 ee bf
       -1.1701258 -2.8962662 -0.8268132 -1.8605299
000080 12 0c dd bf 51 58 86 bf 0e c1 42 bf 8a 70 05 c0
       -1.7269309 -1.0495702 -0.7607583 -2.0849938
000090 34 e3 e3 bf 0e f9 f4 bf 2e d8 f5 3d 1a 1e 29 c0
       -1.7803712 -1.9138505 0.12004124 -2.6424623
0000a0 57 2b db bf f2 4f 9e bf bd 73 01 c0 87 de 35 bf
       -1.7122601 -1.2368147 -2.022689 -0.71042675
0000b0 93 73 95 bf d0 f7 9d 3f d3 cd fa be 45 10 95 bf
       -1.1675895 1.2341251 -0.48985156 -1.164559
0000c0 8f 33 29 bf 47 a1 87 bf fe e1 83 c0 95 38 75 3e
       -0.660943 -1.0596093 -4.121337 0.23947366
0000d0 4c 3b cc bf 26 df 6f bf 52 d3 34 c0 0f 23 07 c0
       -1.5955596 -0.9369987 -2.825398 -2.1115148
0000e0 47 95 09 c0 6d 46 6a 3e 94 f9 6f bf bc f6 85 bf
       -2.1497362 0.22878428 -0.937402 -1.0465922
0000f0 73 d9 d9 bf 59 fb f4 bf 61 de a3 bf 04 9a b6 bf
       -1.7019485 -1.9139205 -1.280224 -1.4265752
000100 ca 9b 40 bf ab 1e 1c 3f 8a c7 23 c0 93 9d b3 be
       -0.75237715 0.60984296 -2.559054 -0.35081157
000110 52 b0 a9 be 4e 4c f9 bf 23 fb 20 c0 05 87 82 bf
       -0.33142334 -1.9476411 -2.5153282 -1.0197455
000120 a0 6b 1d c0 3b 27 cc bf 3f b2 50 bf b4 e5 2d bf
       -2.459694 -1.5949472 -0.8152198 -0.67928624
000130 d0 2d ae bf e8 f7 f7 bf 1a 5d a5 bf 26 57 b9 bf
       -1.3607731 -1.937253 -1.2919037 -1.447972
000140 dc 4d 96 be 29 b4 e9 bf 96 af 3c c0 d7 da be bf
       -0.29356277 -1.8258106 -2.948217 -1.4910535
000150 01 4c 50 be ba d7 35 3f 6b 95 3d 40 61 64 8a bf
       -0.20341493 0.710323 2.9622447 -1.0811883
000160 3a cf f7 bd b7 4d a7 bf b0 78 b1 bf 5a 03 c0 be
       -0.12100072 -1.3070592 -1.3864956 -0.37502557
000170 00 87 9d 3e 43 f3 f9 3f 39 5f 8f bf 50 38 56 c0
       0.3076706 1.9527363 -1.1200935 -3.347187
000180 4c 3b 03 bf dd 11 9a 3f cc 76 ff bf e7 a5 5e bf
       -0.51262355 1.2036701 -1.9958129 -0.86971897
000190 cc ff 70 3d f2 ff bd bf 21 ec f4 bf 7c 7a 63 c0
       0.058837697 -1.4843733 -1.9134561 -3.5543509
0001a0 61 f3 00 c0 d2 5d 43 c0 7f 37 1d bf f1 1c b3 bf
       -2.0148547 -3.0526013 -0.61412805 -1.3993207
0001b0 83 98 fc bf 33 89 e5 bf 0f 5c 16 c0 e2 f9 46 bf
       -1.9734043 -1.7932495 -2.3493688 -0.7772504
0001c0 f8 45 5a bf 59 6d 55 bf 1f 84 c7 bf c0 0d 02 be
       -0.85263014 -0.83369976 -1.5587195 -0.12700558
0001d0 cb 8d bb bf 00 b7 f7 bf ef fa 94 bf c2 78 15 c0
       -1.4652647 -1.9352722 -1.1639079 -2.3354955
0001e0 2e fd 92 bf 24 15 96 3f 57 05 59 3e 53 67 25 bf
       -1.1483514 1.1725202 0.21193443 -0.64610785
0001f0 57 62 ab bf 7f 46 39 c0 ea d1 e9 be b1 f8 20 c0
       -1.3389386 -2.8949277 -0.45667964 -2.515179
000200 43 9c c3 bf 29 f1 91 bf 69 3d fa bf 12 58 e4 bf
       -1.5282062 -1.1401721 -1.9549991 -1.7839377
000210 07 47 13 c0 8a 3d 35 c0 93 0e a4 bf d8 23 fd 3e
       -2.3012102 -2.831881 -1.2816948 0.4944141
000220 b6 7f 46 3e 88 12 10 c0 da 82 d0 bf 00 2e 69 bf
       0.19384655 -2.251131 -1.6289933 -0.91085815
000230 5e 3d c4 be fc 23 1f c0 92 aa a1 c0 e4 93 20 3e
       -0.3832807 -2.4865713 -5.0520716 0.15681416
000240 16 f3 d0 3d 48 d5 a2 bf a6 10 b6 bf b1 68 3a bf
       0.10202615 -1.2721338 -1.4223831 -0.72815996
000250 dc 9e d4 be fd c3 b6 bf 34 41 07 c0 6c 7b 08 bf
       -0.4152745 -1.4278561 -2.1133547 -0.53313327
000260 39 de 04 bf 7d 2a ea bf 74 c0 9d bf 3f df 33 c0
       -0.51901585 -1.8294216 -1.2324357 -2.8105009
000270 a7 88 07 c0 c1 66 09 c0 fe ed a6 bf 80 f6 b5 bf
       -2.1177156 -2.1468966 -1.304138 -1.4215851
000280 e4 68 98 c0 e6 c3 21 c0 f0 20 b1 bf 6d ee 1f 3e
       -4.762804 -2.5275817 -1.3838177 0.15618296
000290 74 a1 dc 3e c3 d4 04 c0 0d 62 d2 c0 d2 de 08 3f
       0.4309193 -2.075486 -6.574469 0.53464997
0002a0 df ed b8 bf b0 cb fc bf e7 33 a1 bf 16 02 b4 3f
       -1.4447592 -1.974966 -1.2593964 1.4063137
0002b0 77 d3 27 c0 77 17 4a c0 bc 4a 45 c0 ef bb 29 c0
       -2.6222818 -3.1576822 -3.0826864 -2.6520956
0002c0 01 28 11 c0 97 64 09 c0 5b e1 aa bf 67 62 84 bf
       -2.2680666 -2.1467645 -1.3350023 -1.034253
0002d0 ed 4e 5a c0 c0 66 28 c0 15 6a 72 c0 ce 5e 2c c0
       -3.4110672 -2.6312714 -3.7877247 -2.6932864
0002e0 13 43 3e bf 1c cc f8 bf 66 dd 32 c0 91 19 5c bd
       -0.743211 -1.9437289 -2.794763 -0.05373532
0002f0 04 ad 38 c0 1d 29 df bf 4e 11 2f 40 3d 05 04 3e
       -2.88556 -1.7434422 2.7354312 0.12892623
000300 e8 66 ee bf 4e 69 8e bf 8f 63 eb 3f 4d 66 c3 bf
       -1.8625154 -1.1125886 1.8389758 -1.5265595
000310 d8 d5 d5 bf d5 34 a1 bf b6 8f ce bf 25 e8 29 bf
       -1.6705885 -1.2594248 -1.6137607 -0.6636985
000320 b4 a7 a2 bf 1d b2 fb 3e 24 0f af bf c1 58 64 c0
       -1.2707429 0.49159327 -1.3676496 -3.567917
000330 98 f0 e2 bf 77 93 93 be 49 3b 66 3e 01 33 1a bf
       -1.7729673 -0.28823444 0.22483553 -0.60234076
000340 03 8a 95 bf ea 12 89 bf 32 78 2e be b1 f0 10 c0
       -1.1682743 -1.0708897 -0.17038038 -2.2646906
000350 ec 3d 20 be 60 f6 b4 bf f6 01 2c c0 b2 06 eb bf
       -0.15648621 -1.4137688 -2.6876197 -1.8361418
000360 0c 28 0e c0 25 f7 ec bf f3 23 9c bf 20 c9 77 bf
       -2.2211943 -1.8512923 -1.2198471 -0.9679127
000370 e7 5f 33 c0 c9 09 d2 be e1 b7 93 bf 60 3e 4c c0
       -2.8027284 -0.4102309 -1.154049 -3.191307
000380 22 11 34 be ed 6b ab bf 11 f4 2b c0 af ad b9 be
       -0.1758466 -1.3392311 -2.6867716 -0.36265323
000390 94 f1 6a bf b7 c5 22 c0 63 13 55 bf fd 8b b7 bf
       -0.9177487 -2.5433176 -0.83232707 -1.4339596
0003a0 38 37 34 c0 fc e8 e7 bf f8 08 da bf 75 11 46 bf
       -2.8158703 -1.8117976 -1.7033987 -0.7737039
0003b0 a2 d6 f2 bf db 5d 58 be e6 f7 8c bf dc 11 54 bf
       -1.8971751 -0.21129553 -1.1013153 -0.8283975
0003c0 92 51 07 c0 ef b8 a2 bf 0b 51 29 c0 26 ab 33 c0
       -2.1143537 -1.2712687 -2.6455715 -2.807321
0003d0 54 a9 db be 16 26 0e be dc 52 54 bf e0 1b 18 c0
       -0.42902625 -0.13881716 -0.82938933 -2.3767014
0003e0 d1 28 22 be 22 0b 1d c0 f0 22 27 c0 85 8e 9b bf
       -0.15835883 -2.4538045 -2.6115074 -1.2152869
0003f0 7c ab 50 bf 19 be bd bf a9 76 6e c0 53 fd ac be
       -0.81511664 -1.4823638 -3.7259924 -0.3378702

fc2.weight f4 [128, 260]
000000 89 b1 03 bf a2 b4 5e bd d9 a4 76 be 47 04 52 bd
       -0.5144277 -0.054371484 -0.24086322 -0.05127361
000010 7a ba 9c bd 85 65 20 be e8 7b 11 be f8 77 09 be
       -0.07652755 -0.15663727 -0.14207423 -0.1342467
000020 c6 e3 95 bc 40 ad 11 bf 8a cb 0c 3a 49 ea a7 3c
       -0.018297087 -0.56904984 0.0005370906 0.020497458
000030 06 f3 1e be 27 6a b9 be 60 c2 65 be 01 51 01 be
       -0.15522394 -0.362138 -0.2243743 -0.12628557
000040 b9 f0 5f bd a8 06 08 bb 7a 20 e8 bd 96 25 41 be
       -0.05467293 -0.002075592 -0.113343194 -0.18861994
000050 e8 07 09 be 84 42 3e be 7b e5 1d be e4 06 28 bd
       -0.13381922 -0.18580061 -0.15419571 -0.041022196
000060 22 8e ad be 4b c3 bc be 65 3a 57 bf fb 3a f2 be
       -0.338975 -0.36867747 -0.8407348 -0.47310624
000070 46 2a b5 be 74 f1 6a be 64 88 60 be 6e 9f 09 3e
       -0.35383815 -0.2294367 -0.21927029 0.13439724
000080 5d ee 22 be f5 08 31 be 51 0d 12 bf 80 95 8a 3c
       -0.15911241 -0.17288573 -0.5705157 0.01691699
000090 bb 3f 52 bd 97 64 22 bc 72 37 6c be 20 7b cc bd
       -0.05133031 -0.009911678 -0.23068026 -0.09984422
0000a0 46 4c f1 bc 03 e1 81 be 35 23 aa be 42 6d 67 be
       -0.029455315 -0.25366983 -0.33229986 -0.22600272
0000b0 2a e8 47 be 9d 2a 21 be 09 f2 d1 3c 80 04 01 be
       -0.19522157 -0.15738912 0.025628107 -0.12599373
0000c0 46 dc e8 bd fe 9e 3b bf 4a 31 83 bd 4d f1 a5 3c
       -0.11370139 -0.7328948 -0.064058855 0.020256663
0000d0 2a b4 fc 3c c4 5d bc bd 6f 8e a7 bd a8 fd 67 bd
       0.030847628 -0.09197572 -0.08181464 -0.05663839
0000e0 95 68 96 be b5 3c 62 bd e2 da cf bc 52 df 2f bf
       -0.29376665 -0.055233676 -0.025372926 -0.68700135
0000f0 93 0a da be 83 50 d6 be ff b8 8b bd 8e 3c 97 3d
       -0.42586192 -0.418583 -0.068223946 0.07384597
000100 53 7a 85 be b5 ce f1 bd ad d6 5b 3d 13 39 29 be
       -0.26069888 -0.11807004 0.053671528 -0.16525678
000110 63 47 3a be dd d1 7f 3d a5 5b 59 bf 22 81 98 be
       -0.18191294 0.062456 -0.84905463 -0.2978602
000120 55 b0 55 bd 11 82 03 bc da 71 a4 bd d1 88 15 bf
       -0.052170116 -0.008026616 -0.08029528 -0.5841189
000130 41 f3 6c bd 03 df 90 bb c9 d2 d9 be 1e a6 29 3d
       -0.057849173 -0.0044211163 -0.4254363 0.041418187
000140 0b c9 a9 3d f7 8e d1 be 50 fd 83 bd c6 79 f2 bc
       0.08290299 -0.40929386 -0.064448 -0.029599082
000150 26 8d f6 be 63 30 92 bd 1a b2 a2 be ea 0a d0 bd
       -0.48154563 -0.07138135 -0.31776506 -0.10158332
000160 8d fd d7 3d f5 92 a6 3c d3 14 a5 3c e2 78 d3 bd
       0.10546408 0.020333746 0.020151531 -0.10325791
000170 c2 dc e8 3d 12 cf d4 bc 17 27 08 bd 06 fb b7 3b
       0.11370231 -0.025977645 -0.033240404 0.005614641
000180 90 8a 8c 3d f9 64 3f be d0 bb 30 be 88 b0 47 be
       0.06862366 -0.18690862 -0.17259145 -0.19500935
000190 9d a0 1e be 8f 9f c1 3b 2c 74 86 bd 91 5d 09 bf
       -0.15490957 0.0059089134 -0.06565127 -0.53658396
0001a0 51 2b cd 3c 28 19 36 bf 25 b9 f2 bc e5 6f e0 bc
       0.025045069 -0.71132135 -0.0296293 -0.027397105
0001b0 5c 00 0c be 3b cc e0 be 3e 66 15 bd 00 2e ad 3d
       -0.13672012 -0.43905815 -0.03647446 0.084560394
0001c0 35 de 6e bd fa 81 2a 3d 56 d4 9e be 2f 1b 63 bd
       -0.058317382 0.04162786 -0.31021374 -0.055445846
0001d0 a1 44 07 bf 75 15 ca be 74 3f 0d be ad c2 a8 bd
       -0.52839094 -0.39469495 -0.13793737 -0.082402565
0001e0 f1 16 99 be d4 bf c7 bd 5a ea 8b be d3 41 dc bd
       -0.29900315 -0.09753385 -0.27327234 -0.107547425
0001f0 d6 fd 8b bd f7 18 8a 3d 64 15 98 be 1e 8d 33 be
       -0.06835525 0.06743043 -0.2970382 -0.175343
000200 2d fc 45 be 1c f3 54 be 2e 2e f7 be 96 45 3d bd
       -0.19334479 -0.20795864 -0.4827742 -0.04620894
000210 db 08 69 3d ec 1d a3 3c 4a b3 1d 3e 11 63 2b be
       0.05689321 0.019911729 0.15400425 -0.1673701
000220 2a a1 7b bf f5 29 1b bc aa 1d fe bd e8 d3 ed 3c
       -0.9829279 -0.009470453 -0.12408002 0.029031709
000230 13 de f6 bd 2f 87 1c be 20 b6 a6 bd d6 04 81 bd
       -0.12054076 -0.15285943 -0.08140206 -0.062997505
000240 4c 04 90 be c5 1f 96 bc d0 9f 9f be 3b 1c 28 be
       -0.28128278 -0.018325696 -0.31176615 -0.16417019
000250 90 bd 1a bd 53 8e 5f 3c 1f 30 8a be db a0 f3 bd
       -0.037778437 0.013644773 -0.26989838 -0.11895915
000260 c0 9f c3 be f6 da 17 bd 3f 15 63 3d fb b9 d3 be
       -0.38207817 -0.03707405 0.055440184 -0.4135283
000270 5f 84 3f be 25 66 c9 bd d4 1a 0a bc c0 4b 0e bf
       -0.1870284 -0.09833936 -0.008429248 -0.55584335
000280 3d 98 2a 3c 7e c6 1a be fd c8 35 bb 30 15 bc be
       0.010412273 -0.15114781 -0.0027738207 -0.36734915
000290 82 4e 13 bb 6e 28 17 bf 2b 69 10 be 38 fa 4b be
       -0.0022477214 -0.59046066 -0.14102618 -0.1991967
0002a0 3b fb cd be 2d 53 3a be 27 62 ef bb 14 ef 8b bd
       -0.40230736 -0.18195792 -0.007305402 -0.0683271
0002b0 c4 51 37 bd 54 9d e8 3c 57 11 ca be 4a d9 b9 bc
       -0.044755712 0.028395332 -0.39466354 -0.02268662
0002c0 a7 21 98 bd 59 e5 04 be b6 26 ea bc 25 77 1f 3d
       -0.07428294 -0.12978114 -0.028582912 0.038931984
0002d0 16 b1 01 bf b0 a3 ed be dd c2 f7 bd 83 68 57 be
       -0.50660837 -0.46413946 -0.12097714 -0.21035962
0002e0 82 2c 2d bf da ac f0 be 26 a7 ee bd 66 7f 33 bf
       -0.6764604 -0.47006875 -0.11652975 -0.7011627
0002f0 a1 84 c0 be f6 42 fb 3d ed 85 05 bf 2e c1 23 be
       -0.37601188 0.12268631 -0.5215748 -0.15991661
000300 f7 f9 b3 be 26 16 51 be db ad f8 be 70 b2 4b bd
       -0.35151646 -0.20418605 -0.4857014 -0.049730718
000310 9c 76 cc be a2 a7 b7 bd b3 d4 65 3d 1f 81 8f 3c
       -0.39934242 -0.0896752 0.05611105 0.017517624
000320 49 82 df 3d 38 b6 7a bf 8f f9 f3 bd 12 2d d4 bd
       0.10913522 -0.97934294 -0.11912834 -0.10360159
000330 67 44 24 be 32 52 40 3c e7 53 59 bf 47 5f d7 3a
       -0.16041718 0.011738347 -0.8489365 0.0016431593
000340 d3 14 9a 3c 89 b4 78 be 85 b4 bb bd 3f 69 09 be
       0.018808758 -0.24287619 -0.09165291 -0.13419054
000350 ff 96 a7 3d 79 a4 4b be b6 b4 52 be bc f4 82 be
       0.08183097 -0.1988696 -0.20576748 -0.25577343
000360 31 31 f2 bb e4 5c 26 be 44 00 81 be 9d 4f 85 be
       -0.007391118 -0.16246372 -0.25195515 -0.26037303
000370 99 2f 71 bc 56 8d 82 bc 67 3a 2e bd 8a 51 aa be
       -0.014720821 -0.015936535 -0.042536166 -0.33265334
000380 8f f3 66 bc 34 7c 89 be 94 63 0d ba d3 6f 08 bd
       -0.014096155 -0.26852572 -0.00053935614 -0.03330977
000390 1e 68 a5 bd c8 da 13 be cc ba 08 bf 2d 78 89 bc
       -0.080764994 -0.14438927 -0.5341003 -0.016780937
0003a0 cf 31 bc bd 17 d8 07 be b6 a5 eb 3c ea 06 7b be
       -0.09189188 -0.13266025 0.02876554 -0.24514356
0003b0 0a 7b 64 bf f5 9c 63 be ce 63 09 3d 6a 28 aa be
       -0.8925024 -0.22227843 0.033542447 -0.33233958
0003c0 d1 4c c0 be 89 1e 1f bd 4d 33 6f be 6f 76 d7 be
       -0.37558606 -0.03884748 -0.23359413 -0.42082545
0003d0 e0 50 9e be b1 1c 09 be 26 4f 5c 3b 87 4e 16 bc
       -0.30921078 -0.13389851 0.0033616512 -0.009173996
0003e0 e5 41 af bd 08 e5 9b be 3e d4 91 bc 27 5e 03 3d
       -0.0855749 -0.30448174 -0.0178014 0.032072213
0003f0 58 cc 0e bf 20 02 f5 bd a3 f9 5f 3c 5d 11 1d bd
       -0.55780554 -0.11963296 0.013670358 -0.038346637

fc2.bias f4 [128]
000000 b7 18 a5 bf a2 f2 e7 be 0d c7 e8 be 15 d0 17 bf
       -1.2898167 -0.45302302 -0.45464364 -0.59301883
000010 32 85 00 bf 21 f7 4d bf 7b 14 5c bf 5a 22 70 be
       -0.5020324 -0.80455214 -0.8596875 -0.23450604
000020 40 5d 91 bf 6d fa e0 be 59 80 b5 be 92 07 d9 bf
       -1.1356583 -0.4394106 -0.35449484 -1.6955435
000030 3b 2f 17 bf 19 98 23 bf 4e d2 e3 be 59 53 d6 be
       -0.5905644 -0.6390396 -0.44496387 -0.41860464
000040 98 52 71 be fa c4 c4 be b7 77 32 bf f9 68 d0 be
       -0.23566663 -0.3843153 -0.6971392 -0.40705088
000050 7e 26 ac bf cd 1c 20 bf a5 47 ad be 17 2c a8 be
       -1.3449247 -0.62543947 -0.33843723 -0.32846138
000060 60 ce 81 be 07 86 03 bf 92 06 dc bf 5d 50 a0 be
       -0.25352764 -0.51376384 -1.7189505 -0.31311312
000070 f6 14 1d bf 59 32 b7 be 23 5d d2 be a5 dc ae bf
       -0.6136011 -0.357806 -0.41086683 -1.3661085
000080 37 fb 4d bf 85 27 9e be 6d 26 36 bf ba 17 30 bf
       -0.8046145 -0.30889526 -0.71152383 -0.68786204
000090 1d 07 64 bf 7e 60 0d c0 57 7d df be e3 1d cb be
       -0.89073354 -2.2090144 -0.43650314 -0.3967124
0000a0 38 d5 af be d6 89 27 bf 03 4e b7 bf 55 f1 3c bf
       -0.3434236 -0.65444696 -1.4320682 -0.73805743
0000b0 54 f2 84 be ab 1c 7c bf 75 ae dd be 2f db a5 be
       -0.25966132 -0.98481244 -0.43297163 -0.32393786
0000c0 71 3b 24 bf 0a 3b 31 bf 6c 28 e4 be cd b2 c7 bf
       -0.641532 -0.6923071 -0.4456209 -1.5601441
0000d0 df 45 d3 be 3c 76 ab 3f 58 9e 1e bf 20 74 b5 be
       -0.41264245 1.3395457 -0.61960363 -0.3544016
0000e0 f0 ac 86 be 16 2e 75 3f f6 33 9a be 4b 1c be bf
       -0.26303816 0.95773447 -0.30117768 -1.4852384
0000f0 3c 4e ff bf bd 1d f0 be d8 72 6c be a1 cc 9e be
       -1.994575 -0.46897689 -0.23090684 -0.31015494
000100 64 c6 8b bf 75 47 d4 bf bc 05 9b be 93 a7 b5 be
       -1.0919919 -1.6584307 -0.30277812 -0.3547941
000110 d2 b7 bd be 72 0f 00 bf 40 f2 79 bf 72 f5 d5 be
       -0.37054306 -0.5002357 -0.9763527 -0.41788822
000120 9f 11 96 be 9f 61 f0 bf 01 c2 e6 bf 2a eb b2 be
       -0.2931032 -1.8779792 -1.8027955 -0.3494504
000130 6d 4d 1a bf 07 96 d1 be 44 f8 dd bf 7f b7 b3 bf
       -0.6027439 -0.40934774 -1.734139 -1.4040374
000140 86 73 1c c0 be 65 7c be de 95 bb be b1 eb 8d be
       -2.444551 -0.24648187 -0.36637777 -0.2771888
000150 bf 45 9a bf 81 84 a1 bf 9f bd 83 be 98 2f 41 be
       -1.2052535 -1.2618562 -0.25730607 -0.18865812
000160 2d 2b 87 bf cb a8 01 c0 f3 35 a3 be 2e 25 a3 be
       -1.0560051 -2.0259273 -0.31877097 -0.31864303
000170 1a 0b 99 bf f2 af e1 be 4f 6a 8d be a2 c8 d1 bf
       -1.1956513 -0.44079548 -0.2762017 -1.6389353
000180 01 9b 63 bf 7e 74 ae be 79 21 9b be 0c 70 05 bf
       -0.8890839 -0.3407325 -0.30298975 -0.52124095
000190 f5 22 3b bf d2 4a 4e be 53 d0 9b be e3 83 14 bf
       -0.73100215 -0.20145729 -0.30432376 -0.58013743
0001a0 62 34 a3 bf 25 2e 50 40 5f 46 47 bf 95 13 86 be
       -1.2750361 3.2528164 -0.7784175 -0.26186815
0001b0 e4 c2 01 bf 6a a3 cd bf 25 e7 ad bf 08 ee 88 bf
       -0.50688004 -1.6065495 -1.3586165 -1.0697641
0001c0 ed e4 08 bf db 1a 9e be 5c cc b6 be 49 b9 cb bf
       -0.53474313 -0.30879864 -0.3570279 -1.591592
0001d0 f0 9f 36 3d ca c1 b7 be 7e 5c f9 bf 20 25 03 bf
       0.044586122 -0.35890037 -1.9481351 -0.51228523
0001e0 9a c7 d7 be c3 90 b2 be 1d 02 af be 92 61 07 bf
       -0.4214447 -0.3487607 -0.341813 -0.52883255
0001f0 69 84 2c bf ed 1c 0e 40 d0 50 8b bf d5 80 93 bf
       -0.6738954 2.2205155 -1.0884037 -1.1523691

fc3.weight f4 [1, 128]
000000 fe 50 cd bc 5c fa b3 bc d3 35 87 bc 42 7b 65 3b
       -0.025063034 -0.021969967 -0.016505158 0.0035016094
000010 f3 b1 ab 3c e8 09 8d bc 15 b0 be 3b 96 ab 18 3c
       0.020958876 -0.017216638 0.0058193305 0.009318253
000020 d9 65 1b 3b 5e 8b 6a bc b1 c5 aa 3b a6 52 0c bc
       0.002371183 -0.014315454 0.005211555 -0.008564627
000030 c3 7a df 3c 3b e2 cb 3b 7a 11 46 3b a3 0a c0 3b
       0.027280217 0.006222037 0.003022282 0.005860643
000040 29 d9 9b bb 25 a9 87 3b cb 5f 29 bb b4 ec d6 bb
       -0.004756112 0.0041400366 -0.002584445 -0.006558979
000050 80 af cb 3b 93 e6 36 bc 6b ab f8 3c d9 f0 c2 3c
       0.0062159896 -0.011163372 0.030355176 0.023796486
000060 6f 31 98 bc 5d bf 4b 3c 08 da c4 bb 7e 7e 90 bb
       -0.01857826 0.012435761 -0.0060074367 -0.0044096103
000070 6a 96 18 3c 68 8f ec 3c 04 40 ed bc 69 33 36 3c
       0.009313205 0.028876975 -0.02896119 0.011120656
000080 25 f1 80 3c 25 cd f2 3c 65 2b 9a 3c 90 99 1d 3c
       0.015739987 0.029638836 0.01881952 0.009619132
000090 90 94 92 bb e3 71 44 bc 0c 0c 82 3c a0 0e f8 3b
       -0.0044732764 -0.011990043 0.015874885 0.007570103
0000a0 08 3f f2 3a c0 b2 9c bb 0e 0c ff 3b 20 89 89 bc
       0.001848192 -0.004782051 0.0077834195 -0.01678902
0000b0 49 d3 79 3c d3 67 7e bc f8 5d d5 3b 6d d4 b4 3c
       0.015248128 -0.015527683 0.006511446 0.022073949
0000c0 66 a3 f8 bc 42 e7 dc bb 9d 37 a9 3b 3c fb c4 bc
       -0.030351352 -0.0067414353 0.0051641003 -0.02404558
0000d0 92 2e 27 bc 94 8b bf bb a9 d8 b5 3c 0a f3 b1 3c
       -0.010203974 -0.0058454964 0.022198038 0.021722335
0000e0 df f8 99 bc db 0c 00 3c 1a 95 53 3c df 0d fc bc
       -0.018795429 0.007815565 0.012913967 -0.030768333
0000f0 a7 82 6d 3c 1d 34 09 bc c6 af 70 bc 26 00 b6 3b
       0.014496482 -0.008374241 -0.014690345 0.005554217
000100 63 1a 0d bc e1 a4 d9 bb 5d 3c e7 bc ca c2 56 bc
       -0.008612248 -0.0066419696 -0.028227026 -0.013107965
000110 9c 29 83 3c 47 e4 a2 3c 87 d4 0c bc d9 7c af 3c
       0.016011052 0.019884242 -0.008595592 0.021421837
000120 bd bc ac bb 8a ca a2 bc 90 40 26 bc 59 e6 5c 3c
       -0.005271523 -0.019871969 -0.010147229 0.013482654
000130 20 1e e4 bc 1b d6 bc 3c d9 ee 24 bb 22 3f b7 bc
       -0.027846396 0.023051312 -0.0025166778 -0.022368971
000140 34 4e d5 3a 50 7d c8 3c 39 c6 13 3c 78 4e 1d 3b
       0.0016273917 0.024473816 0.009019428 0.002400307
000150 c4 f3 6e 3c 2a 5b b2 bb 29 3b d0 bb 2e ab d0 bb
       0.014584485 -0.0054429965 -0.0063547087 -0.0063680625
000160 a6 e9 b7 bc 6a e1 aa 3c c2 6b 8d b9 78 cf 8e bb
       -0.02245028 0.020859439 -0.00026973902 -0.0043582283
000170 a7 b1 91 3b 01 2a c6 bc 45 12 db 3b 8f 44 ee 3c
       0.0044462266 -0.02418995 0.0066855275 0.029085426
000180 7e 3b 91 bc 05 f3 af bc 1d be f9 3b 51 6a cc 3c
       -0.017728563 -0.021478185 0.00762154 0.02495304
000190 55 2d d1 3b 20 07 87 bc 4f 09 06 bc 72 7e 78 bc
       0.006383578 -0.01648289 -0.00818093 -0.015166866
0001a0 a9 a4 a4 bc e0 db a1 bb 6c 55 5a 3c 9c ee d8 3b
       -0.020098047 -0.004939541 0.01332603 0.0066202413
0001b0 29 fc 44 3c d4 94 d8 3c ff cb a7 bc 18 14 66 3c
       0.01202301 0.026438154 -0.020483015 0.014042877
0001c0 27 87 cd bc a1 32 19 bc 65 59 57 bb 55 75 a3 3c
       -0.02508886 -0.00935045 -0.003285968 0.01995341
0001d0 e8 37 6d 3c 17 18 94 bc 75 a6 da bc 44 f2 19 3c
       0.014478661 -0.018077893 -0.026690701 0.0093961395
0001e0 5c 51 e8 bc 68 ac 9f 3c d4 68 60 bd 34 3a 8e bc
       -0.028359108 0.01949139 -0.054787472 -0.017361738
0001f0 6e 1a de 3c 31 b8 1b 3c 95 0d 95 3c 19 80 6d bb
       0.027112212 0.009504364 0.018194953 -0.0036239682
