p3_collab-compet/models/best_actor_1.pth (torch_old, 183722 bytes, 6 tensors)

fc1.weight f4 [256, 48]
00000000: 23c2 e2be fde9 60be 5f21 b1be 5b0e b43f
00000010: 1091 863e 8093 403e bf8a aebe bbe2 ba3f
00000020: 052e 8a3e b668 203e ec0e 0e3f 674b 913f
00000030: ab46 8b3e 372d b13e 8ae2 1d3f 71e8 9c3f
00000040: 0a58 793e 6f90 383f 60b5 44be 1ca4 0f40
00000050: 3bff b93e f12b 713f 1438 1dbe c420 1440
00000060: e033 633f 4e09 a2bf fafe 953e 8966 17bf
00000070: cec0 87be 7e67 0a3e b488 c63e 57fd 15bf
00000080: 874c 7d3f e85b a7bf 456d 3fbd 86ae 02bf
00000090: 237c 95be 4f10 b23e 01fe a2bd d846 edbe
000000a0: 9a8d 6b3f 6c42 b4bf 1d7b e6be 3a7c d5be
000000b0: a44d b5be f173 723f 0999 cebe 0ef8 c4be
000000c0: 00f4 a63e 6f6d fbbe 296b 953d bcb3 28bf
000000d0: a339 bc3e 3132 e2bf 83f0 d83d ea95 22bf
000000e0: 37d9 123f 4462 1abf 05b3 823e 9add 1a3f
000000f0: 1e35 c03e 00cb 27c0 d85d b03e 82d2 243f
00000100: 451f 343f 726a f7be 18ce 193e 57e8 833f
00000110: e401 a63e 3136 61c0 3811 0b3e 9156 7c3f
00000120: 5e3e ed3e 4e66 1ebf a9b5 fbbe d5f1 e5bf
00000130: 9684 d4be 0de2 e2bf 08b1 fdbe c747 ecbf
00000140: 9ec4 1f3f d239 67bf c654 b63c f280 c13e
00000150: 64d0 c2be 7eb7 2ec0 0d66 97bb 7cef 9f3e
00000160: 4bc3 013f ca4e 3dbf 8af0 143d 8c2c 823f
00000170: 44df dabe 69a0 5fc0 170f 0dbd aa43 873f
00000180: 36ff 01bf f431 dcbf fbad d5ba f563 573f
00000190: 958c 74bf 78ad 55bf 9716 f1bc f726 6f3f
000001a0: 2bbc 5dbe dad5 e4bf 7c81 b4be e5df f33e
000001b0: 3321 90be dbb2 a9be 4f3c c4be 22dc c93e
000001c0: 3f8f b8be 2104 f0bf 4d38 7abf ec6a 853f
000001d0: 25cc b23e 0a7c 933e 6f3d 7ebf 6c50 873f
000001e0: e38f 45be 4a2c 71bf 0726 6abe 2056 1bc0
000001f0: 1771 6b3f c2d8 55bf 105c 24be f6d5 1cc0
00000200: 8223 21be 7faa d4bf 99b6 93bf 0a62 1ac0
00000210: 899b 713e b913 a1be 08ce 8bbf 7cae 20c0
00000220: 3e05 673d 9424 fbbf a8ce a33d 8adc e8bf
00000230: f1d0 babe 4814 823e c60d 3f3e 14ed ecbf
00000240: 09d4 8cbe b047 803f 1936 febe 5a4d 0a3f
00000250: a1c9 1abf 5a35 34bf 6bc2 e5be a6fb f23e
00000260: 72ed dabe 84e3 8e3f 6a41 c63d 6a40 2f3f
00000270: c77b 47bf 1ef4 a7bf e84d 983d bc0f 353f
00000280: 0c52 a839 e48e a13f f328 9e3e bfa5 333e
00000290: 295f 70bf 9074 0ac0 3bf7 5b3e c121 493e
000002a0: ab04 043f 5208 323f f8a1 b7be 2af7 d2bf
000002b0: 7e99 013f e2e3 3dbf 048f a9be ba4f d3bf
000002c0: 662f 273f edf6 5abe d80a f73e dd9e c8bf
000002d0: ad48 4f3f 02a7 adbf 0e50 043f 11fa d0bf
000002e0: 5529 433f bd1f 8bbe dfe8 4f3e afc7 1abf
000002f0: 5f8c 7f3f 2e5c 03c0 17b6 f33d 6303 1ebf
00000300: 785e 38bf 66b3 7d3f f46e 103f 1e35 0ebf
00000310: 36da 59c0 e033 0b3f 8684 213f a6e0 14bf
00000320: e232 0fbf 5484 893f 61ba 313e 30b4 71bf
00000330: 4d6c 4fc0 844c cabd c8d7 d93d 3457 67bf
00000340: cbf5 c1be 7837 803f 3b00 3f3e bf05 a6bf
00000350: be7b 3fc0 9f64 4dbf f46d 6a3e 077f aebf
00000360: a4c5 b5bd 7d26 c1bd 3f0c 20bc ac22 bebc
00000370: 4055 5540 5dac 143f cfaf 4b3d 4cd4 c63d
00000380: df7f aabd 0854 923e af39 3ebe 2c26 39bf
00000390: 33ff 4e40 3c27 31be 03d4 06be 1208 49bf
000003a0: cf33 153e a026 dd3e 6e00 043e d766 89be
000003b0: 9c32 4340 91ec 53bf 60c1 433e 45de a4be
000003c0: 5f1a 973f 6142 dfbf f64f ce3e fa54 f3bf
000003d0: 3e68 8ebf face 4dbf 8c1a d73e 1685 f3bf
000003e0: 7583 943f 5c5b d5bf dba7 ef3d 0f17 dabf
000003f0: 39cb 76bf 3c41 d9be 69d5 c53d 2b9d dabf
-0.4428874 -0.2196426 -0.34595773 1.4066881 0.2628255 0.18806267 -0.3409023 1.4600443
0.26988235 0.15664944 0.5549152 1.1351136 0.27202353 0.3460481 0.61673796 1.2258435
0.2434999 0.7209539 -0.19209814 2.2443914 0.36327538 0.94207674 -0.15353423 2.3144999
0.8875103 -1.265909 0.29296094 -0.5914083 -0.26514286 0.13516042 0.3877617 -0.5858969
0.98944896 -1.3074923 -0.046735067 -0.5104755 -0.2919627 0.34778067 -0.07958604 -0.46343112
0.9201294 -1.408277 -0.45015803 -0.4169634 -0.35410798 0.9470816 -0.40351132 -0.384705
0.32608032 -0.4910693 0.0729583 -0.6589925 0.36762723 -1.7671567 0.10592749 -0.6351
0.57362694 -0.6030619 0.25527206 0.6049439 0.37540525 -2.6217651 0.34446597 0.6438371
0.70360214 -0.483234 0.15020025 1.030528 0.32423317 -3.5189326 0.13580787 0.9856959
0.46336645 -0.61874855 -0.49162033 -1.7964426 -0.41507405 -1.7725235 -0.49549127 -1.8459405
0.6240939 -0.903226 0.02225722 0.3779369 -0.38049614 -2.7299495 -0.0046203197 0.312374
0.5068862 -0.7394835 0.03636221 1.0169845 -0.42748463 -3.4941657 -0.03443822 1.0567524
-0.50780046 -1.7202744 -0.001630246 0.841369 -0.9552701 -0.8346782 -0.029429717 0.9341883
-0.21653812 -1.7877762 -0.3525504 0.47631755 -0.2815033 -0.33144268 -0.38327262 0.3942576
-0.36046788 -1.875126 -0.9774216 1.0423255 0.34921375 0.28805572 -0.9931249 1.0571418
-0.1929317 -0.94208205 -0.22866069 -2.4271317 0.91969436 -0.8353387 -0.16050744 -2.4505591
-0.15736201 -1.6614531 -1.1540099 -2.4122338 0.23594488 -0.3146036 -1.0922251 -2.5106497
0.056401484 -1.9620538 0.07998401 -1.8192303 -0.36487535 0.25406098 0.18657598 -1.850985
-0.2750552 1.0021877 -0.49650648 0.5402428 -0.6046391 -0.7039391 -0.44874892 0.47457618
-0.4275928 1.1163182 0.096804455 0.68457663 -0.77923244 -1.3121374 0.074367344 0.70727134
0.00032104587 1.2621732 0.30890617 0.17543696 -0.938952 -2.1633644 0.2148103 0.19641782
0.5156962 0.69543946 -0.3586576 -1.6481678 0.50624835 -0.74175847 -0.33116925 -1.6508706
0.653067 -0.21383257 0.4825046 -1.5673481 0.8097027 -1.3566592 0.51684654 -1.6326314
0.7623494 -0.27172652 0.20303677 -0.60460943 0.99823564 -2.0525012 0.11899965 -0.6172392
-0.7201915 0.99101865 0.564193 -0.555498 -3.4039435 0.5437603 0.6309284 -0.58155286
-0.55937016 1.0743508 0.17356254 -0.9441557 -3.2409852 -0.098778754 0.1063686 -0.90367436
-0.37882838 1.0016928 0.18652432 -1.2970504 -2.9919276 -0.8023166 0.22893506 -1.3632516
-0.088755876 -0.09431169 -0.009768545 -0.023209892 3.3333282 0.58075505 0.04972821 0.09708461
-0.08325171 0.28579736 -0.18576692 -0.7232387 3.2343261 -0.17300123 -0.13166814 -0.7852794
0.14570545 0.4319353 0.12890789 -0.26836273 3.049964 -0.82782847 0.19116735 -0.32200828
1.1804923 -1.7442132 0.4029538 -1.9010308 -1.1125562 -0.80393946 0.4201244 -1.902499
1.1602618 -1.6668506 0.11701938 -1.7038287 -0.96403843 -0.42432582 0.096598454 -1.7079214

fc1.bias f4 [256]
00000000: 7756 fdbe b2b5 03bf c20c aa3c 589a b8be
00000010: 40f2 c5be fbe0 f9be 0d8b 3cbf aee4 abbd
00000020: 04be 35bf b645 71bf 2611 f4be 353e c4be
00000030: 1080 fcbe 9644 4ebf 3235 1abf 4640 0cbf
00000040: 021e 3ebf 12b1 f7be 4b4d 6abf bb63 bbbd
00000050: f6ba 81bf dd13 72be b2b5 ca3f 89a8 1b3d
00000060: 18a5 33bf f73f 32bf 136b f1be 2966 97bf
00000070: ad0f 8dbf 5540 7f3e 0eef 2c3e ea45 fdbe
00000080: 2c7b 01bd 508b 1bbf 1d12 93bf 148d 1fbf
00000090: 9452 17bf 676c 263f ed48 36bf ea71 55bf
000000a0: a87d 33bf 08f7 9dbe f839 69bd 6a5a cbbc
000000b0: 873c 27bf f376 51bf d635 a0be f8f1 52bf
000000c0: adbb e2bd fcbf b0be fc61 0dbe e1a7 febe
000000d0: 32e6 0ebf e23f 81bf b7cb fcbe e765 74bb
000000e0: f476 59bf 0ed5 603e 56f0 cfbe f9d0 10bf
000000f0: c6f9 45bf 12d4 56bd cd5e 24bf 973d 6b3f
00000100: b6e3 07bf ace0 f73e b5c4 b73d ef86 3abd
00000110: d017 12bf ae42 59bf ff0d 0fbf 5281 72bf
00000120: a7b0 1abf 3261 843f ca4c d4be f56f babe
00000130: a43a ccbf 736f a8bf 2b00 43bf 9a8a 4ebf
00000140: 9e37 1ebf 24fe 2cbf 6d59 65be ee6e 523e
00000150: 36eb 44bf 558c 46bf 9f6d a5bf b00e 04bf
00000160: 37ce 47bf bcd2 52bf 2043 3dbf af6b f5bd
00000170: 07cd 06be 2667 32be ecf6 0bbf 43a7 1fbf
00000180: c630 58bf 3ee2 c1be c340 563f 390a 37be
00000190: 7093 5cbf adb3 e6bd 6fa1 88be c197 03bf
000001a0: 735c 30bf e335 11bf bd42 32bf abec 6ebf
000001b0: e119 d73e b6cf a3be db27 283d 0274 1f40
000001c0: a38f 51bf d20d 03bf d337 54bf 3002 a0be
000001d0: 7475 8dbf f64c 1dbf 5032 cebd 96d0 63bf
000001e0: ac85 3fbf 43e5 75bf dbeb c43d 2db2 edbe
000001f0: f727 2ebf e66e 40bf 0a24 cc3f 89aa 53bf
00000200: 4469 f3be 843b f3be 81b4 93bf 6ab0 f3be
00000210: 2ea4 6fbf 1671 8cbf 5466 9dbf 2489 52bf
00000220: c195 053f 8e6e 5ebf 7e6a 77bf a3cb 8bbd
00000230: 8016 97bf 0fc1 56bf 135f 7dbf eb24 6a3e
00000240: c285 12bf c016 263e ffed 8ebe 3202 d3be
00000250: acb1 dfbe d959 65bf 5627 92bf 2410 93bf
00000260: fbc4 59bf 41e2 3abf 07a4 08bf 1faa 72bf
00000270: ff45 57bf 7496 32bf 09ba 4ebf 2ed7 36bf
00000280: 3a6f 99bf 4557 c4be 0635 8cbf 0e00 c9bd
00000290: 05b7 04bf 89b8 32bf 7b37 84bf 4341 3dbe
000002a0: 349d bdbe 00ee 58bf 35ff 50bd 9adf aabf
000002b0: 5164 8abf 5ea0 82bf 2529 11be 5cbc bfbe
000002c0: 4a00 22bf ac26 8bbf eea6 efbe 1a16 b6be
000002d0: d35a 74bf 50e1 34bf d898 0ebf bd72 a6bf
000002e0: a23e 3abf ce6f 2ebf c827 4bbf 122f c93d
000002f0: 2313 28bf 5a9d ad3c 269d 963f 9b65 20bf
00000300: cd8e 64bf d0db 91bf 4e06 28bf 0d69 8bbf
00000310: 052a 8bbf 5dd7 27bf 2917 efbd 4367 31bf
00000320: aaff 8cbe 3ee4 43be 0979 bfbe 103f 993f
00000330: f9d7 64bf 4fea 0fbe 0d92 a3be 415a ed3e
00000340: c4c3 3bbf 8e86 26be 4e9f 85bf 2dcb dd3e
00000350: 9d22 4dbe 27bd 2fbf ffeb 6abf 9ede 51bf
00000360: d2f5 2dbf 0e9a 5ebf a6fd 95bf 5ff0 8cbf
00000370: dbd6 8bbe be94 7bbe c375 07bf 25f6 553e
00000380: 1f22 3cbf c9ba 29bf 41fb 9abe 19b6 9c3f
00000390: 0837 4dbf 0516 a6be 9a16 21bf 06a3 37bf
000003a0: 35d6 0ebf f78d f6be 285b c8be e9c8 9bbf
000003b0: 6cce fbbd b147 c4be 6ff4 a0bc 0dbf f83e
000003c0: af08 acbe 8e39 ecbe 66f0 eabe 3a76 09bf
000003d0: 4088 9dbf a3dd e9be 2a49 9ebf bf0e 7dbf
000003e0: f513 3cbf 9a2e 8b3e 1d58 48bf 85b7 6cbf
000003f0: 9906 96bf c997 71bf 25ee 98bd 2891 88bf
-0.4948003 -0.5144912 0.020758037 -0.36055255 -0.38661385 -0.4880446 -0.73649675 -0.083932266
-0.70993066 -0.94246995 -0.47669333 -0.3832871 -0.49316454 -0.80573404 -0.6023742 -0.54785573
-0.7426454 -0.4837728 -0.9152419 -0.091498815 -1.0135181 -0.2364039 1.5836699 0.038002525
-0.7017379 -0.6962885 -0.47152004 -1.1828052 -1.1020409 0.24926884 0.16888067 -0.49467403
-0.031611606 -0.6075945 -1.1489903 -0.62324643 -0.5911038 0.6500916 -0.71205026 -0.83376944
-0.7011361 -0.30852532 -0.05694005 -0.024823386 -0.6532673 -0.8182213 -0.31291074 -0.82400465
-0.110709526 -0.34521472 -0.1380691 -0.49737456 -0.5582 -1.009762 -0.49374172 -0.0037292184
-0.84947133 0.21956274 -0.4061305 -0.56568867 -0.7733425 -0.05244834 -0.64207155 0.91890854
-0.53081834 0.484136 0.08973066 -0.04553884 -0.57067585 -0.8486737 -0.5588073 -0.9472858
-0.604258 1.0342162 -0.41464835 -0.3641354 -1.5955396 -1.3159012 -0.7617213 -0.8068024
-0.61803615 -0.6757529 -0.22397394 0.20550129 -0.76921403 -0.7755788 -1.2924079 -0.5158491
-0.78049034 -0.82352805 -0.7393055 -0.1198343 -0.13164149 -0.1742216 -0.5467365 -0.62364596
-0.8444942 -0.37867922 0.8369257 -0.17874993 -0.8616247 -0.11264739 -0.26685664 -0.51403433
-0.68891066 -0.5672285 -0.69633085 -0.93329877 0.42011932 -0.31994408 0.041053634 2.4914556
-0.818598 -0.51192963 -0.8289768 -0.3125167 -1.1051469 -0.6144556 -0.1006819 -0.8899015
-0.7481334 -0.9605295 0.09615298 -0.46425 -0.6802973 -0.7516922 1.5948498 -0.8268209
-0.4754125 -0.47506344 -1.153946 -0.4759553 -0.93609893 -1.0972011 -1.2296853 -0.8224051
0.5218163 -0.86887443 -0.9664687 -0.0682595 -1.1803741 -0.83888334 -0.98973197 0.22865646
-0.5723535 0.16219616 -0.27915952 -0.41212612 -0.4369024 -0.8959022 -1.1418254 -1.1489301
-0.85066193 -0.73001486 -0.53375286 -0.94790834 -0.8409118 -0.69760823 -0.8075262 -0.7142209
-1.1987069 -0.3834783 -1.0953681 -0.098144636 -0.51841766 -0.6981283 -1.0329431 -0.18481927
-0.37034 -0.8473816 -0.051024634 -1.3349488 -1.0811864 -1.020519 -0.14175852 -0.37448394
-0.6328169 -1.0871177 -0.46807045 -0.35563737 -0.95451087 -0.706563 -0.5570197 -1.3003765
-0.7275182 -0.6813935 -0.79357576 0.09823431 -0.656542 0.021193195 1.1766708 -0.6265504
-0.89280397 -1.1395206 -0.6563462 -1.0891434 -1.0872198 -0.65562993 -0.11674339 -0.6929819
-0.27538806 -0.19130036 -0.3739703 1.197237 -0.8939205 -0.14054225 -0.31947365 0.4635792
-0.7334559 -0.16262266 -1.0439241 0.43319073 -0.20032735 -0.68648 -0.9176635 -0.8198031
-0.6795322 -0.8695382 -1.1718032 -1.1010855 -0.2731236 -0.2456846 -0.52914065 0.20894678
-0.73489565 -0.66300637 -0.30269817 1.2243072 -0.80162096 -0.32438675 -0.6292511 -0.7173313
-0.55795604 -0.48155186 -0.39132047 -1.2170688 -0.12295231 -0.38335946 -0.019647805 0.4858326
-0.33600375 -0.4613766 -0.45886534 -0.53696024 -1.2307205 -0.45676908 -1.2366078 -0.98850626
-0.7346795 0.27183992 -0.7825945 -0.9246753 -1.1720763 -0.9437223 -0.074672975 -1.0669298

fc2.weight f4 [128, 256]
00000000: f587 d7be 7b6b 47be 657e 0dbf bfb8 4ebe
00000010: 1bdf 823e b938 a4be 91ff 00bf 0c10 e3bd
00000020: cbd2 17bd 6cd8 1dbf 0966 c9be 82b9 1e3d
00000030: 6ddc d7bd 4db8 d0be ea7c 64be 8dbb dabe
00000040: 0c90 0cbe 656f 9a3c 1512 58bf 467a 823e
00000050: 1711 2bbe ddc3 aabe 41c3 e1be e563 37be
00000060: 9227 23bf 0b46 59bf 75df 27be 1089 f9bc
00000070: e1b2 53be a80d 473e 8d24 bdbe fa3b b9be
00000080: 0e6c 9b3e b01a d8bd 7246 a7be 2428 1abf
00000090: 42b1 483e 4841 0bbe 50ca 3b3e 5e66 61be
000000a0: 44d1 afbe 1154 3f3e 560a 4ebe f6f4 cfbe
000000b0: d49e 02bf 5991 4a3e 910c f4bd 2762 d3be
000000c0: 2fa0 53be 20ee dbbe 5962 8ebe 7d23 9cbe
000000d0: 23cf 1a3e 601b 29bf f582 b63e 9bab c5be
000000e0: 1d37 72bf 7bae f2bc 69fc 52bf eb1d 03bf
000000f0: 8a45 10bf 0086 31be 7fe7 b8be 2fae dabe
00000100: f179 77bd fe56 1ebd 214a 55bf 9d38 27be
00000110: 76cf c4bd ad72 5d3d 68ef e03e 0e17 e83c
00000120: ecc5 0e3e 5ec9 63be 63b1 c6bd 4954 cc3e
00000130: a5cf 42bf 5fc6 bcbd d2e3 e7bd 7724 81be
00000140: 6bec 913e dada 78be ccfb a9bf 2b93 46be
00000150: d8c0 fbbd 3bd1 cbbd d3eb aabe 70ce b6be
00000160: 4293 8e3e 63a2 60be 4cce 36be 5167 06bf
00000170: d52b 5ebe 0a85 e7bd 330f 8f3e fe95 64be
00000180: 3cd3 7cbe 18df a73e c95b 09bf d346 1f3e
00000190: cd17 afbd 8ff1 a5be 30ec 45bf e1d7 4ebf
000001a0: 303f dcbe 8ed8 3e3e 7db4 6ebe 894d 34be
000001b0: 7a6a 0e3e 45f2 a6be a6e5 16bf 2d4e 1fbf
000001c0: e58b 54bf d85c 0abf 54e2 1dbe 5130 e13e
000001d0: 733a 14be fda6 b2be cc41 d0be dbf1 59bf
000001e0: 9584 d2bd ec45 bbbe c2fd 90be 058a 90be
000001f0: f9b9 65be 122d 25be bd88 c43e 4836 d8be
00000200: 034b cb3c a96e 7c3e 8671 2bbb 75d2 d1bd
00000210: a703 54bf 2e3e 36bf 18d6 24be 206b cfbe
00000220: c214 e0bd 9929 35be 5583 e03c 8044 bdbe
00000230: 5197 a7bd c8a8 503d 7f84 1dbf 3572 82bf
00000240: 03bf 67bf 1259 51be adbd f1bc 6ea4 453e
00000250: 2600 dabd dde1 10bf 8d59 aabe 9e6c 94bd
00000260: 633a 323e 29e7 23bf 3e1e 12bf ecdd 6abf
00000270: f411 dabe c325 20bf 57be 32bf 7b5d d7be
00000280: b20a 0dbf 625b cdbe 2c19 94bc b975 91bf
00000290: 366d 4cbf 0703 37bf ed19 86bf 2932 413f
000002a0: 9e8f 453e 02fe b23e 1950 07bf 03c9 58be
000002b0: f77c 45bf 63aa 7bbd 52a1 063f 45db 90be
000002c0: 6d9b dabe 892f 87be f3b6 bdbc 8038 7bbf
000002d0: 53fb 0c3f 8eb1 0abe 881f 14be 29bb 74be
000002e0: 1427 0c3f 2aef 84be 34dd a83e e172 243f
000002f0: 36fe 07bf d729 91be 9c8d 94bd 8e63 08bf
00000300: 52b3 a3bd 9c0c 0b3e 4027 84be 583c 42be
00000310: 390f 8dbd 79cb 33bf d76c b4be 0a36 93be
00000320: fe57 bf3e 4285 22be d628 d03e f407 f13d
00000330: 6c44 4fbf d3bd 09bf 0a75 93bd 3779 2fbe
00000340: 4236 0cbf 8625 2fbe 07fc 6bbe aa01 d7bc
00000350: 3b4e 96bd 0e48 d4bd a054 4fbd cc73 283e
00000360: 54a3 61be e23c 58be 4da6 9fbe fd4e 87bd
00000370: a5b5 02bf 8a85 58be 3602 0ebf a60f d93d
00000380: 523c 30be ab93 b43e 6382 aebe 2476 05bd
00000390: 8aaf da3e bc86 91bd d7bb b93e b399 a93e
000003a0: c601 7fbe 51ba 893d 3ed3 0bbe 556d e9be
000003b0: 87d4 1dbf 924f 113e 4deb da3e 8c5d 0ebf
000003c0: 86b7 39be 7b5d 9bbe d778 d2be 635a 0dbf
000003d0: 8432 ba3d a2e9 f8bd e412 81be f367 a6be
000003e0: 4a0a 85bd fc77 6dbf a594 3fbe 8240 24bf
000003f0: c785 48be c804 24bf ae38 9fbe 4c2a 60bd
-0.42095914 -0.19474594 -0.5527099 -0.20187663 0.2556084 -0.32074526 -0.50389963 -0.11087045
-0.037066262 -0.6165836 -0.3933566 0.038751133 -0.1054009 -0.4076561 -0.22313276 -0.42721215
-0.13726825 0.018851945 -0.8440259 0.25483912 -0.16705738 -0.33352557 -0.4409428 -0.179092
-0.63732255 -0.848725 -0.16393836 -0.030460864 -0.20673706 0.19438803 -0.3694195 -0.3617857
0.30355877 -0.10551965 -0.32670933 -0.602175 0.19598868 -0.13599122 0.18338895 -0.22011706
-0.34339345 0.18684413 -0.2012113 -0.40616578 -0.510236 0.19782008 -0.11916459 -0.41285822
-0.20666574 -0.42955112 -0.27809408 -0.30495825 0.15118079 -0.66057396 0.35646787 -0.38607487
-0.94615346 -0.029624214 -0.824164 -0.51217526 -0.5635611 -0.17336273 -0.36114118 -0.42711017
-0.060419027 -0.03865718 -0.83316237 -0.1633019 -0.096098825 0.05406444 0.43932652 0.028331306
0.13942689 -0.22244784 -0.097018026 0.39908054 -0.7609809 -0.09217524 -0.1132275 -0.25223133
0.28500685 -0.24302235 -1.3279967 -0.19392078 -0.122926414 -0.09952017 -0.33383045 -0.35704374
0.27846724 -0.21936946 -0.17852134 -0.525014 -0.21696408 -0.11304672 0.27941284 -0.22322842
-0.24689955 0.32787395 -0.5365568 0.15554361 -0.085494615 -0.32410857 -0.7731352 -0.80798155
-0.43016958 0.18637297 -0.23311038 -0.17607702 0.13907805 -0.32606712 -0.58944166 -0.6222866
-0.8302596 -0.5404792 -0.15418369 0.43982175 -0.14475422 -0.34893027 -0.406752 -0.8513467
-0.10279194 -0.36576784 -0.28318602 -0.282303 -0.22434224 -0.16130474 0.38385573 -0.42228913
0.024816042 0.24651588 -0.0026160195 -0.102452196 -0.82818073 -0.7118863 -0.16097295 -0.40511417
-0.10941459 -0.1769165 0.027406374 -0.36966324 -0.08183158 0.050942212 -0.615303 -1.0191103
-0.90525836 -0.20444134 -0.02950939 0.19301006 -0.106445596 -0.5659464 -0.33271447 -0.072472796
0.17405085 -0.640246 -0.57077396 -0.91744876 -0.42591822 -0.6255762 -0.69821686 -0.42063507
-0.55094445 -0.40108782 -0.01807841 -1.1364051 -0.7985414 -0.71488994 -1.0476662 0.75467163
0.19293067 0.34959418 -0.52856594 -0.2117043 -0.77143806 -0.06144179 0.52589905 -0.2829229
-0.42696705 -0.26403454 -0.023158526 -0.9813309 0.5507099 -0.13544294 -0.14465153 -0.23899521
0.5474713 -0.25963718 0.32981265 0.6423779 -0.5312227 -0.28352234 -0.07253572 -0.5327691
-0.07993187 0.13579029 -0.25811195 -0.18968332 -0.06887669 -0.7023235 -0.35239288 -0.28752166
0.3737182 -0.15871146 0.40656155 0.11769095 -0.8096378 -0.53805274 -0.07200058 -0.17136084
-0.5477029 -0.17104158 -0.2304536 -0.02624591 -0.0733914 -0.10365306 -0.050617814 0.16450423
-0.22034961 -0.21116975 -0.31181565 -0.06606863 -0.5105842 -0.21144691 -0.55472124 0.10598688
-0.1721051 0.35268912 -0.34083852 -0.03258337 0.4271205 -0.07105777 0.36276123 0.33125076
-0.2490302 0.0672499 -0.13654801 -0.45591226 -0.61652416 0.1419051 0.42757645 -0.5561149
-0.18136415 -0.30344757 -0.41107818 -0.55216044 0.09091666 -0.12153937 -0.25209725 -0.32501182
-0.06496103 -0.92761207 -0.18709047 -0.6416093 -0.19582282 -0.64069796 -0.3109793 -0.054727837

fc2.bias f4 [128]
00000000: 770b f8be 4dd2 9dbe cb32 fbbe 7ecf 82bf
00000010: 448b 5ebf edde 13bf af96 243f 0421 553d
00000020: 2ae1 e3bf e2bf aebe 4914 f7bd 0d67 0bbe
00000030: 41f1 923e 0e46 e5bd 1673 c8bc cfe5 e73e
00000040: cb81 edbe 9ac6 a2bf 4ac1 84bf d1f8 55bf
00000050: 031a 95be b60d 6cbe 13ac 7fbd 9877 5cbe
00000060: c39e 04bf a4eb 19c0 132a 11bf 51b2 08bf
00000070: 9812 03bf 9f47 88be 73c0 3cbf c032 d2be
00000080: 20a0 d8be 704e aabe e08a 96bf cdd8 1bbf
00000090: 8876 b83d 7fe0 0bbf 5163 3dbf c468 7cbf
000000a0: 93f5 cbbe eaa6 53bf 3bf8 89bf 343d 183e
000000b0: 2695 cfbe 169e 28be a460 7abf f260 2dbe
000000c0: 5904 1fbf 9051 43be 8eae 853f 0584 24be
000000d0: ced1 3cbe 835f eabe d205 9cbf c381 3cbf
000000e0: 87e0 91bf 7185 efbc 3523 19bf bdab 9bbf
000000f0: 8fe7 80be e812 32be 734f bbbf 8731 38bf
00000100: 0687 d1bd 62a9 bcbf d541 b8be 52a9 69be
00000110: 3817 39bf 3095 a3bf fc6d 38bf b682 883e
00000120: 0f3a 04bf 9e04 9bbf cca1 81bf a923 12c0
00000130: dda4 9fbd d2fb 4e3f d732 6fbf 7ed3 d8bf
00000140: a41f 4ebf 5d34 0bbf a08b bcbe 57d9 1abe
00000150: 82d5 85be d573 a3bf 8aba e9bd 0c86 4fbe
00000160: b9e2 1fc0 d224 0dbf 4a92 7bbf d91f 56bd
00000170: 5175 763e 3a47 28bf 0ba4 debe 2e2d 40bf
00000180: f45e 9abf 864a c4be afd5 b5bf d0e4 42bc
00000190: 4e90 5ebe 1537 99be b258 59bf 43b0 883f
000001a0: 297f febe 273f 02bf 6262 d3be ea8e 72bf
000001b0: 4f65 9bbe d8ac cabf 1708 673d ee4b 5f3e
000001c0: 8d95 dc3e 23f4 4cbf 2615 4bbe b659 1ac0
000001d0: d65a c9be f576 47be 043c bfbd e93c 8d3a
000001e0: 34cc acbf 7d55 94bf 65a5 70bf 746b fd3d
000001f0: cedf e8bf e312 953d 33c1 0ebf fb67 64bf
-0.48446247 -0.3082451 -0.4906219 -1.0219572 -0.8693125 -0.5776203 0.64292425 0.05203344
-1.780309 -0.3413077 -0.12064416 -0.1361353 0.28699687 -0.111950025 -0.02446894 0.45292518
-0.46388087 -1.2716858 -1.0371487 -0.8358279 -0.29121408 -0.23052105 -0.062419962 -0.21529996
-0.5180475 -2.4050074 -0.56704825 -0.5339709 -0.51200247 -0.26617143 -0.73731154 -0.41054344
-0.42309666 -0.33262968 -1.1761131 -0.60877687 0.09006983 -0.5463943 -0.7397967 -0.9859736
-0.39835796 -0.82676566 -1.0778879 0.14867097 -0.4054348 -0.16466555 -0.9780371 -0.16931513
-0.6211601 -0.19074082 1.0443895 -0.16065986 -0.18439409 -0.45775995 -1.2189276 -0.736355
-1.1396645 -0.029238435 -0.59819347 -1.2161785 -0.25176665 -0.17390025 -1.4633621 -0.7195057
-0.10230832 -1.4739192 -0.35987726 -0.22818497 -0.72301054 -1.2779903 -0.7204282 0.26662225
-0.5165109 -1.2110784 -1.0127501 -2.2834265 -0.07795117 0.80853 -0.9343695 -1.6939542
-0.8051703 -0.54376775 -0.36825275 -0.15121971 -0.26139456 -1.2769724 -0.11412533 -0.20265979
-2.498213 -0.5513431 -0.98270094 -0.052276466 0.2406819 -0.65733683 -0.4348453 -0.7506894
-1.2060227 -0.38338107 -1.4205836 -0.011895373 -0.21734735 -0.29924837 -0.84900963 1.0678791
-0.4970639 -0.5087761 -0.41285998 -0.9474932 -0.3035073 -1.5833998 0.0564042 0.21806309
0.43082848 -0.80060023 -0.19832286 -2.4117255 -0.39327115 -0.19478972 -0.09337619 0.0010775599
-1.3499818 -1.1588589 -0.9400237 0.12374011 -1.81933 0.07278993 -0.5576355 -0.8922116

fc3.weight f4 [2, 128]
00000000: a6fc dc3e 56b7 9a3e a881 10be 7f2c 4b3c
00000010: ed57 e5bd 7550 473e 9fc2 fabd 1a6f b23e
00000020: 39a2 51bf 97c7 06bf 4b2a ab3c 380b 973e
00000030: f1e7 893e 9bf7 833d abee dbbe 5b80 da3f
00000040: 4640 cd3d c1f6 aabf 7796 6cbe e3f4 15bf
00000050: d29f 823e 9479 223e a16d ec3e c5cd b7be
00000060: 7622 dd3e 046c 65bf 85fe c6be 2a51 16be
00000070: 6230 373d ed21 113e 6c26 0c3e 737d 16bf
00000080: ab6e 21bf c99e d83e 9ce2 493d 7ed1 cfbe
00000090: 8b7c 9a3e 8fe2 093c 010e 1c3f 950f d73e
000000a0: 45cc 0d3f 6bc0 583f d8e6 8bbe 28ab cdbc
000000b0: 63b1 86bf 6631 4cbd 6f6e 6ebf 65e4 11bd
000000c0: 8468 19bf 82f3 c73d 66ba 1c40 4d0a 053f
000000d0: c61d 02bd 481d d13c fe31 99be 1055 d33d
000000e0: ae56 02bd 7bab 8b3b 1b35 b7bd cafd 75be
000000f0: 020a cd3a cf31 b43e c8bf 2ebe cf73 483e
00000100: baf7 503c 8589 a8be 6e2a f1bd cab1 f5be
00000110: 9a95 41be 70c7 30be 779a 593f 19cf f93e
00000120: b8b4 97be 3fff 733f b051 02bf 2e4b 95be
00000130: d6cf 183f ef92 2a3f d2c9 60be 68c9 2bbf
00000140: e579 dcbe 35fb a1be c96c 053e a3ac 21bf
00000150: a39e 713a 0098 25bd 09ab bebc 89ac 39bf
00000160: fddf 57be 3777 dc3e 6afd 84be 259b 053f
00000170: b441 fc3f 57cf c73e 3e40 bf3e def3 e9be
00000180: 7d93 b6be 936f 8c3e 9aaa d6be 107a f0bd
00000190: 3d2e c83e e277 583f eff1 dc3e 7ff4 123e
000001a0: 48dd d0be ccdf 75bf d985 c53d 052c 96be
000001b0: 6914 013c 2f72 21bf bf11 9a3e 1a05 f23d
000001c0: 9d45 993f 57e6 2cbf 6c0d 79bf e4b1 70bf
000001d0: 4b49 a93d 5046 8b3c c765 0fbf 7697 d2be
000001e0: f428 1ebe 656c 86be c4ad 4e3e 74aa c9be
000001f0: 8f0c 10be 9d2c de3e bb2c 96be f253 30bf
00000200: 9890 093e be2f 5abc 9f93 383f b790 223f
00000210: 49f1 323f 5d68 953c 2c7b a13f 8f43 a5bd
00000220: b6c1 6d3f fc37 983e d052 44ba e56e 823d
00000230: ae61 9ebe b58c 9ebd 50e4 473e b526 0f3f
00000240: 3f5a 34be f63d 223f 88ee 6d3f 5d0b 1e3f
00000250: 1844 1b3f f041 91bb 4721 44be c6b1 1cbf
00000260: 650d d03e eb0b ac3f e178 c33c 0964 923d
00000270: 3f84 3e3f 12ca 9d3d f50a 90be 1064 21bf
00000280: de5d 0340 6c1e 033f 577a 5e3e e38e 29bf
00000290: 0418 f5be 3906 063f 54d4 8abd 213d 693f
000002a0: 6756 6d3f dbeb cc3f 7f13 583f 07a9 dbbf
000002b0: 8174 c93f 36ca 623c 1b1f 9e3e 3352 87bc
000002c0: e00a 943f fc49 26bf 7645 40bf 2a3a e9bd
000002d0: 40a9 893c 4f7c 12bf 34c1 e03f 4dec 3abe
000002e0: 17a4 babe af62 34bc ca01 10bf 73fb 7d3e
000002f0: dcf5 85bf c395 8cbc a773 993e 1d45 bfbd
00000300: e12d b03c 684f 973f fcd1 05bf 7c6b 3b3e
00000310: a70e a6be 0700 a43f e072 d43e a75c 673f
00000320: 2def da3f 5528 e53f 3c89 cc3f ab48 f23e
00000330: 772a e13e 12f6 89bd bf4d 963f af86 b23f
00000340: 7087 5f3e fff7 863d c8fb 3e3e f106 a03f
00000350: 1d95 08bf 1452 bcbe a4d5 183c 3c4d 5bbe
00000360: 6eb9 843f fe96 c93d b9a6 b4be 36e5 473e
00000370: 822d 6c3f 9093 a03e 68ea 04bf ebb5 03bf
00000380: 3a78 a2bd c4fb 4abf e542 ac3e 6056 d13d
00000390: b5c0 2d3f 3bee 833f 41c0 473c e2cf 6d3f
000003a0: a61c 863e e39f 953f bee3 b03f cc6a 2f3f
000003b0: d29c 98be 4890 933f dd41 2ebf 288c 9ebf
000003c0: 5a89 3cbe c81e 3d3f 755d 5fbe 12d1 a63f
000003d0: e257 c83e 6738 443d ac32 123c 46ed 48bf
000003e0: 16ae e63e 0b1f fb3e 2172 1340 06fa a4be
000003f0: 3a32 943f a686 5fbe dd91 d73f 4b8a 3e3f
0.43161505 0.30218 -0.1411196 0.012400745 -0.11198411 0.19464286 -0.12244152 0.3485039
-0.8188816 -0.526483 0.02089419 0.29500747 0.2693477 0.06443711 -0.42955527 1.7070421
0.10022025 -1.3356553 -0.23104273 -0.5857679 0.25512558 0.15866691 0.4617739 -0.35899177
0.43190354 -0.89617944 -0.38866058 -0.14679399 0.044723876 0.14173098 0.13686532 -0.5878517
-0.6305949 0.42308643 0.049288377 -0.40589517 0.30173144 0.008415832 0.6095887 0.42004076
0.55389816 0.84668607 -0.27324557 -0.025106028 -1.0522884 -0.049851798 -0.9313726 -0.035618205
-0.59925103 0.09763242 2.4488769 0.5196884 -0.031766675 0.025526658 -0.29920954 0.10318959
-0.031820945 0.0042623854 -0.08945676 -0.24022594 0.0015643241 0.3519425 -0.17065346 0.19575427
0.012754375 -0.3291742 -0.11775671 -0.47987205 -0.18904725 -0.1726358 0.8500132 0.48790815
-0.29630065 0.9531135 -0.50905895 -0.2915892 0.5969213 0.6663045 -0.21951988 -0.67104197
-0.43061748 -0.31636968 0.1302978 -0.6315405 0.0009217059 -0.04042816 -0.023274915 -0.7252889
-0.21081538 0.43059704 -0.2597459 0.52189857 1.9707551 0.39025375 0.373537 -0.45693868
-0.356594 0.27428874 -0.41927034 -0.117420316 0.39097777 0.84557927 0.4315333 0.1435108
-0.40793824 -0.9604461 0.0964467 -0.2933046 0.007878401 -0.63064855 0.30091664 0.11817379
1.1974369 -0.6753897 -0.97286105 -0.9402144 0.08265933 0.017001301 -0.56014675 -0.4113118
-0.1544531 -0.26254573 0.20183474 -0.39387858 -0.1406729 0.43393412 -0.29331002 -0.6887809
0.13434064 -0.013317047 0.7210025 0.6350207 0.6989942 0.01823824 1.2615714 -0.080695264
0.92873704 0.29730213 -0.00074891467 0.06368808 -0.309339 -0.077416815 0.19520688 0.5591844
-0.17612551 0.63375795 0.92942095 0.6173609 0.6065078 -0.004432909 -0.1915332 -0.6120876
0.4063522 1.3441137 0.02386135 0.071479864 0.7442054 0.077045575 -0.2813336 -0.6304331
2.0526042 0.51218295 0.21726356 -0.6623365 -0.47869885 0.52353245 -0.067787796 0.911089
0.92709965 1.6009477 0.8440475 -1.7160958 1.5738679 0.013842156 0.30883107 -0.016518688
1.1565819 -0.6495664 -0.7510599 -0.11388047 0.016804338 -0.5722093 1.7558961 -0.18254204
-0.36453316 -0.011009856 -0.5625273 0.24802952 -1.0465655 -0.017161256 0.29971048 -0.09339354
0.021506252 1.1821108 -0.52273536 0.18302721 -0.32433054 1.2812508 0.41493893 0.9037575
1.7104241 1.7902933 1.5979381 0.47321066 0.4397771 -0.06736387 1.1742476 1.3947352
0.21829009 0.0659027 0.18650734 1.2502118 -0.5335253 -0.3678137 0.00932828 -0.21416181
1.0369089 0.098432526 -0.3528345 0.19521031 0.9225694 0.3136258 -0.51920176 -0.5144946
-0.07933088 -0.79290414 0.33644786 0.10221553 0.6787217 1.0307077 0.012191833 0.9289533
0.26193732 1.1689419 1.3819501 0.68522334 -0.29807144 1.1528406 -0.6806925 -1.2386522
-0.1841177 0.73875093 -0.21812995 1.3032553 0.3912955 0.047905352 0.008923214 -0.7848705
0.45054692 0.4904712 2.3038409 -0.32222003 1.1577828 -0.21828708 1.6841389 0.7442977

fc3.bias f4 [2]
00000000: d6fa 133f 7633 5240
0.5780462 3.284391
