p3_collab-compet/models/best_actor_0.pth (torch_old, 183722 bytes, 6 tensors)

fc1.weight f4 [256, 48]
00000000: 3c1e 913f 3b6a c8be d3e1 2ebd 38d0 a3bf
00000010: bb5d 4f3e cc5a 90bf b12b 1abd 68fc 9cbf
00000020: f679 653f 463c 0cbf ec51 f7be dd4b c43d
00000030: 174f 37bd c58f 88bf 0aab d7be 730e 3f3e
00000040: 853a a53f a228 1abf 29ca c83d 40b9 743e
00000050: 6168 b6bd 4529 79bf b4e0 0b3e 2741 9e3e
00000060: 661c 6f3f 5e13 803f 1e5b 9ebe 99cd 143f
00000070: 91bd 51be 1c20 97bf 4ca3 5bbe d736 163f
00000080: fcb4 8c3f 015f 633f 9bad 91be cbb8 8dbd
00000090: bd3e cb3c 1757 88bf 537f a2be 218b b5bc
000000a0: 7463 853f 472b 193f b661 ddbe efe1 f3be
000000b0: cb2e c93d 7ee1 77bf 647f c5be 035d e3be
000000c0: 0b4c 373e 8991 ca3e 1674 17bf 30c0 03c0
000000d0: cf04 533f 2f2f 8abe 6703 0fbf 7638 02c0
000000e0: 267c 183f b501 243f 1378 54be 80cf 46bc
000000f0: d5fa 403f e203 14be 9645 f2bd 3237 db3c
00000100: c484 373f 1f4a 723f 86a3 77be fdb6 9d3f
00000110: 61f5 453f 32bd 903e cb2f 83be 1dfa 973f
00000120: 559a 2c3f a384 da3f 9571 123d 4a6c 58bf
00000130: 6f2a 5fbf e5ee 8cbe 5993 023d 9e18 65bf
00000140: 602b 953f 8671 ec3f 7cbe 2b3e 0f2c d2be
00000150: 8148 42bf ee63 81be b037 103e 13bd f3be
00000160: 2707 a13f 5f82 b73f 8ff7 673e 0b77 64bf
00000170: 3364 60bf d26a 9d3e 7179 1f3e 7348 5abf
00000180: 608a 383f 324b 7b3e 6bff 27bd 86d1 a0bf
00000190: 095a 91be da25 b6bf 25ef 8cbd 48f0 94bf
000001a0: 5041 1a3f fb54 5d3e cf19 3a3e c2d1 93be
000001b0: 060c 0dbe 15e9 e7bf d2a4 1a3e cdd5 bdbe
000001c0: db4e ee3e 26bb 203f f9d7 043e 0134 1dbf
000001d0: 5a94 0abc cab3 0ec0 9589 e93d f568 19bf
000001e0: d8be b13f 6994 603f 6c4a 15be 3502 5fbe
000001f0: 8a45 7e3e 763b b6bf 44fd 9ebd 73fe 76be
00000200: 0ba4 d63f 7562 573f f5ef a73d ee1f 5ebe
00000210: 04cc bc3d 1fc1 e5bf 6939 133e 4272 a1be
00000220: 5100 da3f ae40 1f3f 83fb 873e 88ad 91be
00000230: d305 ecbb c0e0 10c0 568e be3e acee a1be
00000240: 2685 0abf 0e92 3ec0 727a 8ebd 3ae2 0e3d
00000250: 562b 24bf b669 ad3f d8c7 b2bc bb28 fcbc
00000260: db50 e2be dd02 19c0 4b33 fbbd d2c6 8d3f
00000270: 99ab c73d 9ccf a13f ff93 14be 8cae 903f
00000280: 0bc5 debe ffff e9bf 55a5 9a3c 18e5 2940
00000290: 1ae1 a43f dce0 ce3f f60a 9abd be3c 2b40
000002a0: c532 4ebf 0621 dcbf 79ce 293e eca2 54bf
000002b0: 7afc 0a3f 5492 a83f 73f1 453e 1a54 55bf
000002c0: 24d7 25bf 250a 6abf 0ccc aabe 5239 a73e
000002d0: b440 89bd 981c 9c3f 7737 99be 60cb 853e
000002e0: e553 6abf f87a 39bf 9bd2 a8be 5477 a2be
000002f0: 7c4a 9dbf 3812 dd3f 74d9 d3be 2eee a8be
00000300: a67b cf3e 7d18 20be 5c19 5b3d 51a5 cf3c
00000310: 7fd8 ff3f 86d1 883f ae39 f63d cc57 38ba
00000320: 442d 4c3f 21a0 9e3e 6321 91bd cdbb b63e
00000330: 46e2 95bb 57d7 9e3f 905d 0dbe d574 cb3e
00000340: 17bb 903f 10c2 e8bd 8052 c7bd c2f4 8bbf
00000350: b4ae 15c0 e0b5 1340 eee8 60bd 026e 94bf
00000360: f5fb a1be 246d 4a40 71a6 f73c 74d1 ab3d
00000370: 8471 04c0 948d 8d3f 90c5 b73d 1d17 513e
00000380: cfbc 383e 2c73 3740 2bb8 cdbd 64f1 503e
00000390: 8402 09bb 0f57 953f 45d7 3dbd d06c 113e
000003a0: f531 763e 61c8 ee3f 012d 4f3d ca80 cebe
000003b0: 9c65 1940 0014 1240 0915 e73d 2cfa e9be
000003c0: deb2 c0bc 4c8a 2bc0 8fea 033e 4a7c 733f
000003d0: 873f 113f f4c0 1abe 637f 153e 061c 733f
000003e0: 7c9f 87be 025b 16c0 7c4c bdbd e3a0 da3f
000003f0: 49e5 cdbe 9352 10bf 641e e7bd af1a da3f
1.1337352 -0.39143547 -0.04269583 -1.2797918 0.20250599 -1.1277709 -0.037639324 -1.2264528
0.8963922 -0.5477947 -0.4830469 0.09584782 -0.04475316 -1.0668875 -0.4212268 0.18657856
1.2908484 -0.6021825 0.09804184 0.23898792 -0.089066274 -0.973286 0.13659936 0.30909082
0.9340271 1.000591 -0.30928892 0.5812622 -0.2048247 -1.1806674 -0.21449012 0.5867743
1.0992732 0.8881684 -0.28452763 -0.06920012 0.02481019 -1.0651578 -0.31737766 -0.022161068
1.0420976 0.5983166 -0.4323861 -0.4763331 0.09823378 -0.9682845 -0.38573754 -0.444069
0.17900102 0.3956416 -0.5916151 -2.0586052 0.8242921 -0.26989123 -0.55864567 -2.034696
0.59564435 0.64065105 -0.2074893 -0.012134433 0.7538274 -0.14454606 -0.11829679 0.026759718
0.7168696 0.9464435 -0.24183473 1.2321469 0.77327543 0.28269345 -0.256224 1.1873204
0.6742299 1.7071728 0.03575285 -0.84540236 -0.87174124 -0.27526012 0.031878803 -0.8949069
1.1653862 1.8472145 0.16771883 -0.4104924 -0.7589188 -0.25271553 0.14083743 -0.4760519
1.2580308 1.4336661 0.2265303 -0.89244145 -0.8765289 0.3074556 0.1557367 -0.852668
0.72086143 0.24540403 -0.04101507 -1.2563941 -0.28389004 -1.4230301 -0.06881551 -1.1635828
0.6025591 0.21614449 0.18173908 -0.2887097 -0.13774118 -1.8118006 0.15101936 -0.3707718
0.46544537 0.62785566 0.12973012 -0.61407477 -0.008458221 -2.2297235 0.11403195 -0.59925777
1.3886366 0.87726456 -0.14579171 -0.21778186 0.24831215 -1.4236896 -0.0776315 -0.24120502
1.6768812 0.8413461 0.08200065 -0.21691868 0.092186004 -1.7949561 0.14377369 -0.31532484
1.7031347 0.6220807 0.26559076 -0.28452706 -0.0072028427 -2.2637177 0.3721797 -0.31627405
-0.5410942 -2.9776645 -0.06956948 0.034883715 -0.64128625 1.3547885 -0.021823809 -0.03078114
-0.44202313 -2.3907998 -0.12265643 1.10763 0.097495265 1.2641482 -0.14509581 1.1303267
-0.43509707 -1.8281249 0.018877665 2.6546078 1.2881196 1.6162372 -0.07521622 2.6755824
-0.8054622 -1.7197578 0.1658267 -0.830611 0.542915 1.3169656 0.19330387 -0.83331454
-0.64781404 -0.9142173 -0.333588 0.3266092 -0.06701794 1.2196226 -0.2992513 0.26131725
-0.9153426 -0.7245326 -0.3297318 -0.31731665 -1.2288356 1.7271185 -0.4137684 -0.32994217
0.40524024 -0.15634342 0.05349098 0.025347384 1.9987944 1.0688941 0.1202272 -0.0007032126
0.7975657 0.30981544 -0.07086446 0.35690156 -0.004574093 1.2409467 -0.13805223 0.39737573
1.1307095 -0.113651395 -0.097325325 -1.0934069 -2.338788 2.3079758 -0.05490964 -1.1596072
-0.3163754 3.1629114 0.030230733 0.083895594 -2.0694284 1.1058831 0.08973229 0.20418973
0.18040775 2.8664045 -0.10044893 0.20404583 -0.002090604 1.1667193 -0.046347875 0.14201665
0.24042495 1.8654901 0.05058003 -0.40332633 2.3968267 2.2824707 0.11283309 -0.45698678
-0.02352279 -2.680316 0.12882446 0.95111525 0.5673756 -0.15112668 0.14599375 0.94964635
-0.26488864 -2.3493047 -0.09243104 1.7080349 -0.40213993 -0.56376 -0.112850934 1.7039393

fc1.bias f4 [256]
00000000: 1347 98bf 8dab adbf a703 19bf 8843 993e
00000010: 7374 88bf e124 9c3e 0c69 8ebf 33a8 bfbf
00000020: 1feb 4dbf 360c 35bf bb5e 5ebf 1a45 2bbf
00000030: 449b 88be 6d7f 9bbf e44e 73bf 6db3 40bf
00000040: ce5a c5bf 4e2b 7cbf 2ba0 3abf a536 9bbf
00000050: 3f35 e83e 1203 8dbf 9978 8ebf b6fe 84bf
00000060: 6e7a 6ebf 4bfc 0bbf 9f4a 94bf 1d1f 39bf
00000070: 7835 e3bf d948 47bf d8dd 65bf ba21 8abd
00000080: 324a 3a40 8655 bd3e 8603 84be 32f5 43bf
00000090: 6bb8 c7bf 1b69 103e 04a2 8dbf fcf8 8cbf
000000a0: 971d e7bf 331c 1b3f e79d a8bf 041a a9bf
000000b0: 9c3e aa3e b153 2fbf 95db a8bf ea26 afbf
000000c0: d51d e9be d279 45bf 3079 88bf 3e64 3dbf
000000d0: de2d 8cbf 5fec 0b3e 2259 3abf 87ee 75bf
000000e0: cc03 77bf e3f3 2abf ceab 51bf 5920 91bf
000000f0: 6838 be3f 7d29 5cbf a4c0 3ebf 4797 98be
00000100: bea2 a5bf 9832 f2be 5faa 85bf 0f84 5fbf
00000110: a8fe bbbf f2bb 6abc e310 55bf e115 8bbf
00000120: 80ef c0bf 5758 51be 8c43 99bf 3708 33bf
00000130: cd8b 60bf 865f 5ebf 42fb a540 11ab 6abf
00000140: da0d 82bf 02aa 5abf 387e 6fbf c042 8cbf
00000150: 8170 56bf 9c8f a6be c215 ecbf 926a 6cbf
00000160: 181a 27bf ca2e 21bf e6d3 1bbf 9019 743e
00000170: 520a f1be 3469 7dbf 3c3f 28bf 106f 76bf
00000180: 14c7 34bf 1dc2 45bf 229e 9bbf c2ab a2be
00000190: 34ca 07bf 2214 a7bf 5348 a63f 3c74 d93f
000001a0: 2e61 e0bf 5710 d03d c508 d1be f17c 7ebf
000001b0: 81e5 87bf 7669 93bf 8599 d4be 8272 1abf
000001c0: c8c7 32bf 8b2c 51bf 94b5 04bf b0db 49bf
000001d0: a089 5fbf a742 8f3f a87f 27bf a321 d9be
000001e0: 3bc1 d8be d6b8 9ebf cf65 b6bf 4ca3 94bf
000001f0: 4be0 93bf 0fe4 b2bf 1c94 c0bf 7a1e 75bf
00000200: 43e9 8ebf 3b3a 78bf a0ef b5bf b24c b7bf
00000210: cede bcbf c012 2abf 16df 4dbf 7fb4 21bf
00000220: 942c 113f c5a8 8bbf 3b28 60bf 0a32 9e3f
00000230: 5909 9ebe 3b26 7cbf 5589 9dbf 53cc b1bf
00000240: 9011 40bf a780 45bf 41a2 2abf 4063 96bf
00000250: 1350 0bbe 4b5f 0cbf 17fb 39bf 1280 d0bf
00000260: 450c dcbe e2e3 80bf 8087 5cbf 4b7b cbbf
00000270: eae4 86bf 5f48 8ebf 4fd1 abbf 4d1b 8cbf
00000280: a41d 83bf d35a e7be 90ee 54bf 81b4 a4bf
00000290: 5316 fbbe 9266 9bbf 7937 96bf 3275 89bf
000002a0: c005 3fbf 9969 37bf 6e8e 9dbf a48a 78bf
000002b0: d8b1 f83f c631 55bf 4fb6 39bf fefb 993f
000002c0: 876f 81bf f101 79bf 2415 87bf 6b75 b1bf
000002d0: b127 9dbf b50f 42bf 5830 82bf 8c15 5ebf
000002e0: 912c cfbe 287a 9dbf a07f 31bf f5f4 3d3d
000002f0: f485 c4bf d3ac 8a3e dbed 6640 63b9 a5bf
00000300: d353 88bf 3242 5abf d755 6dbf 211e 06bf
00000310: 45b3 83bf b586 89bf b2ae 68bf 6718 9abf
00000320: 9fc7 abbf 221e 35bf 267e 5abf 2985 92bd
00000330: 7970 37be 9172 043e a52a 0ebf ba38 92bf
00000340: 4246 6abf 9e3f 7bbf 21d4 883f 3a20 37bf
00000350: 5cd5 74bf 8168 a9bf 6167 47bf d828 16bf
00000360: 8608 67bf 2c3e fabe 3b52 9ebf 8d4a 39bf
00000370: 8cbe 5bbf 0c16 95bf 3f2d acbf da1b 47bf
00000380: 93ae 9abf 75fa bbbf e50b 5fbf 8611 83bf
00000390: d6b5 673e 058b 90bf cfb4 abbf 6c2a 85bf
000003a0: 5865 b3bf 3742 d4bf 45a0 153e edc8 14bf
000003b0: f5ce 94bf 9b2e 77bf a9ec a23d adec 8ebf
000003c0: f446 1e3d ee72 4abf 5ee3 f5be 43ff 92bf
000003d0: 96c7 20bf 3c6c 97be 76ac 6bbf 1bb8 16bf
000003e0: 9654 87bf 3bcc 76bf 7238 a8bf 01a2 babf
000003f0: b90d 89bf c108 a3bf cdf7 23bf 9242 66bf
-1.189669 -1.3567978 -0.597712 0.29934335 -1.0660537 0.30496886 -1.1125808 -1.4973205
-0.8043689 -0.7072176 -0.868633 -0.66902316 -0.26680958 -1.2148262 -0.9504225 -0.7527378
-1.5418336 -0.9850358 -0.72900647 -1.2126051 0.45353124 -1.1016562 -1.1130553 -1.0390232
-0.9315556 -0.54681844 -1.1585273 -0.723131 -1.7750692 -0.7784553 -0.8979163 -0.06744714
2.9107785 0.36979312 -0.25783938 -0.76546013 -1.5603155 0.14102595 -1.1065068 -1.1013484
-1.8055905 0.60589904 -1.3173188 -1.3211064 0.33250892 -0.6848708 -1.3192011 -1.3683751
-0.45530573 -0.7713901 -1.0661983 -0.7398108 -1.0951498 0.13664387 -0.72792256 -0.9606709
-0.9649017 -0.6677839 -0.8190278 -1.1337997 1.4860964 -0.86000806 -0.74512696 -0.29802915
-1.294029 -0.47304225 -1.0442618 -0.8731088 -1.468709 -0.014327036 -0.8322889 -1.0866052
-1.507309 -0.20443855 -1.1973739 -0.6993441 -0.8771332 -0.8686451 5.186921 -0.91667277
-1.0160477 -0.8541566 -0.9355197 -1.095787 -0.8376542 -0.3253144 -1.844414 -0.92350113
-0.6527419 -0.6296202 -0.60870206 0.23837876 -0.47078186 -0.9898865 -0.6572149 -0.9626322
-0.7061627 -0.7724932 -1.2157633 -0.31771666 -0.5304291 -1.3053019 1.2990822 1.6988597
-1.7529657 0.101593666 -0.40827003 -0.99409395 -1.0616914 -1.1516559 -0.41523376 -0.60330975
-0.6983609 -0.8170859 -0.51839566 -0.7885084 -0.87319374 1.1192216 -0.6542916 -0.42408475
-0.42334923 -1.2400157 -1.424982 -1.1612334 -1.1552824 -1.3975848 -1.5045199 -0.9574963
-1.1164936 -0.9696385 -1.4213753 -1.432028 -1.4755495 -0.6643486 -0.8041853 -0.6316604
0.56708646 -1.0910879 -0.87561387 1.2359021 -0.30866507 -0.98495835 -1.2307535 -1.389048
-0.750268 -0.7714943 -0.6665383 -1.1749039 -0.13604765 -0.54832906 -0.7264876 -1.6289084
-0.4297811 -1.0069544 -0.86144257 -1.5897001 -1.0538609 -1.1115836 -1.3423251 -1.0945832
-1.0243421 -0.4518648 -0.8317652 -1.2867585 -0.4904047 -1.2140677 -1.1735679 -1.073889
-0.7461815 -0.71645504 -1.2309091 -0.9708655 1.9429274 -0.83279073 -0.72543806 1.2030027
-1.011216 -0.9726859 -1.0553327 -1.3863958 -1.2277738 -0.7580522 -1.0171003 -0.8675163
-0.4046369 -1.2302904 -0.69335365 0.046376187 -1.5353379 0.2708498 3.6082675 -1.29472
-1.0650581 -0.85257256 -0.92709106 -0.52389723 -1.0289084 -1.0744234 -0.90891564 -1.2038697
-1.3420295 -0.70749104 -0.8534874 -0.071543045 -0.17913999 0.12934329 -0.5553382 -1.1423562
-0.91513455 -0.9814395 1.0689737 -0.7153355 -0.9563806 -1.3235017 -0.7789212 -0.5865607
-0.9024738 -0.48875558 -1.2368845 -0.7237938 -0.85837626 -1.1647353 -1.3451308 -0.77776873
-1.2084526 -1.4685808 -0.87127525 -1.0239723 0.22627959 -1.1292425 -1.3414553 -1.0403571
-1.4015303 -1.6582707 0.14611919 -0.5811909 -1.1625658 -0.9655549 0.079552956 -1.1165978
0.038641885 -0.7908162 -0.4802503 -1.148415 -0.62804544 -0.29574764 -0.9206003 -0.5887467
-1.0572689 -0.9640538 -1.3142226 -1.458069 -1.0707313 -1.2737046 -0.6404999 -0.8994533

fc2.weight f4 [128, 256]
00000000: 5b85 92be e8db 46be ade2 95be bde6 3cbe
00000010: 4129 d2be 46f1 afbe 799d 103e 1689 62bc
00000020: e3f1 a0be 9434 48bf f62c a53e 1431 0cbf
00000030: 35f4 21bf 3514 1d3e 59a8 203e 38a7 0cbf
00000040: 8ace c1be 83ba ae3e bdab 00bf 972e e2be
00000050: eab8 2b3e dc4c 60bd 5756 39bf d74a 7cbe
00000060: ecd8 81be ba33 06bf e362 a7bf 0af5 e1be
00000070: 2c8c 13bf 1dbc 5ebe 528d d2be 97e7 5abf
00000080: e92f dabe 4b2a 6b3c 23f6 70be dcd9 cabe
00000090: 3fd2 bebe f10e e7bd e464 82be 9a30 32bf
000000a0: ffaa 8a3d 29ce b8bd 3def 6ebe 88a0 b3be
000000b0: 445f b8bd ee47 9dbe d70b 43bf 111f 073f
000000c0: 2b01 cbbc c620 67be 4c6f 893d 714c 10bf
000000d0: 04d5 91bd 8edc 1e3f d55c 1fbd 8dce b8ba
000000e0: 5d31 9fbe 9f67 b0be e8a4 0bbf 25af 913d
000000f0: 6f41 103c 0440 30be 3614 bd3e e01f 24bf
00000100: 0491 b4bd d8bf 2a3e 131f 0a3e 353e 393e
00000110: 190e a23e 2e16 a6be 5e67 493c 8acc 63be
00000120: e004 49bf 4db6 bbbe 801b 70be 89d6 3ebd
00000130: d577 913e ccea b83e a91c 06bf 702c 44bf
00000140: fcbd 0f3f 10e8 22bf a48c 32bc 8b22 673e
00000150: 5489 fdbe 7d38 683d fed9 ee3d 41cd 9fbe
00000160: 2f73 30bf 6526 89be e227 2abf 89b6 0fbf
00000170: 451c a8be 59e1 b03e 1937 163e e83f 243e
00000180: 95aa 95bd 74ea cbbe cf9e cf3d a430 05be
00000190: 5122 443e 33d0 d5bc ab34 5cbe f388 a9bd
000001a0: 70d1 6fbf 204c 77ba 2442 77be b4c3 a3be
000001b0: 2fea 9dbd 580c 74bf 0083 0b3d 3816 79be
000001c0: 98f8 9b3e c8a4 113e 16c7 86be a2fd a23e
000001d0: f6e0 e7be 3cf6 ffbe 3839 553e 52b5 eebe
000001e0: d73f 893e e55c 9ebc 8ab3 a7be 29a7 37bf
000001f0: e264 1d3d 8c9a 6ebe 6024 bbbd ec0f 693e
00000200: c953 0abe 5fc0 993c 354e 46be cfc1 4dbe
00000210: 061d 12bd db23 e8bd 1950 20bd 1b4d a63e
00000220: fe07 f7be 6a02 743e 3092 0ebe 9ef5 163c
00000230: 20dd 8f3e 6c76 5a3e ef95 813e dc27 02bd
00000240: cd57 1d3e 6c55 823e 134a 03bf df50 be3d
00000250: 946c cdbe a2a4 6dbe 8d05 9cbe dbca 2bbe
00000260: 366d 53be 7181 883f b6f2 1abf 16d6 b8bd
00000270: 9b33 5bbe 4ef5 9abe 909d efbe 77d7 03bd
00000280: a43b 82be 33fc c2be e25d 4fbe aadc e2be
00000290: e152 2dbe 2a34 c5be 802d 103f d050 efbe
000002a0: 0aba 97be b868 45be 4fd5 b2be 72e2 30be
000002b0: db44 ccbe 7d2c 8ebd 1bbf 0bbf bf2f 08bf
000002c0: e779 10be 63ac 00bf 6bb4 c2bd 9e6e aabe
000002d0: a6ac c7be 6720 63bf 1950 953d 28e3 0d3e
000002e0: 7bf9 f73a 9afa 88be 87e3 e33e c78f fdbd
000002f0: 2427 8cbe e788 0abf 9d73 f5be b860 e9be
00000300: b81b 4cbf 7669 2f3e 38d7 e7be d81e 0fbf
00000310: 4188 debe 257c 44be c893 b4be 43c7 583d
00000320: f8ff aabe a2af 0dbf fbb0 c7be d26d f6be
00000330: 63b3 be3c 356d 1dbf f1e4 6bbd 2b83 7c3c
00000340: a68b c23e 71fc a2be 8f10 5abe 1f3f 0cbe
00000350: bdb3 0abe da90 adbe 61f3 96be 2184 56be
00000360: 432c b7bc c3d3 fbbd cd2b 31be 29d2 af3d
00000370: 2f2c 873e 9435 cebd d1a6 c1bc a510 ae3e
00000380: eed5 413b 835b 81be d82e abbc dbde 7cbf
00000390: a9cb fabe 07c0 903b fc03 44bd dc9b da3e
000003a0: 759e bcbe 0578 93be 1f1a a7be d977 5fbd
000003b0: 4088 cbbd 63a8 083e a7a9 17bf 79f2 98be
000003c0: 493e 39bf 2eee 16bd e466 2abe b915 243d
000003d0: f05b c8be 72c0 313e b9f2 39bf 82de b1be
000003e0: e21f bcbd 80f7 c4bd 1954 eb3e b693 debe
000003f0: b655 853e 2aa7 54bf 9980 40bf 2fcb 893e
-0.28617367 -0.19419825 -0.29274502 -0.18447395 -0.410471 -0.34363765 0.14122571 -0.013826629
-0.31434545 -0.7820523 0.32260865 -0.5476239 -0.63263255 0.1533974 0.1568922 -0.54942656
-0.3785289 0.34126672 -0.5026205 -0.4417617 0.16769758 -0.0547608 -0.7239737 -0.24637924
-0.2536081 -0.5242268 -1.3077053 -0.44132262 -0.5763576 -0.21751447 -0.41123444 -0.8550963
-0.42614678 0.014353345 -0.23531394 -0.3961934 -0.3726978 -0.11282147 -0.25467598 -0.6960541
0.06770896 -0.09023697 -0.2333345 -0.35083413 -0.090025455 -0.3071894 -0.7618994 0.5278178
-0.02478083 -0.22571096 0.06710681 -0.5636664 -0.07120708 0.6205529 -0.03890689 -0.0014099643
-0.3109235 -0.34454057 -0.545485 0.07113484 0.008804663 -0.1721192 0.36929482 -0.6411114
-0.08816722 0.16674745 0.13488416 0.18090136 0.3165138 -0.32438797 0.012292711 -0.22245994
-0.78523064 -0.36662522 -0.2344799 -0.046591315 0.28411737 0.36116636 -0.5238748 -0.76630306
0.5614927 -0.6363535 -0.010897789 0.22571771 -0.49518836 0.056694496 0.116626725 -0.31211284
-0.68925756 -0.26787105 -0.66467106 -0.561379 -0.32834068 0.34546927 0.14669456 0.16040003
-0.073079266 -0.3982731 0.10137712 -0.13006836 0.19153716 -0.026100254 -0.21504466 -0.08278074
-0.9367895 -0.0009433646 -0.24146324 -0.31985247 -0.077106826 -0.95331335 0.03406048 -0.24324882
0.304631 0.14223015 -0.26323766 0.3183413 -0.4528882 -0.4999255 0.20822608 -0.4662271
0.26806518 -0.019331405 -0.32754165 -0.7173944 0.038426287 -0.23301142 -0.09137797 0.2275998
-0.13508524 0.018768487 -0.19365771 -0.20093463 -0.03567221 -0.11334964 -0.039138887 0.32480702
-0.48248285 0.23829046 -0.13922954 0.009213833 0.28098392 0.21334237 0.25309703 -0.031776294
0.15365525 0.25455797 -0.51284903 0.09292769 -0.401219 -0.23207334 -0.30472985 -0.16776602
-0.2064713 1.0664502 -0.605266 -0.09025209 -0.21406405 -0.30265278 -0.46799898 -0.032187905
-0.25436127 -0.38083038 -0.20250657 -0.44308978 -0.16926147 -0.3851636 0.5631943 -0.46741343
-0.29634124 -0.19278228 -0.34928367 -0.17273882 -0.39896283 -0.06942079 -0.5458848 -0.53197855
-0.14109002 -0.5026304 -0.09507068 -0.3328752 -0.38998908 -0.8872132 0.07290668 0.13856184
0.0018918955 -0.26753694 0.44509527 -0.12380939 -0.27373612 -0.54115146 -0.47939768 -0.45581603
-0.79729795 0.17130074 -0.45281386 -0.5590644 -0.43463328 -0.19187982 -0.35268998 0.052924406
-0.33398414 -0.5534612 -0.39002213 -0.4813066 0.023278898 -0.6149476 -0.057591382 0.015412132
0.37997168 -0.31833223 -0.21295379 -0.13695954 -0.13545127 -0.33899575 -0.29482558 -0.2094884
-0.022359973 -0.1229625 -0.17301865 0.08585007 0.26400897 -0.10068813 -0.023639115 0.33997074
0.0029576975 -0.2526513 -0.02089636 -0.9877755 -0.48983505 0.0044174227 -0.047855362 0.42697036
-0.36839643 -0.28802505 -0.32637116 -0.054557655 -0.09938097 0.13345484 -0.59243244 -0.29872492
-0.72360665 -0.03684824 -0.16640812 0.04005978 -0.39132643 0.17358568 -0.7263599 -0.34740072
-0.09185769 -0.096175194 0.459626 -0.4347207 0.26041955 -0.8306757 -0.75196224 0.2691283

fc2.bias f4 [128]
00000000: f228 c8be 7a13 81bd b7e8 99bd 15bf 213e
00000010: c1a5 a0be f132 6dbf e193 b8be f9a5 87bf
00000020: 2ec9 63bf 1c63 84be d5b7 2dbe 8819 c4be
00000030: a1c9 f7be 7b6b c3bf d188 20bf 5d50 f5be
00000040: 65fd 59bf 4be8 88be 0362 1a3e 7453 67bf
00000050: f764 a2bf ae23 6bbf 3af0 b5bf e36e 74bf
00000060: f2fb 2cbf 4faa cbbe 8e24 77bd be58 10be
00000070: 0490 cfbe 6cac babe 4452 0dbf 9843 a53e
00000080: 49da 2cbf e4af 403e 81eb 68bf 8927 043f
00000090: 0f83 21bf cc3a 05be 81ba 123f 4d8a fd3d
000000a0: 0b73 a6bd 62f0 96bf 1e3b 02bf 1f1b f7be
000000b0: b399 4dbe 6dc1 65be 3902 c4be 14b7 bdbf
000000c0: 6ef1 d6be 0897 c43d 101c acbc ca82 8abe
000000d0: 025a 84bd 9296 d4be 8161 d4bf fc13 c8bd
000000e0: 92f3 53bf a06f b5bf efa5 efbe 4676 b7bf
000000f0: b5d3 073f 8d83 82bf a80b 10c0 2b72 a3bf
00000100: 290c 66bf ea4d 05bd 6358 a9bf ab62 eebd
00000110: 6b40 11bf 0361 90bf 2fae 94bc 2e81 1bbf
00000120: f7bc a7bf 36a7 9dbe 8b6a d7be 568f 3e3e
00000130: f511 17be a0a5 74bf acff e3bf b9c9 9ebe
00000140: da36 19bf 082d 2abf c3d6 09bf 9180 edbe
00000150: ce77 23bf cc94 a5bd dc51 74bf 37ca aabe
00000160: 2064 9dbd 8b80 c1bf 485d ccbf cfa7 a4bf
00000170: 8c88 3dbf 83e1 36bf bc76 42bf c6d5 bb3d
00000180: 5857 bebf bb34 71be 98c2 cabc 84c7 bebe
00000190: f4a9 85bf 3a59 91be 10fe afbf 74b8 eebd
000001a0: 34b9 91bf 3ae0 a7bd 7e37 e8bd 4738 aebf
000001b0: db56 4bbf 7401 2fbf f4b2 9cbe 497d 75bf
000001c0: c6e5 15bf 9382 6dbf 3721 67bf 8f0d 6ebf
000001d0: 95e1 ecbe 677c d3bf 91aa c2bd 3572 073e
000001e0: b435 2bbf 5bd5 18bf ec58 f7bd 75f8 5ebf
000001f0: a59b 75be 78b4 b0bf cdeb afbf 1a63 abbe
-0.3909374 -0.06302543 -0.0751509 0.15795548 -0.3137646 -0.92655855 -0.36050323 -1.0597526
-0.8897885 -0.25856864 -0.16964658 -0.3830073 -0.48396018 -1.5267175 -0.62708765 -0.47912875
-0.85152274 -0.26739725 0.15076451 -0.90361714 -1.2687062 -0.9185132 -1.4213936 -0.954817
-0.6757194 -0.39778373 -0.060337596 -0.14096352 -0.40539563 -0.36459672 -0.5520365 0.32278132
-0.67520577 0.18817097 -0.9098435 0.51622826 -0.63090605 -0.1301071 0.5731583 0.123798944
-0.081274115 -1.1792109 -0.50871456 -0.4826288 -0.20078163 -0.22437067 -0.38282946 -1.4821496
-0.4198107 0.095991194 -0.021009475 -0.2705291 -0.0646248 -0.41521126 -1.6592256 -0.09769437
-0.82793534 -1.417469 -0.46806285 -1.4332969 0.53057414 -1.0196396 -2.2507114 -1.2769216
-0.89862305 -0.032545008 -1.3230098 -0.11639913 -0.5673892 -1.1279606 -0.018149463 -0.6074399
-1.3104542 -0.30791634 -0.42073473 0.18609366 -0.14752944 -0.95565224 -1.78124 -0.31013277
-0.5984932 -0.6647496 -0.53843325 -0.4638715 -0.6385468 -0.080850214 -0.9543741 -0.33357403
-0.07685113 -1.5117353 -1.5965967 -1.2863711 -0.7403648 -0.71437854 -0.75962424 0.091716334
-1.4870405 -0.23555271 -0.024750993 -0.37261593 -1.044249 -0.28388387 -1.3749409 -0.116562754
-1.1384645 -0.08197065 -0.11338709 -1.3610924 -0.79429406 -0.6836159 -0.3060528 -0.95894295
-0.5855373 -0.92777365 -0.90285057 -0.9298944 -0.46265855 -1.652234 -0.09505189 0.1322716
-0.6687882 -0.59700555 -0.120775074 -0.87097865 -0.23985155 -1.3805075 -1.3743836 -0.33474046

fc3.weight f4 [2, 128]
00000000: d4cc a9be 091d b03d 5bf7 803d 19b2 c9bd
00000010: 5b39 ca3e f348 72be 68d3 153e 2890 9e3e
00000020: 6f78 4bbe 6779 fa3e 54d1 12bc 8d2d 02bf
00000030: 55c9 07be 6d32 0bbd 9464 46be 0b52 f63d
00000040: 3934 773d 8706 853d 04c9 e8be dc47 39be
00000050: 0ffa 04be c64e 583d 4eb5 0b3f f900 70be
00000060: fada 6dbf 4dbe bd3e b4cb 29bc 1197 d4bc
00000070: e879 82be 1f37 bf3e a8c6 893e 18f1 dbbe
00000080: 06ba 9f3e 0e51 2abf 84b5 c4be fd6b 183e
00000090: 047f 1b3f fc5a 053a 1031 043d 5698 743e
000000a0: b8ef 60b9 1b5a b73f 39d2 0f3f c2b8 b0be
000000b0: cd20 743e aedb a1be b4d7 b53e 6fca 34be
000000c0: ceba 22bf f8bc 253f 4a40 b33e f5be b6be
000000d0: 0ad7 073d d021 523f a983 e73e 8281 c33e
000000e0: 7fde 76bd b414 cc3d d06f 32be 8e32 373f
000000f0: e9be 263f 05be 873e e820 883e 68b7 753e
00000100: 5029 a6bd d9ed 70bb 7abf 533f 47d2 8a3c
00000110: 18ff 2bbf ee2e d3bd 2a4c 6d3c a701 273f
00000120: 60ee 693b 3162 4e3d 4b56 d23e 86a1 093f
00000130: 9b82 a63d 60e4 bd3e 1d2e c9bd 5700 493e
00000140: 7c36 193f 3770 8a3d 7980 00bf a1c4 233f
00000150: 102b e0bd e4cb 383d 0093 10be ba85 063f
00000160: e16e 593c f96e 223d 4d18 d7bd f0c3 35bf
00000170: a8a1 643e eee8 01bf e7e2 993d 5081 8b3e
00000180: 3ce4 cdb8 cb43 cfbb 971f f33d a36a 9cbe
00000190: f3ab e23d 56bc bbbe db24 213e 5ad7 bfbc
000001a0: 9cc9 f6be 236b 8c3f 9561 1dbf 60aa c8bd
000001b0: 3279 a1be f71d 9fbe 1105 463d f161 bebe
000001c0: 8e4a ca3e ed5b 01bf 74c2 fbbe 22d5 19be
000001d0: 5848 2e3e 4890 69bd addc f4bc f518 89bd
000001e0: 1fb4 82bc 5ec5 1b3f e950 3abf 3a8e a3bc
000001f0: f87c 983e 1fd9 a13c 6be1 433e 0846 f3be
00000200: 1c2c 15be 9c96 943f 13b7 e13d ca6d 74bf
00000210: 916e 7e3f 026f 92bf 225c 673e 8f2a 4abd
00000220: 2a28 18bf 3469 923f 8803 81bd c88b cc3e
00000230: 246a 043f 2852 fbbe 1105 7a3f 819d 50be
00000240: 35a6 593f a3c2 633e bb49 e9be ef65 063f
00000250: 8660 393f b9ab 3c3f a539 8bbf d71b f9be
00000260: bd56 0e3f 6514 9e3f 97bd 2e3b 0c56 34ba
00000270: 3858 e53e ab02 f1bf 4ba6 0440 7f54 3cbf
00000280: e3bb 1c3f ab6e 06c0 0f7b c8bf f8a9 c6bf
00000290: fd6e 073f 332a ad3c e8b5 713d 2d20 0e3f
000002a0: 0ee8 74bb 633a 96be edcc 85bf b068 c9be
000002b0: 1e87 7a3d 0c5e c3bf 159c 9c3f d173 0d3d
000002c0: f6ec c2be 6ea0 333e 5b9f 423d 04f5 01be
000002d0: adc5 c8bc 4923 b73f 7138 8cbf c0bd d93f
000002e0: e845 6bbe a941 b6bf c1da 7e3f f41e 9f3c
000002f0: f5fe 593c b47e 86be 0a6e bdbe 5e66 d9bf
00000300: 3e27 053f 70fb 8a3c 88b2 07bf f11e fabc
00000310: be33 dfbe 87c3 943f e83c 903c 41e4 303e
00000320: c3f0 1d3f 6f3e 87bf b3df 183f 5367 153c
00000330: a2f8 e4bb b45a ad3e cd29 d4bd a0ea c83e
00000340: e298 ae3e efa2 4ebf 5c91 83be 90fc acbe
00000350: 4f1e f43e 2e3c 3f3c a7b6 92bf 123f f63e
00000360: c170 2bbf fa23 603f 4ce6 083f 74d5 98bf
00000370: fde7 08bf fb24 843f 26d9 acbf 1332 f83e
00000380: dc57 753e 6ab0 e53d 0d5f 50bf ef22 03be
00000390: 1d5c 0f3e 1825 88be 3d6e e8be d4d5 d43c
000003a0: 89a1 2c3f a345 a63f 75db acbf 3cdd 593f
000003b0: 19db 8d3f 6252 0ebf 2c6f 083f 94ed 2bbd
000003c0: 957e 47bf 71d4 d13e 3a0c 453f 8b8a fe3e
000003d0: 95be aa3e a7d7 b1bd 8cd3 15bd 9232 dabf
000003e0: 7614 7bbf 1458 61be 81aa 49bf 71c8 0d3f
000003f0: e6ae d43d b03a 043f b11b 0cbf 08d0 19bf
-0.33164084 0.08599288 0.06297179 -0.098484226 0.39496884 -0.2366064 0.14631426 0.30969357
-0.1987016 0.48920748 -0.0089610405 -0.50850755 -0.13260396 -0.033983637 -0.19374305 0.12027367
0.060352538 0.064953856 -0.45465863 -0.18093818 -0.12986015 0.0528095 0.54573524 -0.23437871
-0.92912257 0.3705925 -0.010363508 -0.02595094 -0.25483632 0.37346742 0.26909375 -0.42957377
0.31196612 -0.6652993 -0.38419735 0.14884944 0.60740685 0.0005087105 0.032273352 0.23886237
-0.00021451607 1.4324373 0.5618015 -0.3451596 0.23840638 -0.31612915 0.3551613 -0.17655347
-0.6356629 0.6474147 0.35009986 -0.35692564 0.03316406 0.82082844 0.45217636 0.38184744
-0.060270783 0.09964886 -0.17425466 0.71561515 0.65135056 0.2651216 0.26587605 0.23995745
-0.081133485 -0.0036762862 0.82714045 0.016945971 -0.6718612 -0.103116855 0.014483491 0.65236896
0.003569506 0.05038661 0.4108146 0.5376209 0.0813038 0.370883 -0.098232485 0.19629036
0.5984876 0.067596845 -0.50196034 0.63971907 -0.109457135 0.04511632 -0.14118576 0.525478
0.0132710645 0.039656613 -0.10502682 -0.710021 0.22327292 -0.5074605 0.07513981 0.27247095
-9.817674e-05 -0.00632522 0.1187126 -0.30550107 0.11067953 -0.36667126 0.15736715 -0.023418117
-0.4820069 1.0970196 -0.61477023 -0.097981215 -0.31537777 -0.3107755 0.048344675 -0.37184098
0.39510006 -0.5053089 -0.49171793 -0.1502271 0.17019784 -0.057022363 -0.029890383 -0.06694213
-0.015955029 0.60848033 -0.7277971 -0.01996528 0.29782844 0.019756852 0.19128959 -0.47514367
-0.14567608 1.1608462 0.11021247 -0.95480025 0.9938746 -1.1440127 0.2259374 -0.049356993
-0.59436285 1.1438355 -0.06299502 0.39950395 0.5172446 -0.49086118 0.9766398 -0.20372583
0.85019237 0.22242217 -0.45564064 0.5249929 0.7241291 0.7369953 -1.0876967 -0.48654053
0.556011 1.2349974 0.0026663297 -0.0006879277 0.44793868 -1.8828939 2.0726497 -0.7356643
0.6122419 -2.1005046 -1.5662555 -1.552062 0.5290373 0.021138286 0.05901137 0.55517846
-0.003736976 -0.2934142 -1.0453163 -0.39337683 0.061164014 -1.5263076 1.2235132 0.03453428
-0.38071412 0.17541668 0.047515254 -0.12691122 -0.024508322 1.4307643 -1.0954725 1.7011032
-0.22975886 -1.4238788 0.9955254 0.01942394 0.013305415 -0.26268542 -0.36998016 -1.6984365
0.52013004 0.016965598 -0.5300679 -0.030532332 -0.43594164 1.162217 0.017607167 0.17274572
0.616955 -1.0565928 0.5971634 0.009118873 -0.006987647 0.33858263 -0.10359535 0.39241505
0.34101015 -0.80717367 -0.25696838 -0.3378644 0.47679374 0.011672063 -1.1461991 0.48094994
-0.66968924 0.87554896 0.53476405 -1.1940141 -0.53478986 1.0323786 -1.3503768 0.48475704
0.23959297 0.11215289 -0.81395036 -0.12806295 0.13999982 -0.265908 -0.45396605 0.025980867
0.67433983 1.2990001 -1.3504473 0.851032 1.1082488 -0.55594456 0.53294635 -0.04197462
-0.77927524 0.40982392 0.7697178 0.49715075 0.33348528 -0.086837105 -0.0365787 -1.7046683
-0.98078096 -0.22006255 -0.78775793 0.55383974 0.10384922 0.5165205 -0.54729754 -0.60083055

fc3.bias f4 [2]
00000000: 52a7 5640 0c48 9340
3.3539624 4.602545
