p3_collab-compet/models/best_critic_0.pth (torch_old, 185256 bytes, 5 tensors)

fcs1.weight f4 [256, 48]
000000 75 80 82 3f e7 83 bf 3f c8 fc 93 bd b9 f7 ec 3d
       1.0195452 1.4962128 -0.072259486 0.11570687
000010 bc 1f 06 bf 1b 44 54 bf d0 0f b5 bd 57 9f 15 3e
       -0.5239217 -0.8291642 -0.088409066 0.14611565
000020 46 70 7d 3f 64 9e d3 3f 0f d9 13 be 4d 66 34 3e
       0.9899944 1.6532712 -0.1443827 0.1761715
000030 ed 98 75 be 0b fe 95 bf e9 6a 1b bd 14 aa 0e 3e
       -0.23984118 -1.1718153 -0.037943754 0.13932067
000040 ef 1d 62 3f 4f e7 fa 3f 12 eb 6c bd 69 df dd 3e
       0.88326925 1.960184 -0.057841368 0.4333451
000050 66 79 47 3e bc aa bf bf 6b 97 93 bc bb ff af 3e
       0.19479904 -1.4973979 -0.018016538 0.34374794
000060 f3 ff f8 3f 50 85 be 3f fc a2 98 bd 0b 41 03 3f
       1.945311 1.4884434 -0.07452962 0.5127112
000070 02 4b e8 3e 71 99 64 bf ec 26 e3 bd 35 ed 0b 3f
       0.45369726 -0.89296633 -0.11091408 0.54658824
000080 70 ff b8 3f a8 9f af 3f 2b 2f 21 bd 46 53 15 3e
       1.4452953 1.3720598 -0.039351624 0.14582548
000090 bf 74 43 3e 95 aa 92 bf b8 2d 77 bd 5c 5d 4e 3e
       0.19087504 -1.1458308 -0.060346335 0.20152801
0000a0 8b 73 91 3f 82 a9 b3 3f 43 bd bf bc 44 08 af 3d
       1.1363386 1.4036105 -0.023405677 0.085464984
0000b0 48 4c 73 be 5e cf bf bf 38 34 87 bc db 33 26 3e
       -0.23759568 -1.4985158 -0.016504392 0.16230719
0000c0 dd 48 8c bd af 6e 83 3e ac 98 19 3c 4b 2f 29 3d
       -0.06849835 0.25670382 0.009374779 0.041304868
0000d0 e4 ac 06 c0 7a a5 69 3e 44 75 ba bc 35 1f e9 3d
       -2.1043024 0.2281703 -0.022760995 0.113829054
0000e0 2c 82 44 bd 5d 07 34 be d5 3e ea 3b 80 ee e5 3b
       -0.047975704 -0.17580934 0.0071486034 0.007016957
0000f0 10 e6 42 3f 68 84 9a bf a4 d5 42 ba a6 53 cc 3c
       0.761323 -1.2071657 -0.00074323476 0.02494223
000100 9f 8a 42 3e 0a 8f 99 3e 5b 70 b4 bb 64 17 43 3e
       0.18998192 0.29991943 -0.005506558 0.19051892
000110 23 5f 15 40 ee fe 85 3d be e0 c5 bc b5 a9 dc 3d
       2.3339317 0.065427646 -0.024155017 0.107745565
000120 b6 4b a9 be 20 b3 1e c0 d3 57 bf 3c 32 40 29 3d
       -0.33065575 -2.479683 0.023357308 0.041320987
000130 7e 79 01 40 56 d1 80 3e b3 9f bd bc 45 66 fc 3c
       2.0230403 0.2515971 -0.02314744 0.030810485
000140 ac c1 7a 3e 62 2f c8 3c 62 74 2f bd c1 e2 2b be
       0.24487942 0.024436656 -0.0428356 -0.16785719
000150 00 45 52 bf 00 2e 95 bf 22 2a 6c bb 31 e5 54 be
       -0.82136536 -1.1654663 -0.0036035855 -0.20790555
000160 4c 7b 20 3e 73 eb 1b 3f 8d 91 82 3b 37 ef 53 bf
       0.15672034 0.6090614 0.003984636 -0.8278689
000170 5b fa 14 c0 15 88 03 3e 46 1e 89 bc b5 ba 4d bf
       -2.3277805 0.1284488 -0.016738068 -0.8036302
000180 e4 0c da 3e 8f 02 a8 3f 68 c7 d3 bc c7 65 41 bd
       0.4258796 1.3125781 -0.02585192 -0.047216203
000190 2c 22 2c bf cd cf 70 bf d0 a7 23 bd e0 a1 41 3d
       -0.6723964 -0.9406708 -0.03995496 0.047273517
0001a0 c2 06 1a 3f f7 a4 a3 3f 30 d3 03 bd 88 cf 7e 3e
       0.6016656 1.2784718 -0.032183826 0.24883854
0001b0 43 dd f4 be 1a 4e b7 bf 24 08 89 3d 01 f4 68 3e
       -0.4782506 -1.432071 0.06691006 0.2274933
0001c0 c8 a3 89 3f 1f 73 6d 3f ad 58 a4 3e 1a e2 21 bf
       1.0753107 0.92753786 0.32098904 -0.6323563
0001d0 16 39 04 be bb 19 e8 bf 9f 94 d2 3e c0 d5 04 bf
       -0.12912402 -1.8132852 0.41129014 -0.51888657
0001e0 c6 63 00 bf 90 ce 7c 3f 41 58 24 be b5 66 b3 bd
       -0.5015224 0.9875269 -0.16049291 -0.08759824
0001f0 3e 67 2d 3f 8b 28 6d bf bd de a2 bd 42 28 29 be
       0.6773566 -0.9263999 -0.0795264 -0.16519263
000200 fe b7 80 3e 8d 29 82 3f 4e 8c bb bd f8 12 08 bc
       0.25140375 1.016893 -0.0915762 -0.008305304
000210 c3 cf 00 3f 86 dc b9 bf 3b f9 d7 bd 20 09 4d 38
       0.5031702 -1.4520423 -0.10545584 4.8884307e-05
000220 98 8b 03 3f cc 10 bb 3f 42 67 98 bd 60 f9 72 bd
       0.5138488 1.4614501 -0.0744157 -0.059319854
000230 42 44 19 3e 55 63 e3 bf 6d 5f 5b bd cb dd b0 3b
       0.14967445 -1.7764689 -0.053557802 0.0053975335
000240 59 2c a2 be db 75 0c c0 d6 6d f1 bd 89 31 e7 be
       -0.3167446 -2.1946933 -0.11788528 -0.4515498
000250 73 e2 13 3f f3 e0 10 be 13 b5 1e be 20 0f db be
       0.5776741 -0.14148311 -0.15498762 -0.42784977
000260 01 81 be be 5f bf d7 bf a6 10 47 bd ce d0 90 3e
       -0.37207797 -1.6855277 -0.04859986 0.28284305
000270 da 43 1f bc d3 dd be bf 14 9a 2d 3c 48 d4 2d 3e
       -0.009720767 -1.4911445 0.010595817 0.1697551
000280 fe 52 49 be 8c 01 b7 bf d4 c4 15 be 4d e1 58 bd
       -0.19660565 -1.4297347 -0.14625865 -0.05294924
000290 53 48 c5 be e4 14 4e c0 76 50 54 be 24 a9 f5 bb
       -0.38531741 -3.220025 -0.20733818 -0.00749697
0002a0 33 5c f7 3f 4a 6e 8a bf 95 aa 5e be 13 61 e4 3f
       1.9325012 -1.0814908 -0.2174476 1.7842125
0002b0 d7 45 1c bf 53 22 6e be 55 64 3a be 6d aa ea 3f
       -0.6104407 -0.23255281 -0.18202336 1.833326
0002c0 ba 5d 78 40 66 3a 6a bf c3 9b dc bd 56 13 30 3f
       3.8807206 -0.9149536 -0.10771897 0.68779504
0002d0 4e 32 39 3c 4b 72 ba bf d1 8d 5b be ac 36 25 3f
       0.0113034975 -1.456613 -0.21440817 0.6453655
0002e0 38 61 93 40 32 d2 11 bf 5e 24 5d bd ee 6e 02 3f
       4.6056175 -0.5696136 -0.05398976 0.50950515
0002f0 61 3a d4 3e 0a 69 4f c0 06 df 88 bd a7 e6 fb 3e
       0.4145079 -3.240786 -0.06683163 0.4919941
000300 58 c2 cb be df e2 39 40 26 ae c8 bd c6 5d 5d 3e
       -0.3979671 2.904472 -0.09798841 0.21617803
000310 60 59 98 3e 66 71 62 3e 22 65 2f be 2a d9 43 3e
       0.29755688 0.2211357 -0.17128423 0.1912581
000320 ca bc 9b be 87 88 46 40 b5 bd 1b bd 0f c2 69 3e
       -0.30417472 3.102083 -0.038022716 0.22827934
000330 d9 0e ea 3e 5c 3a d9 bf 29 8d ce bc ff 67 a2 3e
       0.45714453 -1.6970935 -0.025213795 0.31719968
000340 c3 82 80 bf 20 82 6e 40 2d c0 22 be f8 9d 02 3e
       -1.0039905 3.7266922 -0.15893622 0.12755573
000350 d6 60 b1 3e 0f 56 f8 c0 b9 0e eb bd 08 77 09 3e
       0.34644192 -7.760505 -0.114774175 0.13424313
000360 60 38 22 3e c4 31 92 3f 54 36 3f bd 20 ab 70 be
       0.15841818 1.1421437 -0.04668267 -0.23502779
000370 84 f9 a2 be a2 41 92 3e 22 44 2f bd 3f db 61 be
       -0.3183099 0.285657 -0.042789586 -0.22056292
000380 45 c1 61 be 68 22 e5 3f 9b a4 9f 3b 7d f2 7e 3e
       -0.22046383 1.7901125 0.0048719174 0.2489719
000390 67 8a be be 04 1c e4 bf 57 2a c8 3d 25 d0 b1 3e
       -0.37214968 -1.782105 0.09773701 0.34729114
0003a0 79 17 3b be ff 0f 0c 40 23 a4 09 be ab 2f 12 bf
       -0.18270673 2.1884763 -0.1344152 -0.57103986
0003b0 54 0d a6 be 21 77 fa c0 e5 ce 98 bd 2f 10 21 bf
       -0.32432044 -7.827042 -0.07461337 -0.6291532
0003c0 92 3a c1 3f c6 c3 b1 be 62 cc 30 bd 28 93 d7 3e
       1.5095999 -0.34719676 -0.043163665 0.4210446
0003d0 9d 8a 64 bd 8e f8 12 c0 89 a4 f8 bc 5e 65 f1 3e
       -0.055796254 -2.2964206 -0.030351894 0.4714765
0003e0 70 1f b8 3f fe 8f 03 be f4 81 1a be 71 ad 2d be
       1.4384594 -0.12847897 -0.15088636 -0.16960694
0003f0 ca 1e b9 be 00 67 e8 bf 9c b4 0a be 47 86 0d be
       -0.36156303 -1.8156433 -0.1354546 -0.13820754

fcs1.bias f4 [256]
000000 6b 27 cf bf 40 c5 c4 bf 6d 35 e6 bf 05 fd 0b c0
       -1.6183904 -1.5372696 -1.7985054 -2.187318
000010 ed cc a4 be e4 d2 9f bf 65 7e 7c be c3 c0 60 c0
       -0.32187596 -1.2486234 -0.2465759 -3.5117652
000020 05 0f ad bf 56 50 10 bf d1 83 c9 bf d4 b2 9b be
       -1.3520209 -0.5637258 -1.5743352 -0.30409873
000030 f8 73 d2 3d a5 35 da bf 92 48 86 be fd 61 e5 bf
       0.102760255 -1.7047621 -0.26227242 -1.7920529
000040 04 07 01 c0 28 c8 9a bf d2 94 1e c0 ea a5 68 c0
       -2.0160532 -1.2092333 -2.4778333 -3.6351266
000050 f8 7a 1b c0 69 9d b9 3f 2e 30 6d bf 4b 04 c4 bf
       -2.4293804 1.4501163 -0.9265164 -1.531381
000060 6b 82 48 bf 40 b8 97 bf 9f 94 0b bf 2b c4 86 bf
       -0.78324 -1.1853104 -0.5452365 -1.0528616
000070 55 9d 23 c0 2d e5 d2 bf 26 e3 a3 bf f9 ea 83 bf
       -2.5564778 -1.6476189 -1.2803695 -1.0306083
000080 7d c0 18 c0 33 5c 4c bf f9 b3 db 3f d1 25 d0 bf
       -2.3867486 -0.79828185 1.7164298 -1.6261541
000090 bd 87 27 c0 58 43 00 be f9 1c c0 bf f4 df 74 c0
       -2.6176598 -0.1252569 -1.5008842 -3.826169
0000a0 9a 6c 00 bf 20 63 bc bf 81 59 a8 bf 12 21 7a c0
       -0.5016571 -1.471775 -1.3152314 -3.9082685
0000b0 7d df 4d c0 d2 c9 0b c0 72 8e 37 c0 50 80 c4 bf
       -3.2167656 -2.1841931 -2.8680692 -1.5351658
0000c0 d1 7a 3a bf 5f 74 d9 bf 22 77 16 c0 c8 e4 b9 bf
       -0.7284365 -1.6988639 -2.3510213 -1.4522943
0000d0 0c d5 f8 bf 3c fd c2 bf 8e 9d e7 bf 48 39 13 bf
       -1.9440017 -1.5233531 -1.8094957 -0.5750928
0000e0 bf 6f d9 bf c4 d5 96 bf cf ef 9f bf 09 90 6d 3e
       -1.6987227 -1.1783986 -1.2495059 0.23199476
0000f0 f5 bf 21 c0 fd 2d 49 c0 5d cd a0 bf 49 a1 6e bf
       -2.5273411 -3.143432 -1.2562672 -0.9321485
000100 d9 a6 c8 bf f2 71 f3 bf 35 e1 e6 bf 61 15 f9 bf
       -1.5675918 -1.9019148 -1.8037478 -1.9459649
000110 0c 20 fd bf a8 54 3a be 2f 71 8c bf 65 b6 1f c0
       -1.9775405 -0.18196356 -1.0972041 -2.4955075
000120 a5 0a d8 bf 58 d1 d7 bf 0b b7 01 3f b7 86 d2 be
       -1.6878248 -1.6860762 0.50669926 -0.41118404
000130 d2 96 2d bf c2 7a fe bf 2c 75 ff bf 70 e0 28 c0
       -0.6780826 -1.9881213 -1.9957633 -2.6386986
000140 6d db 1d bf 33 25 1f c0 7d 9c 31 c0 26 45 06 c0
       -0.6166294 -2.4866455 -2.7751763 -2.0979705
000150 c9 d8 a6 bf b7 4a 31 40 75 dd 04 c0 67 5b c4 bf
       -1.3034908 2.7701852 -2.0760167 -1.5340394
000160 1d 4b c4 bf 2d ee 19 c0 e3 5e 5e c0 a8 25 8b bf
       -1.5335423 -2.405162 -3.4745414 -1.0870867
000170 fe 20 cf bf b0 6b dd bf 38 19 c3 bf 0e 56 96 bf
       -1.6181943 -1.7298489 -1.5242071 -1.1745012
000180 55 d9 5f 3f de e2 03 c0 26 ba 4d c0 8d 53 e9 bf
       0.87441 -2.0607219 -3.2144866 -1.8228623
000190 7d 06 af bf 06 72 a9 bf 6d 2d de bf 1a f3 c9 bf
       -1.3673855 -1.3237922 -1.7357613 -1.5777314
0001a0 af a7 ad bf b5 60 12 c0 56 cb b1 3d 03 bf a4 bf
       -1.3566798 -2.2871525 0.086813614 -1.2870792
0001b0 7a 05 e8 bf 30 fc e1 bf 59 72 91 bf 49 44 8f bf
       -1.8126671 -1.7655087 -1.1363021 -1.1192714
0001c0 e9 83 cd bf 7b a2 f3 be 42 4a f8 bf 9c d3 5e bf
       -1.6055881 -0.475849 -1.9397662 -0.8704164
0001d0 56 c9 0f c0 d1 c2 e9 bf c2 fd f8 bf 4d 94 0a c0
       -2.2466636 -1.8262578 -1.9452441 -2.1653016
0001e0 41 bf 37 c0 30 68 2d bf 25 36 23 bf a2 12 eb bf
       -2.8710482 -0.677371 -0.63754493 -1.8365061
0001f0 87 72 b6 bf f9 c6 16 c0 ce 7f 03 bf c2 11 bf bf
       -1.4253701 -2.3558943 -0.5136689 -1.4927294
000200 79 30 8a bf dd 23 d0 bf f5 74 bb bf dd fc 2c bf
       -1.0796043 -1.6260945 -1.4645067 -0.6757334
000210 b9 c5 c4 bf 9c 20 ad bf e1 77 ee bf da 4e 16 c0
       -1.537284 -1.3525577 -1.8630334 -2.3485627
000220 4c 40 69 bf 97 66 38 c0 7f 49 e7 bf 92 3e f0 bf
       -0.91113734 -2.8812616 -1.8069304 -1.8769095
000230 dc e7 db bf 35 4e a9 bf f4 8b a8 bf 8e 54 40 c0
       -1.7180133 -1.3226992 -1.316771 -3.0051608
000240 56 12 06 c0 e6 13 d2 bf 40 66 4f bd e7 77 ae bf
       -2.0948691 -1.6412323 -0.050634623 -1.3630341
000250 24 df 0b c0 15 74 df bf e8 6c e2 be 60 90 0a c0
       -2.1854944 -1.74573 -0.44223714 -2.165062
000260 8c c6 ee 3e 96 1b 40 bf 9a d2 e7 bf d8 99 b8 bf
       0.46635854 -0.7504209 -1.8111145 -1.4421949
000270 e8 86 c2 bf 85 0e b2 be fe e3 cf bf 32 39 2c c0
       -1.519742 -0.34776703 -1.6241453 -2.690991
000280 66 14 ba bf c5 eb c4 bf 86 fa e4 bf 67 82 09 c0
       -1.4537475 -1.5384451 -1.7888954 -2.1485841
000290 de 6d c4 bf 55 92 d2 be 1a 0d af bf df 8e 28 bf
       -1.5346029 -0.41127267 -1.3675873 -0.65843004
0002a0 ba 60 f0 bf 3a 98 52 be 09 83 bd bd 42 bc f6 be
       -1.8779519 -0.20565882 -0.092535086 -0.48190504
0002b0 8a 0b a9 bf c7 f4 0c c0 8f 0c cf bf 2d c7 d6 bf
       -1.3206646 -2.20244 -1.6175708 -1.6779534
0002c0 8c 5a f5 bf 9b 47 57 c0 9e 20 a3 bf 0f 28 1f c0
       -1.9168258 -3.3637455 -1.2744329 -2.48682
0002d0 d7 29 14 40 d4 38 4f be a5 f5 82 c0 b4 5f 23 c0
       2.3150537 -0.20236522 -4.092486 -2.5527163
0002e0 7f e9 2b c0 7b 3d 3f bf e6 48 04 be 26 90 e2 bf
       -2.6861265 -0.74703187 -0.12918434 -1.7700241
0002f0 dd a6 75 bf 37 46 a3 bf 40 f3 eb bf 57 d5 2e c0
       -0.9595774 -1.2755803 -1.8433609 -2.7317712
000300 bc bc a7 bf 84 a5 df bf ca 85 2b c0 24 4d df be
       -1.3104472 -1.7472386 -2.6800408 -0.4361354
000310 4a 4f 9a bf fb 80 54 bf 9e fe 2e c0 24 27 b3 bf
       -1.2055447 -0.8300931 -2.7342906 -1.399632
000320 fb 72 6d bf fd c0 3d be 7e 6c 4c bf 57 c1 5b bf
       -0.9275357 -0.1853065 -0.79853046 -0.8584189
000330 51 b0 7d bf 55 96 7d bf df 5f e7 be d2 a5 31 c0
       -0.9909716 -0.99057513 -0.4519033 -2.7757459
000340 b6 7e c3 bf fa 17 23 c0 42 ac 79 bf a7 25 db bf
       -1.5273044 -2.5483384 -0.9752847 -1.7120866
000350 cc c9 b7 bf a5 e0 2d bf 65 f4 79 bf c1 5d 0d c0
       -1.4358459 -0.67920905 -0.9763854 -2.2088473
000360 9e e9 89 bf 8f 85 21 c0 c2 30 29 c0 18 bc a7 bf
       -1.0774419 -2.5237768 -2.643601 -1.3104277
000370 b7 18 af bf e1 be a8 bf 70 69 08 c0 dd c0 42 bf
       -1.3679417 -1.3183252 -2.1314354 -0.76075536
000380 04 54 07 c0 c9 b6 c3 bf 17 8b d0 bf bd 11 c6 bf
       -2.114503 -1.5290157 -1.6292447 -1.5474163
000390 e9 73 bd bf 4b 04 80 be 18 77 a9 bf 73 9d ab be
       -1.4800998 -0.25003275 -1.323947 -0.33518562
0003a0 42 45 33 be a6 b0 d0 bf e3 04 1c c0 cf 04 10 c0
       -0.17506889 -1.6303909 -2.4377983 -2.2502935
0003b0 66 b3 5f bf f4 da 11 3f f0 b7 2c c0 79 e2 c6 bf
       -0.87383115 0.5697472 -2.6987267 -1.5537864
0003c0 2c 2a 23 c0 62 70 02 c0 f7 e6 17 c0 f2 08 e7 bf
       -2.549449 -2.0381093 -2.373472 -1.8049605
0003d0 a9 d9 27 c0 7e 7c eb bf 5e 3d 5a bf cb ce 0c c0
       -2.62266 -1.8397367 -0.8524989 -2.2001216
0003e0 6d 76 5d c0 ee b2 2d c0 0f 90 d3 bf 53 1d 35 bf
       -3.4603531 -2.714046 -1.6528338 -0.7074787
0003f0 f2 47 ba bf 8e 79 30 c0 64 c4 4c bf 97 c8 f4 bf
       -1.4553206 -2.757419 -0.7998717 -1.9123715

fc2.weight f4 [128, 260]
000000 b9 91 86 bd c5 d0 19 3d 9e 27 47 bc 00 e8 b2 bd
       -0.06570763 0.037552614 -0.012155442 -0.08735657
000010 a7 5b 9a bd d3 37 89 bd 3f 6c bc bc bd 12 1b 3d
       -0.075370125 -0.06700101 -0.023000835 0.037859667
000020 69 dc 8e bd 4d 13 4d bd 17 1a a5 3c 36 f9 e5 bb
       -0.06975634 -0.050067235 0.020154042 -0.0070182336
000030 86 09 3e bd d0 9c 2c be d8 32 3f bc 8f 38 5d 3d
       -0.0463958 -0.16856694 -0.011669837 0.054009017
000040 a9 1e 35 bc c7 f1 81 bc a3 1f 73 bd 84 46 08 bd
       -0.011054673 -0.015862359 -0.059356343 -0.033270374
000050 23 a0 e4 bc aa be 7e bd c2 a8 73 bd ff c4 57 bc
       -0.02790839 -0.06219355 -0.059487112 -0.013169526
000060 a4 3e 57 bd e7 d3 65 be 02 df e1 bd e4 fa 0e bd
       -0.052549973 -0.22444116 -0.110288635 -0.034907237
000070 8f 06 6a be 07 ff 63 bd 53 fe 8b 3c 18 34 67 bc
       -0.22854064 -0.055663135 0.017089045 -0.014111541
000080 6c c1 55 bd 3a e4 4a 3b f6 20 b1 bd 96 26 ce bd
       -0.052186415 0.0030958788 -0.08648865 -0.100659534
000090 07 bf df bc 4e 3c ea bd 45 a2 20 3d 34 d0 53 3c
       -0.027312769 -0.114372835 0.039217252 0.012928057
0000a0 08 0a e2 bd 48 02 42 3b 23 fd 98 bd ba 6b c9 bd
       -0.110370696 0.002960341 -0.07470157 -0.09835
0000b0 85 7c ac bd b9 d6 17 bd c6 39 8e 3d 3d e5 8b bd
       -0.08422188 -0.03707001 0.06944613 -0.06830833
0000c0 a6 9a 9d bd 5a a4 94 bd 2a 8b 77 bd 08 44 18 3d
       -0.076955125 -0.0725791 -0.06043545 0.037174255
0000d0 e4 60 43 bd 7e f3 c9 3c eb 26 5a bb 48 42 aa bd
       -0.047699824 0.024652239 -0.0033287357 -0.083134234
0000e0 7c 68 d7 bd 3b 0f 41 bd 43 35 fb 3c 13 4e 65 3d
       -0.10517976 -0.047133666 0.030665046 0.05598266
0000f0 11 c3 f8 bb ab 7a c2 ba 8d 8a 7f be c2 ea 4a 3d
       -0.007591613 -0.0014837583 -0.24955197 0.04954029
000100 6f 34 3a bc eb 77 8a bd 85 fc 48 bc 29 f2 ff bd
       -0.01136504 -0.06761154 -0.012267237 -0.1249736
000110 f2 39 80 bd e6 d1 a3 bd 0d f9 74 bd 8d 62 2d bd
       -0.06261052 -0.07999019 -0.059807826 -0.042330313
000120 36 80 f2 3c 1d 23 8c 3b d3 ab 25 be ce 88 63 bd
       0.029602151 0.0042766468 -0.16178827 -0.05555039
000130 97 cc 9c 3a c7 61 93 bd 9c 22 6e bc 6a 13 37 3d
       0.0011962828 -0.07196384 -0.014534619 0.04469625
000140 56 8d f3 3c 9b 73 59 bd 55 38 28 bd 96 da 47 bd
       0.02973048 -0.053088766 -0.041069347 -0.048792444
000150 d3 50 02 be 69 26 22 bd 13 db ce 3c 3f 59 1b be
       -0.12726144 -0.039587412 0.025250947 -0.15170763
000160 89 55 8f bb c9 4d 9a bd 0a 0b ca 3c 64 cd 35 be
       -0.0043742103 -0.075343676 0.024663467 -0.17754132
000170 a3 67 83 bc 73 d2 aa bd 58 28 68 bd 70 59 04 3d
       -0.016040629 -0.08340921 -0.0566791 0.032311857
000180 13 fe 48 bd 6f a4 1f be 01 e8 d4 3c 74 6a 43 bd
       -0.04907043 -0.1559007 0.025989534 -0.047708943
000190 ee be 88 bd cc ec e0 3c 28 c2 c1 3c 4d b3 a9 bd
       -0.06677042 0.027456664 0.023652151 -0.08286152
0001a0 0c 30 80 3c 73 0a 0b be c1 6b 51 bd 48 91 65 bd
       0.01564791 -0.13578205 -0.051128153 -0.056046754
0001b0 d8 dc 2f bd 69 de 7c bd ff 7b 0c be 2c ea b9 bd
       -0.042935222 -0.061735544 -0.13719176 -0.09077868
0001c0 9b 63 8f bd 49 6e 63 bd d9 98 b3 3b a2 78 25 bd
       -0.0700142 -0.055525098 0.0054808673 -0.040398248
0001d0 49 d1 85 3c eb fe 1f bd 0d 89 6d 3b 37 7a 33 be
       0.016335147 -0.039061468 0.0036245019 -0.1752709
0001e0 31 0e 5c 3c 1a 2e 3d bc 05 7e d2 3b f0 fd b7 bd
       0.013431118 -0.011546636 0.006423714 -0.089839816
0001f0 f8 5c 95 bd 3b 2a a6 3c b2 25 a8 3d cb f4 87 bd
       -0.07293123 0.020283809 0.08210315 -0.066384874
000200 97 67 fe bb 6e 75 a2 be 47 ff bc ba 2c c4 9a bd
       -0.0077638137 -0.31730217 -0.001441934 -0.07556948
000210 77 88 16 3d 33 27 a0 bb 64 5c 2a bd 63 f3 a2 3c
       0.036751237 -0.0048874854 -0.041592017 0.019891446
000220 f8 a6 6a be a3 55 9f b9 d6 a9 be bc 7e ba 46 3d
       -0.22915256 -0.00030390648 -0.023274343 0.048517697
000230 21 c9 04 3c 09 be b7 bd df 70 80 3c de 6f 92 bd
       0.0081045935 -0.08971793 0.015678821 -0.07150243
000240 42 b8 11 bd 3d c5 24 3d ef c4 44 bd 52 b0 10 be
       -0.035576113 0.040227164 -0.048039373 -0.14129761
000250 b6 2e d4 3d 6a 76 89 be df a2 a1 bd 18 83 45 be
       0.10360472 -0.26848155 -0.07892393 -0.1928829
000260 9a 66 00 be 80 a4 de bb 7f bf 64 bb e2 b1 be bd
       -0.1253914 -0.0067945123 -0.003490418 -0.09311272
000270 dd 63 cf 3d 09 c9 fb bc b9 49 e1 ba 43 e5 1c be
       0.10126469 -0.03073551 -0.0017188109 -0.15321831
000280 17 28 ad bd f9 67 85 bc 9d 44 4c bd fb f7 0d 3c
       -0.08454912 -0.01628493 -0.049870122 0.00866508
000290 5f 23 35 3d 82 2f 89 3c 7a 0e 08 be bc e1 9f 3d
       0.044223186 0.016746286 -0.13286772 0.07806727
0002a0 45 ab 05 be 41 6c d6 3d a2 4a 48 be db 53 52 3d
       -0.13053615 0.104698665 -0.1955972 0.051349502
0002b0 99 13 8a bd b9 56 36 bc 93 37 ce 39 3f e8 3a 3d
       -0.06742019 -0.011129075 0.00039332788 0.045631643
0002c0 7d b0 15 be 02 08 89 bd 05 e7 8b bd 28 61 8d bd
       -0.14618106 -0.066909805 -0.06831173 -0.06903297
0002d0 b2 73 8a bd d6 a5 e2 3c b0 4a 33 be ca 43 bf bb
       -0.067603484 0.027666967 -0.1750896 -0.0058369385
0002e0 e1 eb 80 3c 34 9b 2a be 31 57 50 bd 3f 7f 80 bd
       0.015737476 -0.16660768 -0.050864402 -0.0627427
0002f0 03 78 bf bd 36 91 33 3e b2 bd c0 bd 82 5c 9b bd
       -0.09349062 0.17535862 -0.094111815 -0.07586004
000300 88 a9 df bc 2c 14 c5 3a 16 6e a9 bd 71 6e 25 bd
       -0.027302518 0.0015035919 -0.0827295 -0.04038853
000310 ef 8f 31 be c6 a1 fb bc af 77 46 bd 23 df bb bd
       -0.17340063 -0.030716788 -0.048453983 -0.09173419
000320 9f 8b 05 be 71 f4 8c bd f7 79 ae bd 38 fc 1b bd
       -0.13041542 -0.06882561 -0.08519357 -0.03808233
000330 a7 9a 35 3d 4f 03 8b 3c 2a 9b 54 bd ff bd 14 bb
       0.04433694 0.016969351 -0.05190579 -0.0022696254
000340 ab 99 bd 3d 18 13 71 bb 38 68 d3 bd c7 a6 c5 bd
       0.092578255 -0.0036785062 -0.103226125 -0.09650951
000350 e3 62 02 bb f6 e1 5c bc 50 1d 12 be 4a c9 e4 bc
       -0.0019895367 -0.013481608 -0.14268994 -0.027928013
000360 35 91 9e 3c 67 3b 1a be bc 19 08 3d 41 ae a2 bd
       0.01935635 -0.15061723 0.033227667 -0.079433925
000370 ea 25 1e bd 1d a9 cd 3c 63 56 e1 bd ed 5a 5c be
       -0.038610376 0.025105054 -0.11002805 -0.2151906
000380 2c 03 af 3c 0e 9a fb bd ac 82 a2 bd 02 39 08 be
       0.021363817 -0.12285243 -0.0793508 -0.13302997
000390 dd 11 91 bd 40 5b f4 3b d9 13 c3 bd b3 fe a1 bd
       -0.07083485 0.007457167 -0.0952527 -0.07909908
0003a0 90 94 32 3d 92 2a 7f bd 6e 78 be bc 5e 3f 4e bd
       0.04359871 -0.062296458 -0.023250785 -0.0503534
0003b0 92 f5 c6 bd 86 48 20 bd 48 0c 26 3d 42 01 a1 bc
       -0.097148076 -0.039131664 0.040539056 -0.01965392
0003c0 4d 5a 8d bb f3 a2 08 be 7d 40 29 bd bc 8e c6 bd
       -0.004313743 -0.1334341 -0.041321266 -0.09695193
0003d0 6f 76 e7 3c 7e d4 06 bd 37 b8 5e bd 25 99 a2 bc
       0.028254716 -0.032917492 -0.0543749 -0.019848416
0003e0 91 3c 16 bd 7f ca b7 bd ea 02 82 bd 04 fe 44 bc
       -0.036678854 -0.0897417 -0.06348212 -0.012023453
0003f0 5f d8 27 3d c6 66 be 3d 1f 68 9e b9 8a 10 4f bd
       0.040977832 0.09296946 -0.00030213685 -0.050552882

fc2.bias f4 [128]
000000 5a 6e 9e be e6 4d b9 be 79 82 99 be 52 64 1c be
       -0.30943567 -0.36192244 -0.29982355 -0.15272644
000010 e5 99 d8 bf 35 66 ef be 16 3a 84 be d1 ee 17 3e
       -1.6921965 -0.46757665 -0.25825566 0.14837195
000020 19 de 32 bf eb 24 9d be be 1b 7a be 39 21 0e bf
       -0.69870144 -0.3069223 -0.24424645 -0.55519444
000030 ee c6 97 be 3e 82 e9 3f 96 4c 72 be 61 30 6c bf
       -0.2964396 1.8242872 -0.23662028 -0.9226132
000040 06 ae 7d be e0 84 84 be 19 d4 75 bf c8 24 8c be
       -0.24773416 -0.25882626 -0.9602676 -0.27371812
000050 e9 3b 5b be d9 64 b3 bf 69 cd be bf e4 fd 51 be
       -0.21409573 -1.4015151 -1.4906436 -0.20507008
000060 ca 2d 93 be 8f 0e a5 be 80 67 57 bf 33 fb 64 be
       -0.28745872 -0.3223767 -0.84142303 -0.2236145
000070 08 9d 29 be 61 e6 48 bf 7f 75 13 bf e6 67 af be
       -0.16563809 -0.7847653 -0.5760116 -0.34258956
000080 19 c3 40 c0 8e 86 75 be 73 ae 90 bf ed 55 9c be
       -3.0119078 -0.2397711 -1.1303238 -0.30534306
000090 ea 10 3b be 04 21 7f be 48 4c 71 bf e8 77 81 bf
       -0.18268171 -0.24914938 -0.9425702 -1.0114717
0000a0 9d 87 80 be 6a d8 91 be db 29 6f be b8 7e 8a bf
       -0.25103465 -0.28485423 -0.2335581 -1.0819921
0000b0 43 ba d5 be 8c dc bb bf e7 9d 92 be 2c 6c 6d be
       -0.4174367 -1.467668 -0.28636095 -0.23185796
0000c0 4e e8 4b be 9a 13 74 be 79 5d 93 be f3 c4 1f bf
       -0.19912836 -0.23835602 -0.2878225 -0.62409896
0000d0 3e c6 8d bf e2 6d b7 3f 32 cf a4 be 3a fa 8b be
       -1.1076124 1.4330409 -0.32189327 -0.27339345
0000e0 65 65 0a 3f 8e 4f a0 bf 25 e0 50 be 6d be b1 bf
       0.54060966 -1.2524278 -0.20398004 -1.3886238
0000f0 b6 83 a1 be 65 1e 93 be 2e b8 24 be 22 e1 e7 bd
       -0.315458 -0.28734127 -0.16085884 -0.113222376
000100 b9 61 ef be db f3 a9 be 90 df 06 bf 86 e7 22 bf
       -0.46754244 -0.3319386 -0.5268488 -0.63634527
000110 3e fe 8d be 32 61 0c bf cf 57 d1 be 20 bf 8c be
       -0.27733034 -0.5483581 -0.40887305 -0.27489567
000120 be e1 3c bf 30 fc 04 bf ed c9 1b c0 8c 95 44 bf
       -0.73781955 -0.5194731 -2.4341996 -0.7679069
000130 c9 01 9e bf bb 7f 5f be 55 46 2b c0 22 c6 36 be
       -1.2344295 -0.21826069 -2.6761677 -0.17849019
000140 f1 39 af bf a1 5c 02 be b0 20 17 be 25 6a 01 be
       -1.3689557 -0.12730648 -0.14758563 -0.12638147
000150 b8 53 ba 3f 4a c7 b9 be bb 17 fd bd f1 72 3d bf
       1.4556799 -0.36284858 -0.12358042 -0.7400351
000160 4f db 16 c0 af aa a8 40 b0 9b 16 be ff ad 1a be
       -2.3571355 5.2708354 -0.14707828 -0.15105437
000170 34 41 bf be ee ed b7 bf 56 26 90 bf 86 73 f9 be
       -0.37354434 -1.4369485 -1.1261699 -0.4872095
000180 88 67 46 bf 73 8b 37 be 78 ac 76 be c6 3e 3e bf
       -0.77501726 -0.1792429 -0.24089229 -0.74314535
000190 f3 5d 87 be 4c 1d d5 bd 41 04 75 be 33 c5 99 be
       -0.26438865 -0.104059786 -0.23927404 -0.30033264
0001a0 b9 5d 0f 3f d1 df 75 c0 0d e5 7e be 03 aa 6c be
       0.56002384 -3.8417857 -0.24892063 -0.2311173
0001b0 cd a3 c2 bf 23 b6 2e 3f 39 b7 ec bf a5 55 26 bf
       -1.5206238 0.6824667 -1.8493415 -0.64974433
0001c0 ae 55 86 be d7 a8 45 be b1 ac 97 bf ca 46 2a bf
       -0.26237243 -0.19302689 -1.1849576 -0.66514266
0001d0 d7 e5 ea bf 78 e9 be be 7e 16 80 bf 2e 14 6e be
       -1.8351392 -0.37287498 -1.0006864 -0.23249885
0001e0 27 ea 01 be 21 36 a3 be 8e 11 6b be 06 1c 8d 3f
       -0.12686978 -0.31877235 -0.22955915 1.1024177
0001f0 c9 c0 62 3f de 34 1b bf 77 bb 17 bf b7 87 2f bf
       0.88575417 -0.60627544 -0.59270424 -0.6856646

fc3.weight f4 [1, 128]
000000 05 d6 e2 bb 7c 58 03 3b ad 7d 95 3c b5 f8 71 3c
       -0.006922486 0.0020041754 0.018248403 0.014768769
000010 7b 13 d8 3c 5d 96 d9 bc 05 01 15 bc e0 26 28 3d
       0.026376477 -0.026560957 -0.009094481 0.0410527
000020 ac 5c 77 bc 39 57 0b 3b 1e e5 c7 bb 66 de 52 bc
       -0.015097778 0.0021261706 -0.006100311 -0.012870407
000030 35 fd dc 3c d6 07 52 3c a1 f6 bf 3c d1 69 6a 3c
       0.026976207 0.012819251 0.023433032 0.014307455
000040 ec 3f fe 3c d4 6d bc 3c 5a e8 86 3c 4f 79 bc bb
       0.03103634 0.023001589 0.016468216 -0.005751766
000050 de a4 c9 bc 85 e8 00 bd b8 81 9f 3b e4 8b 60 bc
       -0.024614748 -0.031471748 0.0048677586 -0.0137052275
000060 15 2c 9b bc de fa 57 3c 2c bb 82 bc 2f 99 6d bc
       -0.018941918 0.01318237 -0.015958391 -0.014501854
000070 52 87 d5 3c f6 63 22 3c ca dd bd bc c7 84 b4 3c
       0.026065502 0.009911528 -0.023177046 0.02203597
000080 51 70 91 bc 30 f4 d5 bc e9 62 be bb 36 76 9c bc
       -0.017753752 -0.026117414 -0.005810131 -0.019099336
000090 15 49 9a bc 1d f2 f9 bc 7b 6d 32 bd 7f 51 3d 3c
       -0.018833676 -0.030510956 -0.04356144 0.011555075
0000a0 e4 93 cc 3c d0 70 c9 bc 8f b3 ce 3c 71 3e c4 3c
       0.024972863 -0.024589926 0.025232105 0.023955556
0000b0 31 fc 0d 3c 25 9b 47 bb c4 59 e8 3b 09 d8 06 3d
       0.008666084 -0.0030457464 0.007090779 0.03292087
0000c0 45 4e 30 bc d3 a5 a4 3c 06 97 79 bc 17 38 10 3b
       -0.010760848 0.020098602 -0.015233761 0.0022006088
0000d0 60 c9 e4 3c 62 86 2f bc 16 7a d4 bb fb 46 ba 3c
       0.027928054 -0.010713192 -0.0064842803 0.022738924
0000e0 93 ed 37 3c 2a b9 fb bc 2f 01 a6 3c f3 14 d2 bc
       0.011226076 -0.030727942 0.020264236 -0.025644755
0000f0 43 c6 8e bb a6 09 fd ba 14 83 b3 3c 9c 3e e8 39
       -0.0043571307 -0.0019305244 0.021913089 0.00044297136
000100 ef 64 92 bd a4 fa 07 bc cd 31 1c 3c 88 fb f0 3b
       -0.07148158 -0.0082995035 0.009533358 0.0073542036
000110 ee 30 93 3c 74 a7 9d 3c 92 3f 06 bd 07 8d 30 3c
       0.017967667 0.019244887 -0.03277547 0.010775811
000120 e5 5c 16 bb 2f 85 80 bc be 30 a4 bc be ce b7 3c
       -0.0022943553 -0.015688507 -0.020042773 0.02243745
000130 7d 53 91 3c e2 15 81 bc 05 6d b7 3c 5c a7 9c 3b
       0.017740006 -0.015757505 0.022390852 0.004780693
000140 3d 82 72 bc 2a 3f 79 bc 35 62 25 3b 3f e5 89 3b
       -0.014801559 -0.015212813 0.0025235538 0.0042082365
000150 3c f6 62 bb 04 01 98 bc de e8 c1 3c 1b db 3b 3c
       -0.003463163 -0.018555172 0.02367061 0.011465813
000160 4c f4 5b 3b b0 3a 70 3c 0b 2f 74 bc cb aa ec bb
       0.003356236 0.01466243 -0.014903794 -0.0072225085
000170 e5 7a 69 3c cd b5 50 3c ae ab 98 bb 41 99 ab 3b
       0.014250492 0.012738657 -0.0046591377 0.005236775
000180 e2 01 f9 bb 80 a5 de 3b c2 d6 ab 3c 4d 39 c4 3b
       -0.0075991014 0.0067946315 0.020976428 0.005988276
000190 5e 35 04 3d b1 32 7a 3b e1 27 b2 bc 69 fe 4d bc
       0.032277457 0.0038177187 -0.021747531 -0.012572863
0001a0 78 f1 3b 3c 2d f3 fd bc 90 35 ed 3c 48 b3 05 bb
       0.011471145 -0.030999744 0.028956205 -0.002040105
0001b0 c5 bd 69 ba 31 f3 07 bc 16 e4 e2 3c 5e e2 25 3c
       -0.00089165225 -0.008297727 0.02769665 0.010124771
0001c0 1d 58 f8 3b 61 8f d9 bc bc 6c 22 bb 6f 93 28 bc
       0.0075788633 -0.026557626 -0.002478405 -0.010289057
0001d0 a9 f7 f8 bc cd db 9a 3c 3d 35 91 bc 4d 6f 3c 3b
       -0.030391531 0.018903637 -0.017725581 0.0028752864
0001e0 8f d8 1d bc 3b c4 c0 3c 0d c4 c1 3b a4 d8 76 3c
       -0.009634151 0.02353107 0.0059132637 0.0150663
0001f0 8f 76 b1 bc 8a 71 d7 bc b1 9a cd 3c 85 1b d2 3c
       -0.021662978 -0.026299257 0.025098177 0.025647888
