p3_collab-compet/models/critic_0.pth (torch_old, 185256 bytes, 5 tensors)

fcs1.weight f4 [256, 48]
000000 5e 5c ee 3e ff 04 5a 3f d8 f9 ff bb dc 1f 4f 3d
       0.46554846 0.85163873 -0.007811766 0.050567493
000010 66 cc 53 bf d5 01 57 be 44 4b c4 bc 34 d7 a5 3d
       -0.8273376 -0.20996793 -0.02396167 0.08097687
000020 8f 4f c5 3e 9d 4c 5f 3f 3c 7d 2b be f3 7e 31 bd
       0.3853726 0.8722628 -0.16746992 -0.04333396
000030 f0 7f 03 bf df 29 24 bf 08 fd 79 bd ce 39 a4 bd
       -0.5136709 -0.6412639 -0.061032325 -0.08018838
000040 4a a6 9f 3e 7e 29 87 3f 26 e2 47 be 02 5c 8a 3d
       0.31181556 1.0559537 -0.19519863 0.0675583
000050 ac cc a2 bd 1c e7 6d bf a6 1a 1f be 4f 8a b4 bc
       -0.07949194 -0.9293077 -0.1553751 -0.022038607
000060 e9 63 8d 3f f2 82 e0 3f a8 38 00 be ad e7 55 3f
       1.1046115 1.7539961 -0.12521613 0.83556634
000070 2e d2 41 3f 9b 2b 8c be 50 7a 25 be e5 93 5e 3f
       0.75711334 -0.27377018 -0.1615994 0.8694442
000080 34 a4 61 3f 24 eb d5 3f ad c4 33 3d ea 6a 00 3e
       0.8814118 1.6712384 0.043888737 0.12540784
000090 40 ed ed 3e 07 83 1d bf 74 8b bb 3c f9 74 39 3e
       0.4647007 -0.61528057 0.022893645 0.18111028
0000a0 32 c6 0f 3f 8c 07 c5 3f 91 06 46 be f8 88 6a be
       0.561618 1.5392928 -0.19338442 -0.22903812
0000b0 51 4d 16 3d 5e 30 6e bf 37 f5 3e be 1e d9 1b be
       0.03669483 -0.9304255 -0.1864823 -0.15219542
0000c0 e8 70 fb be ef 33 a6 bf 23 63 7e bd c1 5c 4c bd
       -0.49109578 -1.2984599 -0.062106263 -0.049893145
0000d0 ce cb 8e bf 25 cb 16 bf 44 02 c1 bd 4e 65 b9 3c
       -1.1155946 -0.58903724 -0.0942426 0.022631314
0000e0 13 14 44 bd f5 3f aa bf 56 2e 10 bd 9d 1a 5c be
       -0.047870707 -1.3300768 -0.03520044 -0.21494527
0000f0 0f bf 88 3e 54 9a 56 bf 60 81 30 bd 8d bf 49 be
       0.26708266 -0.83829236 -0.04309213 -0.19701977
000100 60 7d 94 3e fa 30 8f bf 7f ce 0d 3d 76 ed 69 3e
       0.29001904 -1.1186821 0.03462076 0.2284449
000110 5f 49 be 3f 44 f4 ab 3c f7 d6 82 3c 6c 2c 15 3e
       1.4866141 0.020990498 0.015971644 0.14567727
000120 c9 7c 69 be ad 1b 00 c0 7a fd ee 3c a6 a5 57 be
       -0.22801508 -2.0016892 0.029173601 -0.21059284
000130 a3 65 84 3f 03 cc 10 bf 43 fb 8d bc 9c 68 62 be
       1.0343517 -0.565613 -0.017331725 -0.22110218
000140 69 eb e6 3e b9 dc 8b bf 42 e0 94 bc 18 87 c3 bc
       0.4510148 -1.0926734 -0.01817334 -0.023868129
000150 59 7d a7 be 66 ed 4b bf 36 84 ac 3c 31 e6 82 bd
       -0.3271282 -0.79659116 0.021059137 -0.06391562
000160 54 8b 52 3f 90 7d 3b bf 16 23 24 bb fe e5 01 bf
       0.8224385 -0.7323847 -0.0025045327 -0.50741565
000170 e7 7f bd bf 88 0e ac 3d 5d 45 be bc 14 62 f7 be
       -1.4804658 0.08401209 -0.023226434 -0.48317015
000180 34 26 9f 3c 27 ad c3 be a3 e7 dc 3d 33 02 63 3e
       0.019427396 -0.38218042 0.10786369 0.22168808
000190 2e 74 36 bf ec b8 25 bf 6b 06 c0 3d d9 e1 a1 3e
       -0.71271026 -0.64735293 0.09376224 0.3161762
0001a0 76 75 5b 3e 2d d0 73 be 31 b4 18 be a8 6e 1a 3e
       0.21431527 -0.23809882 -0.14912488 0.15081275
0001b0 3f 42 0c bf 8d 8a 6c bf ae ee 4c bd ff 92 04 3e
       -0.54788584 -0.9239891 -0.05003231 0.129467
0001c0 50 9e e2 3e 23 d9 05 bf 05 9d 66 bd 74 ae 1c bf
       0.44261408 -0.5228445 -0.05630209 -0.61203694
0001d0 e3 88 3f be 53 44 59 bf fb 3f 0b 3d 55 44 ff be
       -0.18704562 -0.8486988 0.033996563 -0.4985682
0001e0 5b 6e 91 3d 04 33 6b bd a0 85 58 be 0d 4f 2b bf
       0.07101127 -0.0574217 -0.21144724 -0.66917497
0001f0 40 b9 37 3f aa 11 22 bf 53 9d 05 be 37 2c 3f bf
       0.71767044 -0.63308203 -0.13048296 -0.7467684
000200 97 58 2f 3f b5 3c e6 3d 83 84 4f bd 40 39 7a be
       0.6849455 0.11242048 -0.050663482 -0.24435902
000210 65 a3 12 3f 37 a7 71 bf 7c 2f 84 bd 32 ab 71 be
       0.5728057 -0.94395775 -0.064543694 -0.23600462
000220 98 4f 44 3f f2 4f a8 3e 75 6a 2a be 2d 1b e8 be
       0.7668395 0.32873493 -0.16642173 -0.45333233
000230 e3 93 54 3e 29 d8 4f bf 45 0e 15 be 1b f8 c6 be
       0.2075954 -0.8118921 -0.14556225 -0.38861164
000240 37 e0 a5 be 67 f8 a5 bf f4 43 5f bd 5c be 3f bf
       -0.32397625 -1.2966431 -0.054508165 -0.7489984
000250 b4 4f 93 3e c0 d9 be be 2c 9e bb bd 50 ad 39 bf
       0.28771746 -0.37275505 -0.09161028 -0.7253008
000260 f7 d0 eb be e2 a1 97 bf 12 8b ef bd 42 d0 78 3e
       -0.46057865 -1.1846278 -0.116964474 0.24298194
000270 3d 1a 94 3d e5 76 8f bf 44 9e 6c bd 4b 02 05 3e
       0.07231567 -1.1208159 -0.05776812 0.12989156
000280 ac 90 ca be 64 0a 81 bf 56 3c 83 be fc c0 c6 bc
       -0.395635 -1.0081296 -0.2563197 -0.024261944
000290 00 3e 8d bd 4e 62 84 bf 31 82 a2 be 14 99 ad 3c
       -0.06896591 -1.03425 -0.31739953 0.021191157
0002a0 a4 1b f4 3f 62 8d 8b bf 97 11 24 be a4 8e 89 3f
       1.9070935 -1.0902522 -0.16022335 1.0746655
0002b0 26 16 a4 be 7a 7a ed be 4e 97 ff bd fe d7 8f 3f
       -0.32048148 -0.46382505 -0.12480031 1.123779
0002c0 2f 08 05 40 0b 6a 99 bf 87 70 ce bd 53 4d 6f 3e
       2.0786245 -1.1985487 -0.10080057 0.2336934
0002d0 3c dc 90 bd 62 0b 8b bf bf 77 54 be 7d db 43 3e
       -0.070732564 -1.0862849 -0.20748805 0.19126697
0002e0 2b f0 4a 40 42 13 9d bf e5 b5 d0 3b d6 c0 9b 3d
       3.1709087 -1.2271502 0.00636934 0.0760514
0002f0 98 05 c9 3d e3 0a 87 bf 9d 10 d4 bb 9b c2 6f 3d
       0.0981552 -1.0550197 -0.006471707 0.0585352
000300 75 73 b3 be 90 96 f2 3f 08 08 6a 3d 71 46 5a be
       -0.35049024 1.8952198 0.057136565 -0.21315934
000310 de 78 cd 3e 10 b7 4f bf bb 61 84 bc 48 cb 73 be
       0.40131277 -0.81138706 -0.016159883 -0.23808014
000320 f0 b7 58 be b1 e8 f5 3f da 97 a7 bc 34 28 4f 3c
       -0.21163917 1.9211637 -0.02045815 0.0126438625
000330 4b 07 7e 3e b5 9e ef bf 4f aa fa bb 06 03 d0 3d
       0.2480747 -1.8720309 -0.007649697 0.10156827
000340 7c 74 a3 be d9 23 0a 40 e5 d2 35 bd e1 50 da be
       -0.31924808 2.158438 -0.044390578 -0.4263983
000350 76 bb b5 3d 59 40 57 c0 2c dc 70 b9 67 e4 d6 be
       0.08873646 -3.3633025 -0.00022970204 -0.41971132
000360 87 52 9b 3e cd 09 45 be 43 30 ff 3b bd 29 28 bf
       0.303364 -0.1924202 0.0077877357 -0.6568869
000370 e4 18 d8 be e4 32 3f bf b9 60 3f 3c cd 75 24 bf
       -0.4220649 -0.7468703 0.011680775 -0.6424225
000380 f2 0d a9 3d e6 0b bd 3e 74 68 8f bd ff 3c 33 3f
       0.08254613 0.3692314 -0.07002345 0.7001495
000390 3a fd 26 be 7b 80 fa bf 46 1e bb 3c 5d 68 4c 3f
       -0.16307536 -1.9570459 0.022841584 0.79846746
0003a0 d5 20 d6 3d 38 d5 30 3f d7 5c 8a bd 84 b3 90 bc
       0.10455481 0.69075346 -0.06755989 -0.017663725
0003b0 0c 6e 88 bd 6f 82 5b c0 0c 4e fe bb cd 35 9b bd
       -0.06661615 -3.429836 -0.0077607688 -0.07578621
0003c0 cd 43 2f 3f 55 4e 94 3e 92 e3 41 be 3f 06 5d 3e
       0.6846283 0.28966013 -0.18934467 0.21584414
0003d0 7e df 1e 3e 15 ad 88 bf 20 c5 34 be 5a 55 88 3e
       0.15514943 -1.067782 -0.17653322 0.26627618
0003e0 25 9c 28 3f 3a 4c 15 3f 42 46 b0 be 5a 9d 49 bd
       0.6586326 0.5831944 -0.34428602 -0.049222328
0003f0 a2 e9 77 be 81 5c 5d bf 7c 5f a8 be 3f 04 92 bc
       -0.24210218 -0.86469275 -0.3288535 -0.01782429

fcs1.bias f4 [256]
000000 2a f5 8b be c7 e9 97 bf f3 0b 96 bf 81 2f a4 bf
       -0.27335483 -1.1868218 -1.1722397 -1.2826997
000010 7c da 1e be 78 b8 1a bf 65 7e 7c be d2 bc ff bf
       -0.15513033 -0.60437727 -0.2465759 -1.9979498
000020 84 0a dc be a1 f7 ca bd 31 f8 69 bf 47 69 6f 3e
       -0.42976773 -0.09910513 -0.91394335 0.23380004
000030 17 02 fc 3e a6 6a 45 bf 48 24 64 bd d9 9d a2 bf
       0.49220344 -0.7711586 -0.055698663 -1.2704421
000040 97 6f 48 bf f8 30 83 bf 39 ed d1 bf 88 95 90 bf
       -0.7829527 -1.0249319 -1.640052 -1.1295633
000050 4a 21 96 bf 17 5a 16 3f 17 c2 9d 3d ab e1 13 bf
       -1.1728909 0.58731216 0.07703035 -0.57766217
000060 41 65 da bd 61 28 1f bf ec 31 2e 3e a8 fd ef bd
       -0.10663844 -0.6217099 0.17011231 -0.11718303
000070 77 9c 91 bf 52 82 4c bf 78 b8 28 bf ae 59 c8 bc
       -1.1375874 -0.79886353 -0.65906477 -0.024456825
000080 af 4d 81 bf bc 49 68 be 0d 43 68 3f ed d9 1a bf
       -1.0101832 -0.22684377 0.9072731 -0.6048878
000090 29 c8 b4 bf f4 1e c3 bd 31 3c 52 bf c6 0d 01 c0
       -1.4123584 -0.09527388 -0.82123095 -2.0164657
0000a0 e4 86 fa be 36 5b 06 bf c9 3f 2c bf dd 15 25 c0
       -0.48931038 -0.52482927 -0.6728483 -2.5794594
0000b0 f2 ac 4f bf 73 bc 28 bf 11 68 d1 bf b1 68 14 bf
       -0.8112327 -0.6591255 -1.6359884 -0.57972246
0000c0 a7 49 10 be be 18 8c bf b1 76 9a bf 8f 15 41 bf
       -0.14090596 -1.0945051 -1.2067472 -0.7542352
0000d0 b6 fe 8f bf d9 29 9e bf 77 32 cb bf 58 74 4f 3e
       -1.1249607 -1.2356521 -1.5874776 0.20259225
0000e0 fa 48 45 bf 21 8c 98 bd 7d 85 a6 bf 40 fd a2 be
       -0.7706448 -0.074486025 -1.3009487 -0.3183384
0000f0 7e 4c 96 bf 8a c2 b6 bf 5f 5e 08 bf 18 e0 49 be
       -1.1742094 -1.4278119 -0.53269 -0.19714391
000100 e5 32 98 bf e4 67 87 bf 18 a5 2f bf 2d 0e 80 bf
       -1.1890532 -1.057858 -0.6861129 -1.0004326
000110 90 a2 07 bf a8 54 3a be 5a 41 4a bf ac 9a d0 bf
       -0.52982426 -0.18196356 -0.7900597 -1.6297202
000120 c3 ad 28 bf 56 f2 82 bf f8 26 06 3f c9 7c 5c be
       -0.6589014 -1.0230205 0.5240321 -0.21531977
000130 57 44 4e be 7b 15 62 bf 39 75 c5 bf ed 05 b7 bf
       -0.20143257 -0.88314027 -1.5426399 -1.4298683
000140 6e 1a db bd 82 2f 90 bf b9 01 da bf 5d f3 c2 bf
       -0.106984004 -1.1264498 -1.7031776 -1.5230519
000150 4a f0 0d bf 15 46 97 3f 31 4e 3d bf d5 ad 89 bf
       -0.55444777 1.1818262 -0.73947436 -1.0756174
000160 a3 b2 16 bf 6e 85 9b bf bd 7c 1c c0 97 69 80 bf
       -0.5886633 -1.2150095 -2.4451134 -1.0032223
000170 2f 5b 61 bf e6 df 15 bf 3d f9 55 bf 7b d3 a8 be
       -0.8802976 -0.58544767 -0.8358343 -0.32973847
000180 52 2e 6e 3f 88 3b 55 bf 7b d5 86 bf 66 1e 4c bf
       0.9303943 -0.8329396 -1.0533899 -0.79733884
000190 16 4a 25 bf a1 d3 a0 bf e1 62 5b bf b4 30 80 bf
       -0.6456617 -1.2564584 -0.8569775 -1.0014863
0001a0 1b ec 8f be ab 85 81 bf bd 04 17 3f 47 6f 84 bf
       -0.28109822 -1.0118917 0.58991605 -1.0346459
0001b0 08 1e 8a bf 93 5a 35 bf 11 fb 00 bd 8d af e6 be
       -1.0790415 -0.7084133 -0.031489436 -0.4505581
0001c0 69 fb c9 be 9b 30 cb 3d 09 ea 83 bf 9b 0e 21 bf
       -0.39449623 0.0992138 -1.0305797 -0.6291291
0001d0 0b 24 94 bf 7d 01 f8 bc 97 cb 88 bf 57 d0 87 bf
       -1.15735 -0.030274147 -1.0687131 -1.0610455
0001e0 cf 99 91 bf b3 98 64 be f0 71 31 bf 0b 79 6b bf
       -1.1375064 -0.22323875 -0.6931448 -0.9198157
0001f0 cc 37 7d bf 9a 32 95 bf de 7c 77 be f0 08 84 bf
       -0.98913264 -1.1656067 -0.24168727 -1.0315228
000200 d5 68 e2 bc de 78 40 bf 28 21 70 bf 7e 62 4d be
       -0.027637878 -0.7518443 -0.9380059 -0.20057103
000210 86 32 56 bf 9c 17 2a bf 56 b4 58 bf 6b 73 b9 bf
       -0.8367084 -0.66442275 -0.8465017 -1.4488348
000220 76 21 9a be f7 7f df bf 05 fc 8e bf 64 00 88 bf
       -0.30103654 -1.7460927 -1.117066 -1.0625119
000230 3e 69 9e bf b8 84 a3 bf 45 cd 07 3c c7 8c eb bf
       -1.2375867 -1.2774878 0.008288686 -1.8402337
000240 92 c9 6f bf f7 47 5e bf af 94 95 be 0f 12 38 bf
       -0.93666947 -0.8682856 -0.29215 -0.71902555
000250 ee 38 a7 bf 66 4e 6c 3d 91 b7 2a bf f1 58 6f bf
       -1.3064249 0.057691954 -0.6668635 -0.9349509
000260 75 0b 50 3f 49 c7 0d 3c e7 0b 11 bf 4e b9 38 bf
       0.8126748 0.00865347 -0.56658787 -0.7215775
000270 07 77 56 bf 1f d5 f1 3d 61 50 3c bf b9 f8 e8 bf
       -0.8377537 0.11808228 -0.7356015 -1.8200904
000280 d4 52 9b be 1b e9 c6 be 33 31 62 bf fe 44 d7 bf
       -0.3033663 -0.3884972 -0.8835632 -1.681793
000290 7b cf 71 bf 85 ce 27 bf 85 75 81 3c bb b8 ef bd
       -0.94457215 -0.655495 0.015803108 -0.117051564
0002a0 f8 12 24 bf 3a 98 52 be d8 1c 53 bf 2f 6d b2 be
       -0.64091444 -0.20565882 -0.8246589 -0.34848925
0002b0 d5 9a ba be 0c 3e d2 be fc 0c 6a bf 17 28 54 bf
       -0.36446252 -0.41062963 -0.9142606 -0.8287367
0002c0 97 d3 98 bf 8d 3e f5 bf 7f ea 3e bf 85 67 00 c0
       -1.1939572 -1.9159714 -0.7457656 -2.0063183
0002d0 67 b5 d4 3f d4 38 4f be 14 d4 c6 bf 54 16 c9 bf
       1.661786 -0.20236522 -1.5533471 -1.5709939
0002e0 1a 83 c2 bf aa 0c 8c 3e 34 66 f1 bd 95 fa 4b bf
       -1.5196259 0.27353412 -0.11787072 -0.7967923
0002f0 06 05 8a be 94 54 11 bf 1a 78 1d bf a9 5f 90 bf
       -0.26956958 -0.5676968 -0.61511385 -1.1279193
000300 b2 4c de be b0 45 6b bf 98 08 af bf eb 59 00 bf
       -0.4341789 -0.9190321 -1.3674498 -0.50137204
000310 64 d2 37 bf 3a 64 d9 3d 27 bf b7 bf 88 db 7f bf
       -0.71805406 0.1061482 -1.435521 -0.99944353
000320 48 59 97 be 7e b3 5b be f9 27 f0 be 1c 8a 90 be
       -0.29560304 -0.2145519 -0.46905497 -0.2823037
000330 24 b9 21 3e 7e aa 36 bf 71 ea c7 bc c4 79 cc bf
       0.15793282 -0.713539 -0.024403783 -1.597466
000340 3d 4f 8b bf 01 51 5f bf 60 4a 0b bf 39 6f 7d bf
       -1.0883557 -0.8723298 -0.5441036 -0.9899784
000350 4a f9 5d be 6f 6f 12 3e a9 ba ed bd 8c 20 91 bf
       -0.21677127 0.14300321 -0.11607868 -1.1338058
000360 f5 79 ab be 87 e4 bc bf ca 7e db bf b9 26 7e bf
       -0.33491483 -1.4757241 -1.7148068 -0.99277836
000370 00 bc df be 4b 74 1d bf bf 49 90 bf 50 af 78 be
       -0.4369812 -0.61505574 -1.1272506 -0.24285626
000380 0b cd 43 bf 3f e8 9d bf f3 d0 1b bf 59 aa c3 bf
       -0.76484746 -1.2336501 -0.60865706 -1.5286361
000390 44 5a 0b bf 4b 04 80 be 74 7b 17 bf d5 64 0e bf
       -0.5443461 -0.25003275 -0.5917275 -0.5562261
0003a0 42 45 33 be 24 32 c4 bf 73 f6 8d bf a4 6b b3 bf
       -0.17506889 -1.5327802 -1.1090835 -1.4017224
0003b0 b6 12 a9 be 42 fb fc 3e bb a8 a9 bf 4d dd 6b bf
       -0.33022088 0.49410444 -1.3254617 -0.92134553
0003c0 64 38 c0 bf f0 ce b1 bf f6 ae c3 bf 2d e4 28 bf
       -1.5017209 -1.3891277 -1.5287769 -0.6597317
0003d0 eb 71 9c bf 79 cd cc bf b2 70 1a bf 61 af 9f bf
       -1.2222265 -1.6000205 -0.6032821 -1.2475396
0003e0 70 a1 c5 bf 0d 20 af bf af 73 9e be 88 f2 96 be
       -1.5439892 -1.3681656 -0.30947635 -0.29481912
0003f0 3e 92 69 bf 01 39 96 bf 6a 57 af be bd 70 90 bf
       -0.9123877 -1.1736146 -0.3424638 -1.1284405

fc2.weight f4 [128, 260]
000000 b9 91 86 bd c5 d0 19 3d 9e 27 47 bc 00 e8 b2 bd
       -0.06570763 0.037552614 -0.012155442 -0.08735657
000010 a7 5b 9a bd d3 37 89 bd 3f 6c bc bc bd 12 1b 3d
       -0.075370125 -0.06700101 -0.023000835 0.037859667
000020 69 dc 8e bd 4d 13 4d bd 17 1a a5 3c 36 f9 e5 bb
       -0.06975634 -0.050067235 0.020154042 -0.0070182336
000030 86 09 3e bd d0 9c 2c be d8 32 3f bc 8f 38 5d 3d
       -0.0463958 -0.16856694 -0.011669837 0.054009017
000040 a9 1e 35 bc c7 f1 81 bc a3 1f 73 bd 84 46 08 bd
       -0.011054673 -0.015862359 -0.059356343 -0.033270374
000050 23 a0 e4 bc aa be 7e bd c2 a8 73 bd ff c4 57 bc
       -0.02790839 -0.06219355 -0.059487112 -0.013169526
000060 a4 3e 57 bd e7 d3 65 be 02 df e1 bd e4 fa 0e bd
       -0.052549973 -0.22444116 -0.110288635 -0.034907237
000070 8f 06 6a be 07 ff 63 bd 53 fe 8b 3c 18 34 67 bc
       -0.22854064 -0.055663135 0.017089045 -0.014111541
000080 6c c1 55 bd 3a e4 4a 3b f6 20 b1 bd 96 26 ce bd
       -0.052186415 0.0030958788 -0.08648865 -0.100659534
000090 07 bf df bc 4e 3c ea bd 45 a2 20 3d 34 d0 53 3c
       -0.027312769 -0.114372835 0.039217252 0.012928057
0000a0 08 0a e2 bd 48 02 42 3b 23 fd 98 bd ba 6b c9 bd
       -0.110370696 0.002960341 -0.07470157 -0.09835
0000b0 85 7c ac bd b9 d6 17 bd c6 39 8e 3d 3d e5 8b bd
       -0.08422188 -0.03707001 0.06944613 -0.06830833
0000c0 a6 9a 9d bd 5a a4 94 bd 2a 8b 77 bd 08 44 18 3d
       -0.076955125 -0.0725791 -0.06043545 0.037174255
0000d0 e4 60 43 bd 7e f3 c9 3c eb 26 5a bb 48 42 aa bd
       -0.047699824 0.024652239 -0.0033287357 -0.083134234
0000e0 7c 68 d7 bd 3b 0f 41 bd 43 35 fb 3c 13 4e 65 3d
       -0.10517976 -0.047133666 0.030665046 0.05598266
0000f0 11 c3 f8 bb ab 7a c2 ba 8d 8a 7f be c2 ea 4a 3d
       -0.007591613 -0.0014837583 -0.24955197 0.04954029
000100 6f 34 3a bc eb 77 8a bd 85 fc 48 bc 29 f2 ff bd
       -0.01136504 -0.06761154 -0.012267237 -0.1249736
000110 f2 39 80 bd e6 d1 a3 bd 0d f9 74 bd 8d 62 2d bd
       -0.06261052 -0.07999019 -0.059807826 -0.042330313
000120 36 80 f2 3c 1d 23 8c 3b d3 ab 25 be ce 88 63 bd
       0.029602151 0.0042766468 -0.16178827 -0.05555039
000130 97 cc 9c 3a c7 61 93 bd 9c 22 6e bc 6a 13 37 3d
       0.0011962828 -0.07196384 -0.014534619 0.04469625
000140 56 8d f3 3c 9b 73 59 bd 55 38 28 bd 96 da 47 bd
       0.02973048 -0.053088766 -0.041069347 -0.048792444
000150 d3 50 02 be 69 26 22 bd 13 db ce 3c 3f 59 1b be
       -0.12726144 -0.039587412 0.025250947 -0.15170763
000160 89 55 8f bb c9 4d 9a bd 0a 0b ca 3c 64 cd 35 be
       -0.0043742103 -0.075343676 0.024663467 -0.17754132
000170 a3 67 83 bc 73 d2 aa bd 58 28 68 bd 70 59 04 3d
       -0.016040629 -0.08340921 -0.0566791 0.032311857
000180 13 fe 48 bd 6f a4 1f be 01 e8 d4 3c 74 6a 43 bd
       -0.04907043 -0.1559007 0.025989534 -0.047708943
000190 ee be 88 bd cc ec e0 3c 28 c2 c1 3c 4d b3 a9 bd
       -0.06677042 0.027456664 0.023652151 -0.08286152
0001a0 0c 30 80 3c 73 0a 0b be c1 6b 51 bd 48 91 65 bd
       0.01564791 -0.13578205 -0.051128153 -0.056046754
0001b0 d8 dc 2f bd 69 de 7c bd ff 7b 0c be 2c ea b9 bd
       -0.042935222 -0.061735544 -0.13719176 -0.09077868
0001c0 9b 63 8f bd 49 6e 63 bd d9 98 b3 3b a2 78 25 bd
       -0.0700142 -0.055525098 0.0054808673 -0.040398248
0001d0 49 d1 85 3c eb fe 1f bd 0d 89 6d 3b 37 7a 33 be
       0.016335147 -0.039061468 0.0036245019 -0.1752709
0001e0 31 0e 5c 3c 1a 2e 3d bc 05 7e d2 3b f0 fd b7 bd
       0.013431118 -0.011546636 0.006423714 -0.089839816
0001f0 f8 5c 95 bd 3b 2a a6 3c b2 25 a8 3d cb f4 87 bd
       -0.07293123 0.020283809 0.08210315 -0.066384874
000200 97 67 fe bb 6e 75 a2 be 47 ff bc ba 2c c4 9a bd
       -0.0077638137 -0.31730217 -0.001441934 -0.07556948
000210 77 88 16 3d 33 27 a0 bb 64 5c 2a bd 63 f3 a2 3c
       0.036751237 -0.0048874854 -0.041592017 0.019891446
000220 f8 a6 6a be a3 55 9f b9 d6 a9 be bc 7e ba 46 3d
       -0.22915256 -0.00030390648 -0.023274343 0.048517697
000230 21 c9 04 3c 09 be b7 bd df 70 80 3c de 6f 92 bd
       0.0081045935 -0.08971793 0.015678821 -0.07150243
000240 42 b8 11 bd 3d c5 24 3d ef c4 44 bd 52 b0 10 be
       -0.035576113 0.040227164 -0.048039373 -0.14129761
000250 b6 2e d4 3d 6a 76 89 be df a2 a1 bd 18 83 45 be
       0.10360472 -0.26848155 -0.07892393 -0.1928829
000260 9a 66 00 be 80 a4 de bb 7f bf 64 bb e2 b1 be bd
       -0.1253914 -0.0067945123 -0.003490418 -0.09311272
000270 dd 63 cf 3d 09 c9 fb bc b9 49 e1 ba 43 e5 1c be
       0.10126469 -0.03073551 -0.0017188109 -0.15321831
000280 17 28 ad bd f9 67 85 bc 9d 44 4c bd fb f7 0d 3c
       -0.08454912 -0.01628493 -0.049870122 0.00866508
000290 5f 23 35 3d 82 2f 89 3c 7a 0e 08 be bc e1 9f 3d
       0.044223186 0.016746286 -0.13286772 0.07806727
0002a0 45 ab 05 be 41 6c d6 3d a2 4a 48 be db 53 52 3d
       -0.13053615 0.104698665 -0.1955972 0.051349502
0002b0 99 13 8a bd b9 56 36 bc 93 37 ce 39 3f e8 3a 3d
       -0.06742019 -0.011129075 0.00039332788 0.045631643
0002c0 7d b0 15 be 02 08 89 bd 05 e7 8b bd 28 61 8d bd
       -0.14618106 -0.066909805 -0.06831173 -0.06903297
0002d0 b2 73 8a bd d6 a5 e2 3c b0 4a 33 be ca 43 bf bb
       -0.067603484 0.027666967 -0.1750896 -0.0058369385
0002e0 e1 eb 80 3c 34 9b 2a be 31 57 50 bd 3f 7f 80 bd
       0.015737476 -0.16660768 -0.050864402 -0.0627427
0002f0 03 78 bf bd 36 91 33 3e b2 bd c0 bd 82 5c 9b bd
       -0.09349062 0.17535862 -0.094111815 -0.07586004
000300 88 a9 df bc 2c 14 c5 3a 16 6e a9 bd 71 6e 25 bd
       -0.027302518 0.0015035919 -0.0827295 -0.04038853
000310 ef 8f 31 be c6 a1 fb bc af 77 46 bd 23 df bb bd
       -0.17340063 -0.030716788 -0.048453983 -0.09173419
000320 9f 8b 05 be 71 f4 8c bd f7 79 ae bd 38 fc 1b bd
       -0.13041542 -0.06882561 -0.08519357 -0.03808233
000330 a7 9a 35 3d 4f 03 8b 3c 2a 9b 54 bd ff bd 14 bb
       0.04433694 0.016969351 -0.05190579 -0.0022696254
000340 ab 99 bd 3d 18 13 71 bb 38 68 d3 bd c7 a6 c5 bd
       0.092578255 -0.0036785062 -0.103226125 -0.09650951
000350 e3 62 02 bb f6 e1 5c bc 50 1d 12 be 4a c9 e4 bc
       -0.0019895367 -0.013481608 -0.14268994 -0.027928013
000360 35 91 9e 3c 67 3b 1a be bc 19 08 3d 41 ae a2 bd
       0.01935635 -0.15061723 0.033227667 -0.079433925
000370 ea 25 1e bd 1d a9 cd 3c 63 56 e1 bd ed 5a 5c be
       -0.038610376 0.025105054 -0.11002805 -0.2151906
000380 2c 03 af 3c 0e 9a fb bd ac 82 a2 bd 02 39 08 be
       0.021363817 -0.12285243 -0.0793508 -0.13302997
000390 dd 11 91 bd 40 5b f4 3b d9 13 c3 bd b3 fe a1 bd
       -0.07083485 0.007457167 -0.0952527 -0.07909908
0003a0 90 94 32 3d 92 2a 7f bd 6e 78 be bc 5e 3f 4e bd
       0.04359871 -0.062296458 -0.023250785 -0.0503534
0003b0 92 f5 c6 bd 86 48 20 bd 48 0c 26 3d 42 01 a1 bc
       -0.097148076 -0.039131664 0.040539056 -0.01965392
0003c0 4d 5a 8d bb f3 a2 08 be 7d 40 29 bd bc 8e c6 bd
       -0.004313743 -0.1334341 -0.041321266 -0.09695193
0003d0 6f 76 e7 3c 7e d4 06 bd 37 b8 5e bd 25 99 a2 bc
       0.028254716 -0.032917492 -0.0543749 -0.019848416
0003e0 91 3c 16 bd 7f ca b7 bd ea 02 82 bd 04 fe 44 bc
       -0.036678854 -0.0897417 -0.06348212 -0.012023453
0003f0 5f d8 27 3d c6 66 be 3d 1f 68 9e b9 8a 10 4f bd
       0.040977832 0.09296946 -0.00030213685 -0.050552882

fc2.bias f4 [128]
000000 5a 6e 9e be 61 88 a9 be 12 06 82 be f0 58 7b be
       -0.30943567 -0.3311186 -0.25395256 -0.24545646
000010 89 38 00 bf b8 49 bc be 16 3a 84 be 44 89 cc bb
       -0.50086266 -0.36774993 -0.25825566 -0.0062419493
000020 52 97 64 3e 9e 34 97 be be 1b 7a be 35 f0 a8 be
       0.22323349 -0.2953233 -0.24424645 -0.32995763
000030 b2 b0 87 be bb 97 5b be 41 da 2b be 95 6c d5 be
       -0.26501995 -0.214446 -0.16782476 -0.41684404
000040 bc 5a 34 be e0 84 84 be a6 e8 8f be 6d 7d 15 be
       -0.17612737 -0.25882626 -0.28107184 -0.14598627
000050 64 79 1e be 7c 0f 02 bf 7c d7 74 bf 06 e6 31 be
       -0.15475994 -0.5080488 -0.95641303 -0.17372903
000060 9f 62 86 be dc 66 95 be 20 b8 34 bf d7 cd 20 be
       -0.26247117 -0.29180038 -0.7059345 -0.15703522
000070 53 b0 d8 bd 1b 5a 02 bf 8c 70 0f bf e6 67 af be
       -0.10580506 -0.5091874 -0.5603111 -0.34258956
000080 20 94 1d bf b8 e6 50 be ec f8 6c bf 39 95 84 be
       -0.61554146 -0.20400512 -0.92567325 -0.25895098
000090 f1 58 1e be 71 b7 4d be 13 88 ec be 9c f4 3d bf
       -0.15463616 -0.20089509 -0.46197566 -0.7420137
0000a0 c3 9b 2c be 9f 2c 34 be a9 dd 2d be a6 c7 f3 bd
       -0.16856293 -0.17595147 -0.16979088 -0.11903314
0000b0 9c 8e b8 be 91 76 97 bf e9 a5 4d be 79 c1 60 be
       -0.36046302 -1.1833059 -0.20082821 -0.21948804
0000c0 53 cb 30 be 69 8b 59 be 2c 18 88 be 86 28 2c be
       -0.17265062 -0.21244587 -0.26580942 -0.16812333
0000d0 72 c3 0b bf af 5d 3b 3f 50 73 94 be af d8 79 be
       -0.545951 0.73189825 -0.28994226 -0.24399064
0000e0 27 9d ee be b9 46 8b bf 08 46 1c be ad 44 78 bf
       -0.46604273 -1.0880958 -0.1526109 -0.9697979
0000f0 6e 70 9e be 86 77 82 be 2e b8 24 be ce d8 4c bd
       -0.30945152 -0.25481814 -0.16085884 -0.05001145
000100 c4 ba c4 be a4 1d 78 be 8f 17 ef be 00 00 14 bf
       -0.3842374 -0.24230057 -0.4669766 -0.578125
000110 d2 24 62 be 89 c5 dc be ea 7a 21 bd 29 3c 5a 3d
       -0.22084358 -0.43119457 -0.03942386 0.05328003
000120 c0 b0 fa be b2 f8 df be a9 d0 27 bf 06 36 03 bf
       -0.48962975 -0.43744427 -0.65552765 -0.5125431
000130 03 b3 1d bf 42 9c 41 be 7a d3 9c bf 6a 92 03 be
       -0.61601275 -0.18907264 -1.2252038 -0.12848821
000140 f7 e3 95 bf 80 e3 c9 bd d3 29 c7 bd c8 54 8f 3d
       -1.1710194 -0.09857845 -0.09724774 0.069985926
000150 e9 7d 14 40 72 21 a8 be 81 1a ce bd 75 0a 32 bf
       2.320185 -0.32838017 -0.10063649 -0.69547206
000160 a0 5c 92 bf 1a fc c7 3f e7 9d f0 bd a6 c3 f6 bd
       -1.1434517 1.562381 -0.117488675 -0.12049036
000170 21 53 99 be 29 00 cf bd ee 64 f7 be 19 fd a6 be
       -0.29946235 -0.101074524 -0.4831919 -0.32614973
000180 51 5e d4 be 16 8d 06 be 93 b5 58 be bc 9b 2d bf
       -0.41478208 -0.13139758 -0.21163015 -0.67815757
000190 8e a5 5c be 4c 1d d5 bd 41 04 75 be 01 89 a1 bd
       -0.21547529 -0.104059786 -0.23927404 -0.078874595
0001a0 da 97 68 3e 58 80 d0 bf 5b e0 62 be 59 4a 2c be
       0.22714177 -1.6289167 -0.22155897 -0.16825236
0001b0 6c 26 63 bf 30 99 48 bd 9f 9d e0 bf 87 4a 73 be
       -0.887305 -0.048974216 -1.7548102 -0.23758899
0001c0 ad c5 4d be d7 a8 45 be 28 6a 62 bf 68 36 0f bf
       -0.20094939 -0.19302689 -0.8844323 -0.5594239
0001d0 eb aa 6e bf 3f ed b0 be f8 58 39 bf 03 3c 57 be
       -0.9322955 -0.34556004 -0.7240138 -0.21018986
0001e0 02 f2 59 bd e0 d6 75 be 2d 16 33 be 05 51 af bd
       -0.053209312 -0.2400775 -0.17488928 -0.08560375
0001f0 d1 46 e8 bd c3 43 01 bc 92 d5 05 bf 2a 50 14 bf
       -0.11341632 -0.007889691 -0.5227901 -0.5793482

fc3.weight f4 [1, 128]
000000 05 d6 e2 bb dd 34 eb bc eb 84 9b bb 47 3c 88 3b
       -0.006922486 -0.02871173 -0.0047460697 0.0041575762
000010 ae 7f 8a 3c a0 8f d2 3c 05 01 15 bc 8c 01 fc 3c
       0.016906586 0.025703251 -0.009094481 0.030762456
000020 d7 01 8c bc c8 f4 02 3c 1e e5 c7 bb 47 1d c2 bb
       -0.017090721 0.007992931 -0.006100311 -0.0059239003
000030 d7 ac a8 bc d2 bd 7b 3c 3a d8 a5 bc cb 30 d3 3c
       -0.020590229 0.015365081 -0.020244706 0.025780102
000040 d6 1e f7 39 d4 6d bc 3c 28 16 6e 3c 2a a5 d8 bc
       0.00047134486 0.023001589 0.01453165 -0.026445944
000050 e2 20 23 3c 32 b6 54 bc bc 61 0e 3c 4a d5 33 bd
       0.00995657 -0.012982892 0.008690294 -0.04390458
000060 d2 92 34 3c 0d 04 98 bc d0 0f 0c bc 66 4d b9 3c
       0.011021333 -0.018556619 -0.008548692 0.022619914
000070 81 1e 8c 3b 53 45 2c 3c 42 67 00 3c c7 84 b4 3c
       0.0042760973 0.010514575 0.007837119 0.02203597
000080 31 96 ef bb aa 6f d4 bc 8d b9 12 3b 6a bb a0 3c
       -0.0073116054 -0.025932152 0.002238843 0.019620616
000090 5d 47 4f 3c 90 3b f8 bc 3d 4a 08 bd c9 b0 5e 3c
       0.012651292 -0.03030184 -0.033273924 0.013591954
0000a0 85 7f 6e 3c 62 bc fa bb ed 18 c9 bc d3 f4 31 3c
       0.01455677 -0.0076518515 -0.024548018 0.010861593
0000b0 df e2 fe 3b 92 f9 40 bc 16 c2 af 3a 05 07 fa 3b
       0.00777851 -0.011778252 0.0013409283 0.0076302313
0000c0 ba 51 a0 3c 6c 5f 31 bc 63 b5 75 3c fa f1 98 3c
       0.01957022 -0.010825973 0.014996859 0.01867007
0000d0 ae df 07 3c 61 2c 99 bb 39 cb e1 3b 59 52 6e bc
       0.0082930755 -0.00467448 0.006890681 -0.014546
0000e0 75 23 df 3b 06 a2 ff 3c 8e b8 b1 bb 9b 9a 1a bc
       0.0068096467 0.031205188 -0.005423612 -0.009436275
0000f0 6c 20 b6 bb 1a 7b 12 bb 14 83 b3 3c d9 69 6a 3b
       -0.005558064 -0.0022351206 0.021913089 0.0035768657
000100 89 47 bc bb cf 46 b2 3b 4f 1a 22 3c 24 46 13 3c
       -0.0057458323 0.00544057 0.009893968 0.008988891
000110 af 64 5b 3c ce d8 4f bd e0 ba e4 3c 7a 22 c0 3c
       0.013390704 -0.05074387 0.02792114 0.02345394
000120 1d 39 ee bc e4 59 43 3c 1d 0f 61 bc 2a 00 05 bd
       -0.029079968 0.011923287 -0.013736513 -0.03247086
000130 cf 65 a6 bc e1 7c 82 3c e5 9d f2 bb 8c d6 6d 3b
       -0.020312218 0.015928688 -0.0074040764 0.003629121
000140 f8 c9 b8 3c f4 36 85 3c e6 c0 0e bc 76 0d 53 bc
       0.022557244 0.016261555 -0.008712983 -0.012881627
000150 1c f0 c0 bb 26 35 17 bc 8b 44 19 bc d6 71 0a 3c
       -0.0058879983 -0.00922898 -0.009354721 0.008449992
000160 9d cd 8f bc ec c5 e5 3b 19 d8 86 3c ed c9 c4 3c
       -0.017554099 0.0070121195 0.016460465 0.024022067
000170 89 ae c5 3b 96 e0 9b 3c 85 db 5d 3c 79 40 55 bd
       0.006032769 0.01902799 0.013541107 -0.05206344
000180 4c a6 8a bb 33 02 48 3c 64 86 29 bc c6 20 b2 bc
       -0.00423125 0.012207556 -0.010346983 -0.021744143
000190 9c b9 1d bc b1 32 7a 3b e1 27 b2 bc 2f 23 65 3c
       -0.009626772 0.0038177187 -0.021747531 0.013985439
0001a0 97 ca 0f 3c fb 61 3e bc bd 9d d4 ba 8c 28 1c 3b
       0.0087763285 -0.01162004 -0.0016221326 0.0023827879
0001b0 c9 fb 84 bc 08 8a af bb a8 55 6a bc 4f 26 b2 bc
       -0.016233342 -0.005357031 -0.014302649 -0.021746783
0001c0 16 fa ae bc 61 8f d9 bc a6 b3 ae bc df 63 1a bd
       -0.021359485 -0.026557626 -0.021325897 -0.0376929
0001d0 47 dc 32 3c 9c 0f 4e bc 5b f0 5f bc f4 ee 9e 3b
       0.010916776 -0.012576964 -0.013668145 0.004850263
0001e0 e2 e3 b8 3c 4f 80 79 3c 20 2f d1 3a a0 cc 0f 3c
       0.0225696 0.015228345 0.0015959479 0.008776814
0001f0 74 b8 4a bc 76 8b f4 bb 23 09 bf 3a 80 66 07 3c
       -0.012373079 -0.007462914 0.0014574867 0.008264184
