p3_collab-compet/models/critic_1.pth (torch_old, 185326 bytes, 5 tensors)

fcs1.weight f4 [256, 48]
1.073228 -0.29875737 -0.09793569 -0.7189222 0.62885016 0.7470494 -0.11408536 -0.68850684
1.2434936 0.8640583 -0.13452055 -0.10104835 0.19107035 0.28417748 -0.028083723 -0.13789871
1.2736009 1.4468083 0.053536467 0.19297585 -0.12599145 0.527165 0.093362406 0.10338368
0.37381017 -1.5142797 0.15085763 -0.26782486 -0.6990758 0.6832418 0.114472754 -0.23394844
1.0135787 -1.7770602 -0.07288065 -0.5034446 -0.24003129 0.3101611 -0.09387443 -0.44774616
1.1924993 -1.9037344 0.17421432 0.96090966 0.08319302 0.526047 0.18111733 1.0377511
0.81834304 1.7010539 -0.057130836 0.23124501 0.33780393 -0.36888507 -0.08926761 0.30376783
0.9722736 2.4235363 -0.07931536 0.33098495 0.12979193 -0.864597 -0.087206244 0.34890822
0.93700904 2.2139683 -0.0010848969 -0.7109609 0.18695289 -1.2607186 -0.019731775 -0.7937281
0.7905924 -0.7223335 0.19316487 0.34623617 -0.41905123 -0.34546155 0.14665832 0.3357263
0.83854187 -0.756083 -0.4357148 0.4221028 -0.18983717 -0.8229046 -0.39648354 0.38205415
0.77419645 -1.1844562 -0.105133876 0.071756 -0.18080378 -1.1976924 -0.12585545 0.09600549
0.0022991002 0.27344784 0.051055524 -0.53931266 0.20798662 -0.295241 0.036955316 -0.44482043
0.46923044 -0.07093916 -0.01730978 -0.6076065 0.06999389 -0.35054627 0.081783675 -0.62895197
0.7111159 -0.63366383 -0.18905902 -0.49094698 0.05867374 -0.49252403 -0.098765515 -0.3774636
0.30601463 -2.5597692 -0.06973855 -0.12839328 -0.20302585 -0.2809702 0.0112209 -0.20599146
0.40408236 -2.2706547 0.053896714 -0.4062282 -0.045072455 -0.37051457 0.04001559 -0.3978738
0.3327211 -2.3523176 0.06856532 -0.8341456 -0.03812378 -0.45572653 0.089425914 -0.7694255
0.12754051 1.012464 0.005212689 0.13315041 1.3600154 -1.6242694 -0.031888004 0.15684943
0.31478655 1.1680007 0.04862965 -0.19213404 0.85609865 -0.23050535 0.10782445 -0.30522487
0.69748753 2.1889653 -0.042782564 0.2916142 -0.045780495 1.3078723 -0.103863314 0.33706665
1.2293384 -0.9952904 -0.040219545 -0.5703977 -1.3927734 -1.715336 -0.004794271 -0.52128315
0.72370946 -0.70764655 0.047514584 -0.5606243 -0.85451573 -0.19596507 -0.059171986 -0.6030402
1.264143 -0.11248851 -0.10584256 -0.4480116 0.074969456 1.2871008 -0.11868349 -0.46552613
-0.11334379 0.010558767 0.042153843 -0.42183468 0.17269494 0.05084694 -0.031142123 -0.4467625
0.28193173 0.44747448 -0.04451111 -0.11913259 0.3076193 -0.41237342 -0.03170399 -0.03020648
0.2722962 1.0317452 -0.054326143 0.056555577 0.12574418 -1.2678521 -0.010166002 0.063242905
-0.22617996 2.0491302 -0.026212005 0.4102078 -0.19344486 0.115360156 -0.022318544 0.42467356
-0.10503365 3.2648954 -0.11213057 0.39035547 -0.22261347 -0.497356 -0.019261941 0.48866987
-0.070216 3.9227073 -0.11171754 0.3742811 -0.1036226 -1.3344035 -0.05191655 0.316152
0.54568154 -0.84917 -0.07917468 0.21796362 0.26301673 -0.14566427 -0.06636104 0.268399
0.60862416 0.059125382 -0.075230815 0.17974983 0.7441117 0.09269837 -0.059797466 0.21114162
00000000: 895f 893f baf6 98be 8292 c8bd 490b 38bf
00000010: 53fc 203f a13e 3f3f 96a5 e9bd fc41 30bf
00000020: cc2a 9f3f ed32 5d3f c1bf 09be 70f2 cebd
00000030: f2a7 433e b67f 913e d60f e6bc 5235 0dbe
00000040: 5b05 a33f 0431 b93f 0e49 5b3d 769b 453e
00000050: e703 01be 49f4 063f ca34 bf3d d3ba d33d
00000060: 0c64 bf3e ebd3 c1bf 6c7a 1a3e 5720 89be
00000070: a2f6 32bf efe8 2e3f b170 ea3d 2e90 6fbe
00000080: f2bc 813f b576 e3bf 7342 95bd bfe1 00bf
00000090: c3ca 75be 70cd 9e3e 3d41 c0bd fc3e e5be
000000a0: d1a3 983f 92ad f3bf 3d65 323e 2dfe 753f
000000b0: 1a61 aa3d 04ab 063f d276 393e 07d5 843f
000000c0: ee7e 513f 22bc d93f 0602 6abd 7ecb 6c3e
000000d0: a3f4 ac3e 81de bcbe f0d1 b6bd 7587 9b3e
000000e0: ece6 783f 381b 1b40 1770 a2bd dc76 a93e
000000f0: 2de8 043e 3b56 5dbf 3099 b2bd 19a4 b23e
00000100: d3df 6f3f a8b1 0d40 1933 8eba 8901 36bf
00000110: 9470 3f3e 3a5f a1bf 88a4 a1bc c431 4bbf
00000120: 4364 4a3f d9ea 38bf 03cd 453e de45 b13e
00000130: e28d d6be 56e0 b0be 992d 163e 51e4 ab3e
00000140: aeaa 563f a88e 41bf 0316 dfbe dc1d d83e
00000150: ad64 42be e0a9 52bf e4ff cabe 9a9c c33e
00000160: bd31 463f 439c 97bf 6e50 d7bd cff4 923d
00000170: a024 39be fc4d 99bf 40e0 00be 879e c43d
00000180: 80ac 163b 5b01 8c3e 991f 513d 6510 0abf
00000190: 72fa 543e d429 97be 755e 173d 81bf e3be
000001a0: f93e f03e 8d48 91bd 3dcd 8dbc 198c 1bbf
000001b0: f558 8f3d cd7a b3be 337e a73d ff02 21bf
000001c0: b10b 363f cb37 22bf b098 41be 675d fbbe
000001d0: e053 703d 1c2c fcbe 9345 cabd e942 c1be
000001e0: f3ad 9c3e 42d3 23c0 16d3 8ebd 8779 03be
000001f0: 02e6 4fbe 53db 8fbe ded7 373c 6def 52be
00000200: e2e3 ce3e 6852 11c0 cdc2 5c3d 25fd cfbe
00000210: e59d 38bd 16b4 bdbe 63e7 233d 1db6 cbbe
00000220: 6c5a aa3e 5f8c 16c0 f96b 8c3d 918a 55bf
00000230: ae27 1cbd fd54 e9be ef24 b73d 12f9 44bf
00000240: fb99 023e 6c98 813f 34cf aa3b 9558 083e
00000250: fc14 ae3f 0fe8 cfbf ff9c 02bd 239d 203e
00000260: b42b a13e 0c81 953f e22f 473d c9be 44be
00000270: 4829 5b3f 9809 6cbe 11d3 dc3d 6f46 9cbe
00000280: 8b8e 323f 0218 0c40 c53c 2fbd 754e 953e
00000290: 5484 3bbd 5c68 a73f 4ab6 d4bd 0094 ac3e
000002a0: f65a 9d3f 5acb 7ebf 40bd 24bd 9505 12bf
000002b0: 6646 b2bf 2190 dbbf 4319 9dbb d072 05bf
000002c0: 0645 393f 5328 35bf a79e 423d 1385 0fbf
000002d0: 8bc1 5abf 11ab 48be 535e 72bd d860 1abf
000002e0: 70cf a13f 6060 e6bd fcc3 d8bd c761 e5be
000002f0: 9689 993d b8bf a43f 5410 f3bd 7159 eebe
00000300: ca20 e8bd aefe 2c3c 82a9 2c3d b7fa d7be
00000310: f1d6 303e e244 503d c41d ffbc 0ebe e4be
00000320: 5b59 903e 601b e53e 4851 36bd cafb f3bd
00000330: 4780 9d3e 9c22 d3be 0bdc 01bd 9473 f7bc
00000340: 686a 8b3e 3a10 843f 1785 5ebd d2a6 673d
00000350: 15c3 003e fa48 a2bf 4e8f 26bc 7f85 813d
00000360: b89b 67be f324 0340 8fba d6bc c206 d23e
00000370: 6916 46be f241 ec3d 61d5 b6bc d06e d93e
00000380: e21b d7bd 0cf4 5040 b6a4 e5bd acdc c73e
00000390: c9f4 63be 72a5 febe 38cb 9dbc f032 fa3e
000003a0: 68cd 8fbd a30d 7b40 2acc e4bd c6a1 bf3e
000003b0: 1638 d4bd bccd aabf 73a6 54bd adde a13e
000003c0: c9b1 0b3f 3563 59bf 5626 a2bd db31 5f3e
000003d0: 21aa 863e 0429 15be 4ce8 87bd 986b 893e
000003e0: cbce 1b3f 752d 723d 9d12 9abd 5710 383e
000003f0: 1b7e 3e3f a5d8 bd3d 30ee 74bd 8235 583e

fcs1.bias f4 [256]
-1.0579889 -0.4121944 -0.9541164 -1.6954037 -1.6503665 -1.2416129 -2.0804503 -0.7286153
-0.9793263 -2.0014787 -0.44543427 0.13210295 -0.63604563 -1.6241137 0.20598678 -1.0826447
-2.1248314 -1.5144148 -2.159167 -0.5091221 -0.32641292 -1.1249828 -0.3222404 -1.5977732
-0.77588487 -0.7908936 -1.1639682 -0.8014344 -1.5116204 -0.684609 -2.6331024 -1.0579972
-1.4323214 0.7263306 -1.6673636 -0.15222228 -1.4472355 -1.445118 0.236567 -0.76717466
-0.9645845 -0.6605043 -0.72390836 -1.2843066 -1.6919756 -0.9671088 -2.054994 -1.6527332
-0.38584247 -1.0886605 -0.14543812 0.08428378 -1.1588155 -1.3121918 -0.95676756 -0.19608675
-0.4401865 -0.96699023 -1.2133445 -1.090884 -0.529671 -1.338931 -1.5654811 -2.6089694
0.43709067 -0.009974106 -1.0888501 -0.98293567 -0.596726 -1.1716694 -0.57042265 -1.371669
-0.78861475 -0.9368158 0.16732796 -2.3199217 -0.11618286 -0.99713 -1.6500474 -0.6732847
-1.7043756 -1.2243284 -0.7379105 -0.94087255 -0.9250509 -1.0460635 -2.443035 -1.1713876
-0.740931 -0.7923891 -0.87681186 -0.9828836 -2.944154 -1.212131 -1.097242 -1.2128813
-1.5158819 -1.035843 0.2885705 -1.4467765 -1.6306052 -0.99725497 -1.1022174 0.043155316
-1.2549047 -0.06638419 -0.13279027 -1.2316738 -0.38225618 -1.1107882 -0.7756106 -1.4612265
0.7762888 2.2551343 -0.41824314 -1.5730025 -0.5078107 -1.6564555 -1.5954359 -1.1516262
-0.3393182 0.61219394 -1.0089662 -0.508642 -0.8225663 -0.6293658 -1.2294867 -0.7609252
-0.9360088 -0.46364662 -0.7951139 -0.29994884 -0.9870279 -1.4709798 0.29595408 -1.8110367
-1.1284047 -1.3784447 -1.5371474 0.16697387 -0.7637411 -0.79226357 -1.0664335 -0.21461253
-1.2654337 -1.2266355 -1.7211387 0.16743086 -1.1083931 -0.3593709 -0.86818814 -0.7482632
1.6786362 0.1970524 -1.592895 -1.2003525 -0.07448017 -0.52534896 -1.6354935 -0.6627256
0.15346438 -1.4116744 -0.6750475 -0.90629804 -0.36923265 -1.4867375 -1.3192441 -0.73260605
-1.5257782 1.435943 -0.5432893 -0.2601317 0.08300723 -1.0389011 -1.4607596 -0.14052501
-1.9072558 -1.5186278 -1.0444643 -1.8712859 -0.8942537 0.030988494 -0.40157965 -2.424136
-2.1230824 -0.993948 -0.2810854 -0.74119645 -0.93948257 -0.049159545 -1.1634849 -0.6688317
-0.26775336 -0.6240134 0.7863584 -0.20902234 -1.1578931 0.8510111 -0.15793708 -0.1932789
-1.033631 -0.8659211 -1.5071167 -1.5921693 -0.6429142 -1.2893906 -1.044159 -1.54329
-1.3678776 -1.7642149 -1.0294106 -0.37121093 -1.3836765 0.14356028 -1.0015876 -0.43732423
-0.96149266 -1.1881016 -0.043988336 -1.6301072 -0.7859075 -1.7656629 -0.9605622 -0.50367194
-0.061508063 -2.1440961 -1.578024 -0.8301456 -0.3190899 -1.2111377 -0.6778681 -1.005887
-0.19923605 -2.2211812 -1.1764636 0.5105519 -0.81990194 1.6650302 -0.6548923 0.12255353
-0.8192764 -0.9834554 -2.4779828 1.4643561 -0.70184565 -0.2910436 -0.21849582 -0.7801109
-0.9620974 -0.75099444 -1.0636895 -0.5014436 -0.621631 -1.339816 -0.7800794 -1.941083
00000000: 2e6c 87bf 250b d3be f940 74bf fd02 d9bf
00000010: 363f d3bf 2ced 9ebf 1926 05c0 8886 3abf
00000020: 21b5 7abf 3a18 00c0 f60f e4be ff45 073e
00000030: e3d3 22bf f5e2 cfbf 33ee 523e 1a94 8abf
00000040: 3dfd 07c0 58d8 c1bf cb2f 0ac0 d355 02bf
00000050: 981f a7be 70ff 8fbf b2fc a4be d583 ccbf
00000060: 64a0 46bf 0178 4abf e9fc 94bf ce2a 4dbf
00000070: c77c c1bf 8942 2fbf c084 28c0 746c 87bf
00000080: 4f56 b7bf cdf0 393f 2c6c d5bf 28e0 1bbe
00000090: 033f b9bf a0f9 b8bf 9f3e 723e 8f65 44bf
000000a0: 03ef 76bf cf16 29bf 0f52 39bf 2964 a4bf
000000b0: a892 d8bf 7194 77bf 0685 03c0 c38c d3bf
000000c0: 258d c5be 3a59 8bbf bbed 14be f99c ac3d
000000d0: 1154 94bf e7f5 a7bf b8ee 74bf f7ca 48be
000000e0: 2060 e1be ac8c 77bf df4e 9bbf 16a2 8bbf
000000f0: 8598 07bf 1762 abbf af61 c8bf 5bf9 26c0
00000100: 59ca df3e 6f6a 23bc 715f 8bbf aca1 7bbf
00000110: 09c3 18bf 43f9 95bf 3807 12bf da92 afbf
00000120: a8e2 49bf 29d3 6fbf 0558 2b3e 9979 14c0
00000130: 48f1 edbd e943 7fbf c134 d3bf 635c 2cbf
00000140: fb28 dabf cbb6 9cbf b4e7 3cbf 06dd 70bf
00000150: 23d0 6cbf 69e5 85bf af5a 1cc0 07f0 95bf
00000160: a7ad 3dbf 03da 4abf be76 60bf 429e 7bbf
00000170: 056d 3cc0 1c27 9bbf 6d72 8cbf b23f 9bbf
00000180: 6b08 c2bf 8196 84bf 83bf 933e f92f b9bf
00000190: acb7 d0bf 1a4c 7fbf 7615 8dbf a1c3 303d
000001a0: b8a0 a0bf 6ff4 87bd 2cfa 07be 7da7 9dbf
000001b0: 15b7 c3be 4f2e 8ebf 6b8e 46bf 7809 bbbf
000001c0: ddba 463f 1f54 1040 f723 d6be 2558 c9bf
000001d0: e2ff 01bf bc06 d4bf 3e37 ccbf 7d68 93bf
000001e0: 1dbb adbe beb8 1c3f ce25 81bf 5d36 02bf
000001f0: b493 52bf 1e1e 21bf d25f 9dbf fecb 42bf
00000200: 469e 6fbf 1763 edbe 968c 4bbf e592 99be
00000210: dcad 7cbf 1149 bcbf 4b87 973e 0dd0 e7bf
00000220: 916f 90bf e070 b0bf 3fc1 c4bf 33fb 2a3e
00000230: 8984 43bf c9d1 4abf e580 88bf 63c3 5bbe
00000240: bbf9 a1bf 6402 9dbf 464e dcbf ff72 2b3e
00000250: d3df 8dbf 76ff b7be 9441 5ebf 2d8e 3fbf
00000260: 8ddd d63f 1bc8 493e fce3 cbbf 27a5 99bf
00000270: 0f89 98bd 457d 06bf da57 d1bf 63a8 29bf
00000280: c425 1d3e bfb1 b4bf eacf 2cbf 2603 68bf
00000290: 100c bdbe 6a4d bebf fedc a8bf 128c 3bbf
000002a0: b34c c3bf fbcc b73f 0215 0bbf fb2f 85be
000002b0: b2ff a93d b6fa 84bf 2cfa babf cae5 0fbe
000002c0: f520 f4bf 6562 c2bf 02b1 85bf 4c86 efbf
000002d0: cfed 64bf 95db fd3c d99b cdbe 0b25 1bc0
000002e0: 95e0 07c0 6073 7ebf 6dea 8fbe 0dbf 3dbf
000002f0: ee81 70bf 855b 49bd 13ed 94bf 8e38 2bbf
00000300: f816 89be 58bf 1fbf c94e 493f f409 56be
00000310: d735 94bf dddb 593f 42ba 21be e7ea 45be
00000320: 054e 84bf 01ad 5dbf 33e9 c0bf 34cc cbbf
00000330: 0696 24bf c00a a5bf 01a7 85bf 878a c5bf
00000340: 9d16 afbf cbd1 e1bf bac3 83bf 5c0f bebe
00000350: 501c b1bf 7701 133e 0634 80bf f6e8 dfbe
00000360: 6224 76bf b713 98bf 1d2d 34bd 5aa7 d0bf
00000370: 3c31 49bf 3e01 e2bf 68e7 75bf a5f0 00bf
00000380: e1ef 7bbd df38 09c0 b1fc c9bf 6c84 54bf
00000390: c05f a3be 8f06 9bbf c488 2dbf e8c0 80bf
000003a0: 8904 4cbe d527 0ec0 5c96 96bf 88b3 023f
000003b0: 18e5 51bf b61f d53f 06a7 27bf 58fd fa3d
000003c0: 19bc 51bf bcc3 7bbf 4597 1ec0 0570 bb3f
000003d0: 28ac 33bf ab03 95be 5ebd 5fbe 59b5 47bf
000003e0: 044c 76bf 2c41 40bf fa26 88bf 9c5e 00bf
000003f0: 3623 1fbf 177f abbf 49b3 47bf 6875 f8bf

fc2.weight f4 [128, 260]
-0.34347132 0.12801707 -0.2682445 -0.21771875 -0.5484324 -0.04795984 -0.18970717 -0.09913281
-0.09831926 -0.078969434 -0.3610883 -0.02164346 -0.016453931 -0.27458045 -0.20810448 -0.21680732
0.0407715 -0.17841437 -0.1790017 -0.17222106 0.13291663 -0.67773414 0.0047711995 0.034708664
-0.13714437 -0.4516676 -0.29033133 -0.24082097 -0.20785485 -0.005454036 0.02738538 -0.06910349
-0.033996116 0.0074658124 -0.066063575 -0.086814605 -0.025349025 0.04050524 0.049315467 0.002658531
-0.096718304 0.13961592 -0.37694257 -0.12278458 -0.36882335 -0.08227112 -0.11503339 0.06754562
-0.25444198 -0.054920036 -0.017153654 -0.34972546 -0.008854615 -0.016193055 -0.007254793 -0.16609445
-0.7634626 -0.36552608 -0.1971455 -0.017937306 -0.38401794 -0.05389743 0.0037414117 -0.06755998
-0.09898789 -0.16609506 0.054062717 -0.10261103 -0.028877618 -0.060899097 -0.64133424 -0.10269419
-0.19188777 -0.007106016 -0.0069859135 -0.04040847 -0.07529526 -0.03808531 -0.011204931 -0.17328086
-0.004829658 -0.08059577 -0.42606574 -0.095260665 -0.06575232 -0.051657632 -0.013678001 -0.21834724
-0.21851395 0.038475122 -0.2707412 0.022640659 -0.04286176 -0.13068461 -0.46896422 -0.17410962
-0.028064998 -0.17580657 -0.09751054 -0.13943186 -0.423997 -0.020467645 -0.08012958 -0.5939403
-0.06160945 -0.11286561 -0.49963832 -0.029074471 -0.08958415 -0.12645839 -0.08104365 0.07633053
-0.043076545 -1.561044 -0.09704713 -0.7651613 0.07506646 -0.4639379 0.0011455308 -0.26102963
-0.2555285 -0.114590175 0.008069678 -0.38541073 -0.027703121 -0.048579156 -0.1636718 -0.2787001
0.023005528 -0.08821147 0.069611505 -0.30844942 -0.10779643 0.022265004 -0.18753421 0.0026062345
-0.2214772 -0.017858963 -0.24292918 0.025996543 -0.15453364 -0.04203604 -0.29464087 -0.3013627
-0.07797027 0.04778615 -0.057834093 -0.03825298 0.06928472 -0.50364846 0.017404389 -0.08960106
-0.19371362 -0.14055973 0.076901466 -0.25073284 0.055973873 -0.15838635 -0.02250013 -0.089751214
0.027944094 -0.0076906057 -0.25572947 -0.05629658 -0.033651363 -0.056013588 -0.29239205 -0.39966294
-0.121558666 -0.0013855615 -0.34461647 -0.19668141 -0.13354841 -0.19960903 0.052004393 0.031509392
-0.10734637 -0.013917581 -0.011286198 -0.07917973 -0.11553699 -0.07274179 -0.08748042 -0.034468338
0.034168743 -0.093744054 -0.16291118 -0.09868322 -0.06325376 -0.291155 0.10440897 0.0380828
-0.15257114 -0.024769008 -0.4541874 -0.009945171 -0.08138909 -0.36153734 -0.16934858 -0.13602722
-0.08408755 -0.16413544 -0.12475377 0.049006645 -0.0033419637 -0.062917836 -0.55829036 -0.04915742
-0.47613788 -0.2736939 -0.02695924 -0.090195864 -0.23009762 -0.31161872 -0.23665313 -0.06557903
-0.23903109 -0.13921165 -0.097676516 -0.26367983 -0.099435806 -0.088251464 -0.1139219 -0.13901196
-0.08097908 -0.029959688 0.14169581 -0.22589184 -0.06977021 -0.19835666 0.09799945 -0.10689852
-0.36603054 0.0600823 -0.033647656 -0.09035856 -0.32387534 -0.43224937 -0.054074176 -0.22819231
-0.062235795 -0.09062389 -0.06329607 -0.38650006 -0.2326971 -0.0042780875 0.023014428 -0.07952306
-0.11924356 -0.056264915 0.009636587 -0.020085385 -0.1066325 0.06670708 -0.7378003 -0.2791845
00000000: 79db afbe e816 033e 5857 89be aaf1 5ebe
00000010: 1166 0cbf 8a71 44bd 9942 42be 2506 cbbd
00000020: 9c5b c9bd baba a1bd 91e0 b8be a04d b1bc
00000030: 65ca 86bc cf95 8cbe 5719 55be bd02 5ebe
00000040: 0400 273d 42b2 36be 394c 37be b85a 30be
00000050: 4c1b 083e fc7f 2dbf b957 9c3b ac2a 0e3d
00000060: 936f 0cbe fa40 e7be 4fa6 94be c699 76be
00000070: e7d7 54be c5b7 b2bb 4e57 e03c 2186 8dbd
00000080: 833f 0bbd c6a3 f43b 574c 87bd dbcb b1bd
00000090: c2a8 cfbc d3e8 253d 04ff 493d c03a 2e3b
000000a0: 3f14 c6bd 7af7 0e3e 9efe c0be 7b76 fbbd
000000b0: 6ad6 bcbe c37d a8bd a096 ebbd 5c55 8a3d
000000c0: 3846 82be d5f3 60bd d285 8cbc 370f b3be
000000d0: f212 11bc 4ca7 84bc 9db9 edbb aa14 2abe
000000e0: 4972 43bf 3c26 bbbe 83e0 49be 42f1 92bc
000000f0: 009e c4be 8dc3 5cbd 7932 753b e35c 8abd
00000100: 2aba cabd d314 2abe de70 5d3d bb25 d2bd
00000110: c190 ecbc 5571 79bd 7b2e 24bf 5551 d2bd
00000120: 3a7e 44be 95d9 e8bb 17ea e4bb 5a83 25bd
00000130: 6734 9abd 58ff 1bbd e394 37bc 8a70 31be
00000140: 1c42 9ebb 650f a5bd 4a25 dabe 0618 c3bd
00000150: 27a9 86bd f496 53bd b219 60bc 6b96 5fbe
00000160: 1fc2 5fbe 1798 1d3d 979e 8abe e778 b93c
00000170: d08f 2fbd 30d2 05be 141c f0be cb49 32be
00000180: 91e8 e5bc a306 34be 9bb3 c7bd 3ac7 0ebe
00000190: 2316 d9be c3ab a7bc fa1a a4bd 790c 18bf
000001a0: 315a 7cbd 1626 e7bd 98d0 ffbe 962d eebc
000001b0: e577 b7bd 4f7e 01be 37fa a5bd 2e53 9c3d
000001c0: 0871 30bd 4ad0 c7bf a5c0 c6bd 9ce1 43bf
000001d0: 72bc 993d 4589 edbe a325 963a ada5 85be
000001e0: a2d4 82be 41ae eabd af36 043c 8e54 c5be
000001f0: a8f1 e2bc f0fa 46bd 9599 27be c8b1 8ebe
00000200: 1776 bc3c 37a8 b4bd 7a90 8e3d 15ed 9dbe
00000210: 60c4 dcbd 1965 b63c f808 40be 5ccd 2a3b
00000220: ebca 62be f64c 92bc 6dc2 78be b4f6 d43c
00000230: 113e 1ebe fc2d 2cbd 2bdb 96be 364c 9abe
00000240: e0ae 9fbd 69bb 433d 71e3 6cbd 28af 1cbd
00000250: 26e5 8d3d 1bef 00bf a693 8e3c c380 b7bd
00000260: dd5c 46be e4ee 0fbe 847e 9d3d 0e60 80be
00000270: dc44 653d 0830 22be 3152 b8bc 7ccf b7bd
00000280: 03eb e43c 7a01 fcbb f9ee 82be 3e97 66bd
00000290: 03d6 09bd 816e 65bd 69b4 95be 9fa0 ccbe
000002a0: c0f3 f8bd bb9b b5ba 9271 b0be da66 49be
000002b0: eac0 08be 4f66 4cbe 8f02 553d fe0f 013d
000002c0: 6ad8 dbbd 9106 64bc bfe9 38bc fb28 a2bd
000002d0: a89e ecbd a6f9 94bd ef28 b3bd ac2e 0dbd
000002e0: 86f4 0b3d e2fc bfbd 30d2 26be 6e1a cabd
000002f0: 308b 81bd 4512 95be 5fd4 d53d b6fc 1b3d
00000300: 9c3b 1cbe 60e8 cabc 408b e8be 12f1 22bc
00000310: 53af a6bd 6c1b b9be b769 2dbe b84a 0bbe
00000320: 1836 acbd 1f13 28be e87e ffbd 31bb 483d
00000330: d904 5bbb 11db 80bd 1eec 0ebf 4a59 49bd
00000340: 58c8 f3be 9b21 8cbe a0d9 dcbc 9cb8 b8bd
00000350: b69e 6bbe 7d8c 9fbe 3355 72be 4c4e 86bd
00000360: 91c4 74be 808d 0ebe a00a c8bd 0b01 87be
00000370: 00a5 cbbd 2fbd b4bd e34f e9bd 2759 0ebe
00000380: 5cd8 a5bd 056e f5bc b518 113e 3150 67be
00000390: afe3 8ebd 021e 4bbe f0b3 c83d 9ced dabd
000003a0: 5b68 bbbe dc18 763d 20d2 09bd e90d b9bd
000003b0: fdd2 a5be ca4f ddbe e27c 5dbd 3fab 69be
000003c0: f6ea 7ebd 0599 b9bd 5fa1 81bd 56e3 c5be
000003d0: 2648 6ebe 332f 8cbb c188 bc3c fcdc a2bd
000003e0: f835 f4bd 0a76 66bd c7e2 1d3c 1b8a a4bc
000003f0: 2462 dabd b99d 883d 7be0 3cbf 45f1 8ebe

fc2.bias f4 [128]
-1.7356508 -0.32769877 -0.2624179 -0.8787406 -0.9221684 -0.49604416 -0.5062905 -0.25919798
-0.7131809 -0.32082146 -1.0868008 -0.8938855 -0.361211 -0.26513314 -0.30232084 -1.1271337
-0.73681456 -1.0488652 -0.26045546 -0.9400634 -0.90381646 -1.2424985 -0.13027738 -0.522993
-0.214434 -0.40624562 1.0473733 -0.73780245 -0.29309386 -0.79860467 -0.35870692 -0.952551
-0.4463944 -0.22859319 -2.535388 -1.4803064 -0.5255018 -0.74719757 -0.7577806 -1.8516475
-1.0419589 -1.3593228 -0.29143766 -0.7675434 -0.78775537 -0.41535392 -0.47860765 -0.60568655
-1.1084757 -1.2852696 -1.3707716 0.7677468 -0.8972514 2.8082616 -2.0450091 -0.78546613
-0.30481207 -0.71870285 -0.655105 -0.64022905 -1.2111623 -0.9631602 -0.25932994 -0.23988578
-0.842146 -1.3270757 -0.30884144 -0.360584 -0.33406255 -0.5224709 -1.4945811 -0.44030067
-0.4373777 -0.9337015 -0.32820955 -0.24389789 -0.26467565 -0.26449588 -1.1353246 -0.23167318
-1.370711 -2.3570547 -0.8158336 -0.32319784 -0.4152907 -0.4392471 -0.5699859 -0.33379465
-0.33698553 -0.8156157 -1.3507291 -0.26498863 -0.49962255 -0.11753951 -0.7868362 -0.27943084
-1.1194178 -0.6247641 -0.43633023 -1.0030787 -0.3116425 -1.432185 -0.83420783 -0.4885
-1.7437123 -2.684735 -1.5032535 -0.6762728 -1.8693539 -0.589831 -2.3696456 -2.182437
-0.3176477 -1.4114487 -0.37313685 -0.42598316 -1.7566502 -0.4007989 -1.3453937 -0.57314867
-0.36959693 -0.40020448 -0.319689 -3.5943534 -1.6219116 -1.996886 -1.999263 -1.0577267
00000000: ce29 debf 22c8 a7be a45b 86be 25f5 60bf
00000010: 3a13 6cbf 80f9 fdbe 419c 01bf 99b5 84be
00000020: 0693 36bf b642 a4be 4a1c 8bbf aed5 64bf
00000030: a6f0 b8be 88bf 87be ccc9 9abe eb45 90bf
00000040: e19f 3cbf 3741 86bf 6b5a 85be ffa7 70bf
00000050: 8460 67bf 310a 9fbf 6f67 05be dfe2 05bf
00000060: 9694 5bbe 6dff cfbe 5410 863f 9fe0 3cbf
00000070: 6610 96be 5b71 4cbf 6fa8 b7be 62da 73bf
00000080: cf8d e4be 5514 6abe cc43 22c0 ae7a bdbf
00000090: 4987 06bf 5748 3fbf e9fd 41bf c902 edbf
000000a0: e95e 85bf 4afe adbf 5137 95be b97d 44bf
000000b0: 56aa 49bf 45a9 d4be 100c f5be 460e 1bbf
000000c0: 88e2 8dbf b783 a4bf 7275 afbf 0e8b 443f
000000d0: 45b2 65bf 8fba 3340 6ee1 02c0 4f14 49bf
000000e0: 5410 9cbe e9fc 37bf f6b4 27bf 0de6 23bf
000000f0: 5e07 9bbf ab91 76bf e5c6 84be 9ea4 75be
00000100: e196 57bf 9edd a9bf 7720 9ebe 779e b8be
00000110: 3f0a abbe a7c0 05bf 6f4e bfbf 176f e1be
00000120: f8ef dfbe 1007 6fbf 150b a8be 5ec0 79be
00000130: 9183 87be 016c 87be 5152 91bf bc3b 6dbe
00000140: 7573 afbf fcd9 16c0 79da 50bf 307a a5be
00000150: fca0 d4be ffe4 e0be 99ea 11bf 22e7 aabe
00000160: 5e89 acbe 31cc 50bf b1e4 acbf 97ac 87be
00000170: 87ce ffbe 8eb8 f0bd 196e 49bf 8f11 8fbe
00000180: 1549 8fbf 8af0 1fbf ad66 dfbe e264 80bf
00000190: 9b8f 9fbe d751 b7bf a58e 55bf ac1c fabe
000001a0: f731 dfbf b3d2 2bc0 9c6a c0bf 3720 2dbf
000001b0: fd46 efbf 2aff 16bf 46a8 17c0 0cad 0bc0
000001c0: b8a2 a2be 5aaa b4bf cb0b bfbe 771a dabe
000001d0: ead9 e0bf 8335 cdbe dc35 acbf dfb9 12bf
000001e0: cf3b bdbe 9ae7 ccbe 47ae a3be e309 66c0
000001f0: cd9a cfbf f699 ffbf dae7 ffbf 9763 87bf

fc3.weight f4 [1, 128]
-0.005611137 -0.0116205085 0.009930383 -0.02052215 0.030161725 -0.03092911 -0.011405079 -0.007930838
-0.015585151 -0.00011871939 0.007715125 -0.0105780745 0.011907093 0.030469764 -0.015913758 0.007524694
-0.011006886 0.0150858145 -0.0036505887 -0.018134145 0.0066407295 -0.010794595 -0.020760233 -0.014053475
0.0044798474 0.009717448 -0.0076450882 0.007227342 -0.0052818432 -0.026644938 0.012252426 0.028256679
0.01263773 0.028398693 -0.008670149 -0.0060301577 -0.015825126 -0.0022165435 -0.017426068 0.000678641
0.029326823 0.0057844436 -0.0126604475 0.0060979594 -0.0035583696 -0.008019741 0.0075641703 -0.0019181103
0.016017573 -0.026953675 -0.02147483 0.009492369 0.010266057 -0.0069526797 -0.03043992 -0.028526593
-0.008970327 0.027850803 -0.0047549005 0.0010248619 0.009096555 0.016091844 -0.02453231 -0.001212987
-0.017395059 -0.019568674 0.026685122 0.027998399 0.014641517 0.0002739467 -0.024654021 -0.028290424
0.011936651 0.014348475 -0.009748593 -0.016037025 0.0005682294 0.012301603 -0.027812125 -0.00096201076
0.015256412 -0.01206747 -0.021583116 0.026885305 -0.008822234 -0.022886124 0.0058223484 -0.008935898
-0.030418297 -0.012573351 -0.019663772 -0.030085726 -0.0056822947 -0.01232519 0.014585096 0.006933682
-0.002502437 0.017847536 0.024122944 0.008743161 -0.01231603 0.0062205167 0.0456838 -0.024001556
-0.020746766 -0.01572503 -0.05000837 0.021615576 -0.044773962 -0.0050520054 -0.020315144 -0.022403872
-0.013312132 0.015345122 0.000106869746 -0.011925988 0.013294297 -0.020335177 -0.01607718 0.008490019
-0.0067753233 0.019955704 -0.014682551 -0.0063342587 0.02568679 -0.014332427 0.011982556 -0.016938943
00000000: a1dd b7bb f263 3ebc 0cb3 223c 111e a8bc
00000010: b915 f73c 0b5f fdbc 5edc 3abc 58f0 01bc
00000020: dc58 7fbc fdf8 f8b8 29cf fc3b a94f 2dbc
00000030: f815 433c ba9b f93c 925d 82bc b591 f63b
00000040: 3a56 34bc 7e2a 773c b73e 6fbb 0f8e 94bc
00000050: 7a9a d93b d0db 30bc 5d11 aabc 8c40 66bc
00000060: afcb 923b ee35 1f3c a683 fabb 57d3 ec3b
00000070: 5013 adbb 7c46 dabc 66be 483c 8d7a e73c
00000080: 7b0e 4f3c 60a4 e83c 3e0d 0ebc a198 c5bb
00000090: b2a3 81bc 6e43 11bb 1dc1 8ebc d4e6 313a
000000a0: ce3e f03c 6e8b bd3b c46d 4fbc 64d1 c73b
000000b0: 8933 69bb 3b65 03bc dcdc f73b 1a69 fbba
000000c0: 4937 833c f4cd dcbc fceb afbc e285 1b3c
000000d0: f732 283c 4ed3 e3bb 245d f9bc 9ab0 e9bc
000000e0: 47f8 12bc 5e27 e43c ffce 9bbb a954 863a
000000f0: b809 153c 0bd3 833c fcf7 c8bc 17fd 9eba
00000100: 1580 8ebc 7c4e a0bc c29a da3c e65c e53c
00000110: f9e2 6f3c 81a0 8f39 3bf7 c9bc 52c1 e7bc
00000120: f191 433c de15 6b3c 90b8 1fbc 1460 83bc
00000130: 3bf5 143a aa8c 493c 41d6 e3bc 732f 7cba
00000140: 08f6 793c a3b6 45bc 13cf b0bc 923e dc3c
00000150: 228b 10bc ae7b bbbc 66c9 be3b df67 12bc
00000160: cb2f f9bc 7500 4ebc eb15 a1bc 5776 f6bc
00000170: 8b32 babb 98ef 49bc 54f6 6e3c f133 e33b
00000180: edff 23bb ff34 923c 7b9d c53c 7a3f 0f3c
00000190: 2dc9 49bc 7ad5 cb3b f01e 3b3d e99e c4bc
000001a0: 1ff5 a9bc c7d1 80bc 94d5 4cbd 2613 b13c
000001b0: e764 37bd 4b8b a5bb f26b a6bc 5388 b7bc
000001c0: 211b 5abc 1b6a 7b3c 421f e038 3865 43bc
000001d0: 53d0 593c f595 a6bc 4ab4 83bc b819 0b3c
000001e0: 8803 debb 257a a33c 158f 70bc 9d8f cfbb
000001f0: 1a6d d23c 8ed2 6abc 7c52 443c 8ac3 8abc
