p3_collab-compet/models/critic_0.pth (torch_old, 185326 bytes, 5 tensors)

fcs1.weight f4 [256, 48]
00000000: 76c0 863e 583b a1bf e77c 59be f9e0 b5be
00000010: 27e3 0c3e 2ddc 77bf 8106 6abe 2e4e a6be
00000020: aa85 263f 7742 c0bf c923 a83b 5f60 dfbe
00000030: 4bec 093e 17c6 a4bf 0d7e e43d 703e f2be
00000040: f2da 123f 8aa1 91bf e137 ad3e 36f7 3c3f
00000050: 6324 8f3e d904 f5bf d69b c13e 5207 263f
00000060: f9b6 123f d015 bfbe 1a70 913d ccb6 b53e
00000070: 3ccd 54be 7818 84bf fed7 0d3d 870e c73e
00000080: 1c9d 193f 20c6 9ebe e78f 70be bd9c 233f
00000090: 900f 3cbe dc72 a1bf bf07 83be 20df 313f
000000a0: c05d 213f b5b3 093e e926 cb3d 48d7 eb3f
000000b0: 8a0d a5be 8329 f5bf d349 d93d 50ad f53f
000000c0: 9309 163f 4c25 25be 381a 9abd 44da 3ebe
000000d0: f51d b6bf d721 a83d fdea dbbd 012e e9bd
000000e0: a100 983f 257e 813f dcc5 1fbd 28e4 6dbe
000000f0: a35a 85bf 4a9a 873e a118 40bd 1c89 5bbe
00000100: dc37 c73f 3d43 a23f 5481 3a3c 3cf5 9f3d
00000110: 4595 38bf e601 083f ab05 eebb 9fee 98bb
00000120: bcd0 2f3f 3c18 1c3f 312e 153e 9f5b ce3e
00000130: 97b7 ab3f e51b d83d 6a1f cb3d 26fa c83e
00000140: 309b e13f 2825 233f 35da 883e 91a0 4cbf
00000150: 4e56 7b3f 27f4 9c3e 8bf0 9c3e 24e1 56bf
00000160: 78f4 b03f 2430 343e 511a 143e 81ac abbe
00000170: 2528 3a3f 2f24 183f b2c4 fd3d 7b42 9fbe
00000180: 5536 e63e b918 4940 121b 7e3c 974e 593e
00000190: 9795 c8bd b2fa c4bf d18b b83a f507 9d3e
000001a0: fa17 613f cc46 6740 c996 5b3c 90b1 30bd
000001b0: 4abf ccbe 7498 25c0 7d62 e63d 230e 84bd
000001c0: 6ced 4b3f d268 3b40 4e36 14bf caec 6abf
000001d0: 5c47 90be c3a0 78c0 9f31 fabe dbdf 4dbf
000001e0: c8dc 8c3e d2cf a63d 5c5a 73be c9c1 bfbe
000001f0: 91bd d23d 2227 c3bf 8d72 20be 5c7c e7be
00000200: 76ad 883e 683b e53e a466 3e3e 8edb b03d
00000210: 9682 d93e 94df 26c0 5130 303e d4f9 c13d
00000220: 7f04 a33e dc3b c93e 1a76 d6bc b4b7 3cbe
00000230: 18cd 9a3e f845 76c0 1d55 aebb 01e4 f4bd
00000240: cc74 503f 0f79 f6bc 48e9 8dbd ea5c a8bd
00000250: def4 423f fded 193f 2fe6 d9bd 50ab 6fbd
00000260: 4fbe 9a3f a88a 013f 4156 c9bb 9f65 07bd
00000270: 2c0c 033f 09a0 143f eb53 593d c1a8 15be
00000280: 343e eb3f 2418 e63f 2609 c23d 8b09 edbe
00000290: 77e6 b03f a4ff 98bd 00e0 093d 89c3 d5be
000002a0: c8cd 0b3e 99c7 6cbf 5116 8bbc 4553 1bbe
000002b0: da57 4bbf dc9d 023f 4f1d 973c 5c11 d2bd
000002c0: 7359 723e 37a9 92bf edd1 633c 418d 4dbe
000002d0: 69a4 02bf 4c77 1d3f 9104 bebd ebfe 78be
000002e0: 8a23 e33e da2c 93bf 3200 86bd c4c9 b6bd
000002f0: f229 adbf be88 c3bd 4c4c a0bd 62a9 dabd
00000300: a218 263f 9175 d7bf cf2c b6bd 7acc 85be
00000310: b0aa 41bf 4ccf c5bf 7c22 26be a78e 92be
00000320: 34a7 bb3f 43fe 9abf 437f 1d3e e9df 113d
00000330: 7ed3 173e 971c d0bf 169c 2a3e 390b ff3d
00000340: 2a8e 5a3f 4c26 a1bf 2d04 a1bd df80 5abe
00000350: 55e8 dd3f 27ad da3e b326 0dbd 2da8 53be
00000360: 88c9 cb3e ddce 12be 9582 fdbe 1808 013f
00000370: c75a 3c3f 468d bdbf 4684 fbbe 64bc 043f
00000380: 7a42 453f bfd4 5d3e 0558 fb3c a39f 06bf
00000390: 8c91 81bd 54fd dabf e703 fd3d 79e9 dabe
000003a0: 3b4c 193f 9a7e dbbd bc78 9a3d 03df b53e
000003b0: 8d13 dbbf 939a b83e 6478 0a3e 591c 983e
000003c0: f2c7 32be be1d 00c0 1ede 283d 4253 3e3e
000003d0: ddc6 d93e be1a 913f 3558 5d3d f6f6 713e
000003e0: 11b2 9c3e 5fef a6bf 43de b6bd abdd 2bbf
000003f0: 9fad 9fbc dc28 0e3f 0643 97bd fad3 23bf
0.2631871 -1.2596235 -0.21239053 -0.35523203 0.13758527 -0.96820337 -0.22854044 -0.3248152
0.65047705 -1.5020283 0.005131219 -0.43628213 0.13469045 -1.2872952 0.11156855 -0.4731326
0.57365334 -1.1377423 0.33831695 0.73814714 0.27957448 -1.9142104 0.37814206 0.6485492
0.57310444 -0.3732133 0.0710146 0.35491025 -0.20781416 -1.0319967 0.034629814 0.3887827
0.60005355 -0.31010532 -0.23492394 0.6391104 -0.18365312 -1.2613177 -0.25591847 0.69481087
0.63033676 0.13447459 0.09919531 1.8425074 -0.32236892 -1.9153293 0.10609784 1.9193516
0.5860836 -0.16127509 -0.07524532 -0.18637949 -1.4227892 0.082095794 -0.1073818 -0.11385728
1.1875192 1.0116621 -0.039007053 -0.23231566 -1.0418285 0.264849 -0.046898488 -0.21439022
1.5563922 1.267677 0.011383373 0.078104466 -0.7210277 0.53127897 -0.0072638593 -0.0046671177
0.6867788 0.6097448 0.14568402 0.40304276 1.3415402 0.105521955 0.09918101 0.39253348
1.7625484 0.6372857 0.2672898 -0.79932505 0.98178566 0.30655023 0.3065227 -0.8393729
1.3824606 0.17596489 0.14463164 -0.33530048 0.72717506 0.5943021 0.12391032 -0.31105408
0.44963327 3.142134 0.015509384 0.21221386 -0.09794157 -1.5389006 0.0014079754 0.30670133
0.8792721 3.613696 0.013402649 -0.043138087 -0.39989692 -2.58743 0.11249254 -0.06448009
0.7965915 2.9282727 -0.5789536 -0.9176756 -0.28179443 -3.884812 -0.48865983 -0.804197
0.27512193 0.08145107 -0.23764938 -0.37452534 0.10290063 -1.5246317 -0.15668698 -0.45212066
0.2669484 0.44771886 0.18593842 0.08635627 0.42482442 -2.6073961 0.17205931 0.09471479
0.31839368 0.39303482 -0.026179362 -0.18429452 0.302346 -3.8480206 -0.005320205 -0.11957551
0.8142822 -0.030087022 -0.069292605 -0.08220847 0.7615489 0.60128766 -0.10639607 -0.058512986
1.2089328 0.506022 -0.0061443155 -0.033055898 0.5119045 0.58056694 0.053058546 -0.14615156
1.8378358 1.7976117 0.09474401 -0.46296343 1.3820332 -0.074706346 0.03366089 -0.41750744
0.13652718 -0.9249206 -0.016978415 -0.15168484 -0.79430926 0.51022124 0.018446593 -0.10257217
0.23666935 -1.145789 0.013905031 -0.20073415 -0.5103212 0.6151016 -0.09278215 -0.24315993
0.44363052 -1.1498063 -0.06543006 -0.089252025 -1.3528426 -0.09547566 -0.078270525 -0.106768385
0.64881337 -1.6832753 -0.08895265 -0.26132566 -0.75651073 -1.5453887 -0.16224092 -0.2862446
1.4660401 -1.2108845 0.15380578 0.035613928 0.14826772 -1.6258725 0.16661105 0.124533124
0.85373175 -1.2589812 -0.078621246 -0.21338223 1.7336527 0.4271023 -0.034460735 -0.20669623
0.39802194 -0.14336725 -0.4951369 0.50402975 0.73576015 -1.4808738 -0.49124354 0.5184996
0.7705456 0.21663187 0.03068162 -0.52587336 -0.06326589 -1.710856 0.1235426 -0.4275625
0.59881943 -0.10717507 0.075425595 0.35521707 -1.7115341 0.3605543 0.13522488 0.29709128
-0.17459086 -2.0018153 0.041227452 0.18586448 0.42534533 1.1336286 0.0540392 0.23629364
0.30604604 -1.30418 -0.08929112 -0.67135113 -0.019491969 0.55531096 -0.073858306 -0.63995326

fcs1.bias f4 [256]
00000000: 052d 87be 3cf6 e1bf 887e 9ebf d541 64bf
00000010: f08b a7bf 7f6c 16bf d4ae 96bf 3ce8 45c0
00000020: e4f5 4ebf 9529 93bf ea11 8bbe bc2c a5bf
00000030: 15b1 e6bf d08d 373f b2b5 0dc0 9873 93bf
00000040: cae3 43bf a4d1 8abf f2ce 05bf 0361 d93f
00000050: 150e d1bf e9b1 83be 745b be3f 66c4 3abe
00000060: 549c 82bf 50a3 00c0 adef 03c0 c63f 46bf
00000070: 93f9 dfbf ae4d f0bf 4da7 87bd 1868 46bf
00000080: 1ec0 4ebf 2426 c4be 574b 2fbe e42a d03e
00000090: ed9a 8ebe 3711 f8bf eca3 e0bf affc 5bbe
000000a0: ed98 94be 1b1f cd3c 951d 23c0 0c6e dfbf
000000b0: 6a74 07c0 07f1 23bf 2cc5 11c0 7e3b a4bf
000000c0: a41e e63f 4776 aa3f ce06 83bf 1d8e 2abf
000000d0: 042e aebf 33c3 47bf f586 87bf d547 2bc0
000000e0: 2798 b6be 0f75 f5bf b0c0 bbbf 4a34 94bf
000000f0: 740c 8ebf 8c6d 61bf 6ad6 80c0 e045 55bf
00000100: 167e c2bf 9605 96bf 3f7c adbf 593e b5bf
00000110: 6074 0ec0 28c2 eb3f 7b9a 2ec0 8a65 ab3e
00000120: 1a56 f63d a68c 3cbf 5547 71bf c849 9cbf
00000130: fd6e 99bf 559f 01be 9eef a8bf ee68 6fbf
00000140: 20b6 02bf 1c70 79bf bd7b 91be 5bdc 99bf
00000150: 4ec0 13bf a0b6 9ebf 695a c7bf d706 93bf
00000160: 8639 873f f5e0 dfbf 8b83 6e3e 7f70 60bf
00000170: 2bad 88bf 7e54 3040 a256 80bf 896b d53e
00000180: 5f01 da3c 6725 d8bf 49bb bcbf 7f3f 8dbf
00000190: f3e3 dfbd 9e16 5cbf d744 3c3e 1a02 293f
000001a0: a17e 29be bc9c a93e f9fa b23f e892 d7bf
000001b0: 8cf8 99bf 3e6f 29bf 866d 12c0 a81e 34be
000001c0: e6ac 94bd 4d88 2d3f e160 7ebf 3984 a0bf
000001d0: a253 13bf 1d25 75bf 7ab6 5ac0 e6d8 2bbd
000001e0: d306 afbf d3b9 b03f 3907 15bf 0d00 e2bf
000001f0: df2d 43c0 42e8 46bf 2760 8dbf 8155 2dbf
00000200: 70e6 92be 4ffb 153f 9da4 8cbe ec14 1abf
00000210: a961 eabd 8cab 91be c4ae 8abe 7f3d a6bc
00000220: f8c9 dcbf 32e3 4cbf 57e1 7cbf f320 99bd
00000230: da8a 9abf ce29 4dbe a296 11bf b1b5 0dbf
00000240: b956 413f ddc2 d2bf fc59 abbf 52ba b33e
00000250: 1f88 96be 811e 5d3d baf5 b5bf 201e 14c0
00000260: 1bab 8abf b7b7 653f 36dc d93f bcc5 97bf
00000270: fba3 f43e 92c3 533d f546 96bb cca5 f3be
00000280: 0764 b3bf 4e2e 86be 6361 8fbf f648 6abf
00000290: 0cf8 7cbf 82e5 8abf 764e f1bf 2c2f 5abe
000002a0: f1c3 04bf bf2f 3fbf 37ab 24bf 620f 433f
000002b0: 6585 1ebf 6eb1 92bf 0abe 8ebf da40 0f3f
000002c0: 6f5c 1dbf 889b 11bf 2c3d e4be a397 bdbf
000002d0: 845f f93f 0e45 72bf 931e 9dbe fadb 83be
000002e0: 63c3 84bf 059b a7bf e78b 77bf 6a7a 2cbf
000002f0: aefa 0c40 adb3 e5bf d7b0 00bf de62 00c0
00000300: ceea 22bf 033d 1e3e 5b7b 13be bbc8 a9bf
00000310: 5cdb 31bf 5875 92be a005 343f 6f5c c43e
00000320: 271c 05c0 841f 61bf 015b 51be 298f a4be
00000330: 2119 acbf ab39 61bf 21c6 16bf cb68 f5be
00000340: 2113 6a3f 20be 18bf dfac 42bf f2a9 20c0
00000350: 394a c9bf ee5e f6be 1e36 953e 19fa 89bd
00000360: 5f0d a6bf edeb 35bf 3614 b03e 0615 bcbf
00000370: 8a6d 2abf d09d a0bf 69e0 5fbe 0f9e 6f3c
00000380: ad3c c33f e9c5 0e3f e09a b4bf ddde 1e3e
00000390: 663b 14c0 33fb ccbf 7a66 1cbe 4b68 9dbf
000003a0: 882b 1b3e e92b 08c0 947d f3bf 5d84 d43e
000003b0: 727a 02bf 26cf 92bf 5c33 503e 565a 9bbf
000003c0: 654f 6f3f dbfe f6bf 8ba9 1ebf e4d3 9bbf
000003d0: 846b 81bf b75b c8bf 3ec0 35be 5b06 84bf
000003e0: 1370 17bf 2ad8 4dc0 cfb0 633e d90a 023f
000003f0: 4048 8abf f034 40c0 452d 21bf 131c 9fbf
-0.26401535 -1.765327 -1.2382364 -0.8916295 -1.308958 -0.587593 -1.1772103 -3.0922995
-0.8084395 -1.1497065 -0.27162105 -1.2904277 -1.8022791 0.71700764 -2.2142148 -1.1519651
-0.76519454 -1.0845227 -0.522689 1.6982731 -1.6332422 -0.25721672 1.4871659 -0.18238983
-1.0203958 -2.0099678 -2.0615036 -0.7744106 -1.7498039 -1.8773706 -0.06623707 -0.77502584
-0.807619 -0.3831035 -0.17118584 0.40657723 -0.27852574 -1.9380254 -1.7550025 -0.2148311
-0.29022923 0.025039246 -2.5486805 -1.7455459 -2.1164804 -0.64039654 -2.2776594 -1.2830656
1.7978101 1.3317345 -1.0236452 -0.666231 -1.3607793 -0.78032225 -1.0588061 -2.6762593
-0.35662958 -1.9176348 -1.4668179 -1.1578457 -1.109755 -0.8805778 -4.0261736 -0.83309746
-1.5194728 -1.1720455 -1.3553542 -1.4159652 -2.225853 1.8418627 -2.7281787 0.33475906
0.12028141 -0.7365211 -0.9424947 -1.2210016 -1.1986996 -0.12658437 -1.3198125 -0.93519485
-0.5105915 -0.9743669 -0.28414717 -1.2020372 -0.5771531 -1.2399483 -1.5574466 -1.1486462
1.056443 -1.7490526 0.23292367 -0.87671655 -1.0677847 2.755157 -1.0026438 0.41683605
0.026611982 -1.6886414 -1.4744655 -1.1035002 -0.1093215 -0.8597201 0.18385635 0.6601883
-0.16552211 0.3312739 1.3982841 -1.6841707 -1.2028975 -0.6618537 -2.2879348 -0.1758982
-0.0725954 0.67786103 -0.99366575 -1.2540351 -0.5754949 -0.95759755 -3.4173875 -0.041954897
-1.3673958 1.3806709 -0.58214146 -1.7656265 -3.0496747 -0.7769815 -1.1044968 -0.67708594
-0.28691435 0.5858659 -0.2746934 -0.60188174 -0.114444084 -0.28451192 -0.2708646 -0.020292995
-1.7249136 -0.8003417 -0.9878134 -0.07476988 -1.2073624 -0.20035478 -0.5687047 -0.55355364
0.75522953 -1.6465718 -1.3386836 0.3510309 -0.29400727 0.05398417 -1.4215615 -2.3143387
-1.0833467 0.8973345 1.7020328 -1.1857219 0.47781357 0.051700182 -0.0045860955 -0.4758743
-1.4014901 -0.26207203 -1.1201595 -0.9151758 -0.9881599 -1.085129 -1.8852069 -0.21307057
-0.5186148 -0.7468223 -0.64323753 0.7619535 -0.61922294 -1.1460397 -1.1151745 0.5595833
-0.6146917 -0.56877947 -0.4457792 -1.4811901 1.9482274 -0.9463662 -0.3068739 -0.25753766
-1.0372127 -1.3094183 -0.9669785 -0.6737429 2.2028003 -1.7945458 -0.50269836 -2.0060344
-0.63639534 0.15452962 -0.14402525 -1.3264383 -0.6947534 -0.2860515 0.70321083 0.3835177
-2.0798433 -0.87938714 -0.20444871 -0.32140473 -1.3445169 -0.8797862 -0.5889607 -0.47931513
0.9143544 -0.5966511 -0.7604503 -2.5103726 -1.5725776 -0.481193 0.2914285 -0.067371555
-1.297283 -0.7106312 0.3439042 -1.4693916 -0.66573393 -1.254816 -0.2186295 0.014625086
1.5252892 0.55770737 -1.4109764 0.15514703 -2.3161254 -1.601416 -0.15273467 -1.2297453
0.15153325 -2.12768 -1.9022698 0.41507235 -0.50968087 -1.1469467 0.20332092 -1.2136943
0.9348052 -1.9296526 -0.6197745 -1.2174039 -1.0110936 -1.5652989 -0.17749116 -1.031444
-0.59155387 -3.2163186 0.22235416 0.507978 -1.0803299 -3.003231 -0.629597 -1.2430443

fc2.weight f4 [128, 260]
00000000: b8c0 d2bd 1367 053d 136e fe3a ca28 12be
00000010: 4a2c 29bd 6cbf ccbd a4db 983a 87c7 13be
00000020: b237 64bd 44b7 aebd 26dc b3bd e583 8a3c
00000030: c2f3 1abd ecc0 7c3c 4d2b 94bd 80e5 753d
00000040: 04b1 343d e7a1 a1bc a29f 11be 6922 94bb
00000050: cde9 6f3b d1dd b2bc e496 f4bc 71e2 38bd
00000060: ce6d 97bc af11 b3bd c7f7 a0bd 905e fdbc
00000070: b7df 03be 324e 54bd ec65 f2bb 901f 4abd
00000080: 4f30 cabb 65cf 0c3c fcc5 5ebd fd24 91bd
00000090: 173d a23d 9eca 243d 7654 af3a f291 623c
000000a0: adf7 89bd dd4f 40bd b157 ddbd dcbc a8bd
000000b0: d51a 7cbd 5b22 a53c b5f9 713c 47a7 d33c
000000c0: 9991 f5bd e453 05be c385 9c3d d8f5 373d
000000d0: 88e9 863d 2432 8a3b 82b6 4d3c c2a5 45bd
000000e0: 9d26 b7bd cccf 8cbc 2db9 4c3d 615b d33c
000000f0: b653 37bd 65ab 65bd 0f9d 7fbc 10c5 883d
00000100: 07be 12bd 70f2 4bbd b758 f33c d0b8 b9bd
00000110: d90a abbd af21 8dbd a3c1 6abd ce5e 79bd
00000120: 48e4 c4bb 296a f9bb 4aff b3bd 505b ffbc
00000130: 4bc2 4a3c 0359 013d c857 22bd 270b 0c3c
00000140: 3b9c 113d a987 a8bd d7de babc 42f1 aabd
00000150: ad4c 81bd 2f7d d8bd 67e1 81bd c572 d6bd
00000160: 6fc5 bcba ba54 a23d c155 5c3c c164 a5bd
00000170: b6a0 64bd 098e d6bc 05d2 5fbd 7615 2f3d
00000180: 10a3 b5bc e6b6 b8bd d2e6 4cbd 537c d4bd
00000190: de99 22be 3263 97bc ddba e4bd 79e3 f8bd
000001a0: 4678 7abb 31e1 93bd 8b40 67be c4ba 38bd
000001b0: ef3b 69bd 47cb 3ebd 4157 a7bd 597d 083d
000001c0: b5d2 02bd f7bd 1abd 816f 57bd c7ab 75bd
000001d0: e4ce 173d 8b5b 1abd 9e6a 2f3b baf9 fcbd
000001e0: ccac ef3c d01b e7bd b233 e2bb 9447 b4bd
000001f0: e253 dfbd 9d1d 453d 910a 323d 2356 11bd
00000200: 80f1 babc d386 cfbd f49a 78bd f786 1abe
00000210: d7a2 403d 0508 9e3c ad81 183c f5c3 65bb
00000220: 0daa 26be 1af6 1cbd bf03 32bd ada2 673d
00000230: 300b d8bc 12a5 babc e265 17bd 8874 ebbc
00000240: e524 36bd 2fcc e93c bd68 e7bc 8036 b4bd
00000250: 5c5e 8f3d 2771 e5bc f32e a33d 4925 cbbd
00000260: c63f a5bd 6647 8abc b79d 533c e2c1 07be
00000270: bbf5 7f3d 1380 bebd 1a36 90bd c0e8 90bd
00000280: f604 233c 255a 0fbc b256 16bd a772 67bd
00000290: ce7b 9a3b a33e 7ebd 1286 2bbd d5d5 ea3c
000002a0: 87ee 823d 95a0 c03c ae94 13be c910 1d3d
000002b0: 2c37 71bd 1cfe afbc 500e 05bc 8fe0 823b
000002c0: b012 dcbd f9f6 22bd 7e27 1a3c 12a9 78bd
000002d0: 2258 9ebd 5fa4 33bb 0162 05be 4aa7 97bc
000002e0: 8d6d cf3b 2c77 c4bd ab22 02bd 220a 89bd
000002f0: 92f8 1dbd 9a25 38bc d413 8bbd 8b85 cbbd
00000300: 2a22 f73c 8975 9ebd 33e7 6bbd b3ff bc3c
00000310: 0e54 acbd f5c4 7a3c 865f d3bd 627a 0abe
00000320: 8bb5 c2bd c239 d2bd 3d9a febd 2cb8 32bd
00000330: 0a6e 3dbc 0a6e 53bc e6a5 b7bc 4dd5 2bbd
00000340: 94ae a7bc 7b37 7d3d ad6d 9fbc 585d c3bc
00000350: f13b 5d3d a907 1e3c b131 52bd affd a4bd
00000360: be4a eebd 7625 babd d8a0 81bd b757 23bd
00000370: 2445 26bd 1e94 d53c 6e82 f4bd b77e 08be
00000380: b3b8 e5bc fb0d 98bd 63ac 34bd d2ed 98bc
00000390: a432 07be 41ae 84bd 95a8 f1bd 63ed 64bd
000003a0: 7af1 a53b c0d6 e9bd 0bf1 713d 777c 803c
000003b0: d4e4 9dbd 4e99 d2bd 99aa 0abd afc2 1b3c
000003c0: b375 44bc 8c28 b7bd ed54 8abd 65f7 f3bc
000003d0: 28c5 663d 2df8 7fba 3a3c 1d3d f6cd c0bd
000003e0: 720a 66bd 4d1e 42bd 2ef6 2d3d f570 90bd
000003f0: b1a0 733c 7ead 463d 7ad3 f7bb af1e 88bd
-0.102906644 0.032569002 0.0019411467 -0.14273372 -0.041302003 -0.09997448 0.0011662138 -0.14431582
-0.055717178 -0.08531049 -0.08782224 0.016908595 -0.03783012 0.0154268555 -0.072348215 0.06003332
0.044114128 -0.019730521 -0.14221051 -0.0045207036 0.0036607862 -0.021834286 -0.029857107 -0.045137826
-0.018484976 -0.08743607 -0.0785976 -0.03092888 -0.12878309 -0.051832385 -0.007397404 -0.049346507
-0.0061703096 0.008594369 -0.05438803 -0.07087133 0.07921808 0.040232293 0.0013376612 0.013828741
-0.067366935 -0.046951164 -0.108077414 -0.08239147 -0.061549027 0.020157984 0.014769007 0.0258366
-0.11990661 -0.13020283 0.076427005 0.04491219 0.06587511 0.004217403 0.01255572 -0.048253782
-0.08942912 -0.017188929 0.049981285 0.025800409 -0.044757567 -0.056071658 -0.0156014105 0.06678212
-0.035825755 -0.049791753 0.029705388 -0.09068453 -0.083516784 -0.0689119 -0.057313573 -0.06088143
-0.0060086586 -0.007611532 -0.08788927 -0.03117147 0.012375425 0.03157903 -0.039634496 0.008547581
0.035549384 -0.08229 -0.022811336 -0.083467975 -0.06313453 -0.10570752 -0.0634182 -0.10471109
-0.0014402102 0.079263166 0.01344818 -0.08075858 -0.05581733 -0.026190775 -0.05464365 0.042745076
-0.02217248 -0.0901926 -0.050024815 -0.103752755 -0.15879008 -0.018479917 -0.11168454 -0.12152762
-0.0038218661 -0.07220686 -0.22583215 -0.04509999 -0.056941923 -0.04658058 -0.08170939 0.033322666
-0.031939227 -0.03777882 -0.052596573 -0.059978273 0.03706254 -0.03768496 0.002676643 -0.12352319
0.0292572 -0.11284602 -0.006903135 -0.08802715 -0.10904671 0.048123945 0.04346711 -0.035482537
-0.022820234 -0.101331376 -0.06069465 -0.15090548 0.047030296 0.019290933 0.009308261 -0.0035059426
-0.16275807 -0.03832064 -0.043460604 0.056551624 -0.026372522 -0.02278379 -0.036962397 -0.02874209
-0.04446878 0.028539745 -0.028248185 -0.087994576 0.070004195 -0.028008057 0.07967939 -0.09919221
-0.080688044 -0.016879749 0.01291602 -0.13257554 0.062490206 -0.09301772 -0.07041569 -0.070756435
0.009949913 -0.0087495195 -0.036703773 -0.056505825 0.0047144657 -0.062071454 -0.041875906 0.028666416
0.06393152 0.023514071 -0.14412186 0.038346086 -0.058890507 -0.021483473 -0.008121088 0.0039940546
-0.10745752 -0.039786313 0.00940883 -0.060708113 -0.07731654 -0.0027411205 -0.13025667 -0.018512387
0.006330198 -0.09593043 -0.031771343 -0.06691386 -0.038567133 -0.011239434 -0.06790891 -0.09937581
0.030167658 -0.07737262 -0.057593536 0.023071146 -0.0841447 0.015305747 -0.10320954 -0.13523248
-0.09507283 -0.10264923 -0.12431762 -0.04363267 -0.01156188 -0.012904653 -0.022417974 -0.041951466
-0.020468988 0.06182049 -0.019461477 -0.02384822 0.054012243 0.009645381 -0.05131692 -0.08056199
-0.1163535 -0.09089176 -0.06329507 -0.039878573 -0.04059328 0.026071604 -0.1193894 -0.13329588
-0.028042173 -0.074245416 -0.044109713 -0.018668089 -0.13202912 -0.06478549 -0.117997326 -0.055890452
0.0050641866 -0.114179134 0.059067767 0.01568435 -0.07709661 -0.10283147 -0.0338541 0.009506865
-0.011990952 -0.089432806 -0.067544796 -0.029781053 0.056340367 -0.0009764459 0.038387515 -0.09414284
-0.056162305 -0.04739218 0.042471103 -0.07052795 0.014869855 0.0485053 -0.007563052 -0.066464774

fc2.bias f4 [128]
00000000: b2a0 cfbd 367a 3ebf 4e98 93be 5c05 313d
00000010: 1731 aabe 4727 46be 9263 1fbe 6c5e 17be
00000020: a5cd d8bd aa47 2dbe 6dcb 02be 4b0b 7cbf
00000030: d7c3 82be 044c 52be c702 69be 99c6 80be
00000040: da9f 61be 6876 43be 57b9 26be 5111 45c0
00000050: 8d4b 0ebe b27e 44be 024b 61be 95c0 f7bd
00000060: 0c14 14be 9772 0dbf 0fdb ddbe 0f38 0fbe
00000070: 22cc d4bd 21aa e4bd a424 34be a3b7 1bbe
00000080: 434b 45be a488 67be f8e9 b5be 211a 63be
00000090: 4975 0ebe f7d4 58be 1b31 99be 65b0 24be
000000a0: 948c 76be 6218 c6bf a345 1abe 703b 35be
000000b0: 4c78 49be 27ee 22bf 2ac8 43be 31ac 0dbe
000000c0: a787 39be dad1 643c 3858 39be d09e a1be
000000d0: 1279 4abe f750 c43e 102c 4bbe 84fc e1bd
000000e0: 94be 0cbf 6a9d 19be 56f2 c6bd 2ea2 79be
000000f0: 4693 43bf e1af 5cbe 8885 eabd 91a2 1abe
00000100: c5ef 0abf 24e1 6bbe 471b 83be 20a5 7dbf
00000110: 4f63 5ebe 0de3 0dbe 7d6e 7ebe d43c 4ebe
00000120: a2e9 35be 6efc 9bbe e718 cfbd 23ce 5ebe
00000130: d4b0 20be 81ca 8bbe f177 2e3e 64e8 08be
00000140: fcd2 7abe 2425 adbd 9bff 52be a691 34be
00000150: 59b9 3cbe 9cfa e7bd c0f7 9bbe b25e 62be
00000160: e279 42be 48c0 45be dcb0 edbd e568 fdbd
00000170: 4ab3 78be 1605 80be fce1 46be d57f 3abe
00000180: 5574 09be 9094 a1bd 4444 45be 628a ccbf
00000190: 8671 3abe d300 0bbe 9ed5 3ebe 609a 79be
000001a0: 51ec 00be b796 afbf f043 4ebe ca23 45be
000001b0: 6374 17be 7639 15bf 8765 3fbe 1b4b 8bbe
000001c0: bba6 27c0 7d17 1bbe 7f74 eabd 8245 83be
000001d0: d55c 9bbe 87b7 4ebe 73f6 13be 12b1 a4bd
000001e0: 4a22 cabd de44 85be 3962 7abe 1cf6 3840
000001f0: 2f63 45be eceb 0dbf b496 2b3d b8ec 8bbe
-0.10138072 -0.7440523 -0.28827137 0.043218 -0.33240578 -0.1935092 -0.15565327 -0.14782113
-0.105860986 -0.16921869 -0.12772913 -0.9845473 -0.2554004 -0.2053681 -0.22754966 -0.25151518
-0.22033635 -0.19088137 -0.16281639 -3.079182 -0.13896008 -0.19188955 -0.2200127 -0.12097279
-0.14460772 -0.55252975 -0.4333119 -0.13986228 -0.10390498 -0.11165262 -0.17592102 -0.1520677
-0.19266991 -0.22610718 -0.35530066 -0.22177936 -0.13911928 -0.2117499 -0.29920277 -0.16082914
-0.24077064 -1.5476191 -0.15065627 -0.17698455 -0.19674796 -0.6364464 -0.19119325 -0.13835217
-0.18118154 0.013966048 -0.18100059 -0.31566477 -0.19772747 0.3834302 -0.19841027 -0.11034492
-0.549783 -0.15001455 -0.09714191 -0.24378273 -0.76396596 -0.21551467 -0.1145125 -0.15101077
-0.5427211 -0.23035103 -0.25606748 -0.99080086 -0.2171757 -0.13856144 -0.24846835 -0.20140392
-0.17764905 -0.30466026 -0.101121716 -0.21758322 -0.15692455 -0.27302936 0.17037942 -0.133699
-0.24494547 -0.0845435 -0.20605318 -0.17633685 -0.1843008 -0.11327097 -0.30462456 -0.22106436
-0.18991807 -0.1931163 -0.11605999 -0.12373523 -0.24287143 -0.2500388 -0.19422144 -0.18212827
-0.13423283 -0.07889664 -0.19264323 -1.5979731 -0.18207368 -0.13574533 -0.18636176 -0.24375296
-0.12590148 -1.371787 -0.20143104 -0.19251934 -0.14790492 -0.58290803 -0.18691073 -0.27205738
-2.6195514 -0.15145679 -0.11448001 -0.25638968 -0.30344263 -0.20187198 -0.14449482 -0.08041586
-0.09869821 -0.26029104 -0.24451531 2.8900213 -0.19276117 -0.55438113 0.04189177 -0.2732904

fc3.weight f4 [1, 128]
00000000: 379f 5dbc ce6e 59bc 9c1a 213c 5c57 08bc
00000010: 14ea 2bbc 4e4b 48bc d80c 62bb c29f 783c
00000020: 496c 8d3b 5b7f b53c 959c 5aba 09bf 22bc
00000030: c259 8a3c 45cc 2dbc b076 963c 0991 a4bc
00000040: 8f2e 0bbc 9a05 f4ba 4316 5e3b 1b9a e53b
00000050: 29b6 d03c bd52 523c 6cbd a93b 26b5 803c
00000060: c927 973c 442d 2c3c 1364 2fbd 8d4f f93c
00000070: ed3e b8bb ce2a 823c 78ce f8bc 4a99 00bc
00000080: 5cc9 e6bc 5c77 babc a9fc 693c 6950 a43c
00000090: 9311 d4bc e253 e73c 9e20 17bd 5092 c83a
000000a0: 4b94 7ebc b957 59bc 8ab1 983c 997e 26bc
000000b0: a69c 9d3c 24e7 4a3b e290 07b9 1c96 e6bc
000000c0: ebe3 a0bb b6ca 183c 284a bb3b 4e3b 4d3c
000000d0: be36 97bc bd37 e5bb c70d b8bb 82fa 003c
000000e0: a929 5abd 1e60 e6bc f4ee 963c 9df0 6b3c
000000f0: 8f53 aabc 86ac f43a 2633 153c 367b 423c
00000100: 00f6 e5bc 9bb6 b23b a182 9a3c 975f 483c
00000110: 2c5b 82bb ca9b 603c b48a e53c 9a7f 41bb
00000120: 8524 c1bc 0a71 eebc ab16 88bc 6408 c53b
00000130: 8d0c f33c 5b93 56b9 bc72 3cbc dacd e33c
00000140: fa02 34bc 7957 633c badb 1e3c 6117 b1bb
00000150: 7a63 963c e75c e8bc 303a 4d3b 9a45 b33c
00000160: 398e 993c 0b7a e33a af98 1a3b a167 433c
00000170: 529e 063b d042 d3bb 4d72 41bc b99b 97bc
00000180: e0ec afbb f43c 513b 9ca5 08ba 425c 53bc
00000190: 9fd3 aabc 0c51 f43c 945c bb3c 0db4 2d3c
000001a0: 5a7f f63c 43ca 3cbc 98da c83c 1ffa a73c
000001b0: c2da debc 52c1 b9bc 7ab3 b43c 197a b33c
000001c0: adee 043c be91 97bc 7c7c c5bc 316d 9139
000001d0: ab77 b93b e2fa 733c aa15 fd3c 74e5 ab3c
000001e0: c43c b2bc b8d2 03bb f317 55bc 1560 d1bb
000001f0: 7271 66bb 943e d73c 032f 31bc 7703 903c
-0.013526729 -0.013271047 0.009833004 -0.008321609 -0.01049282 -0.012224985 -0.0034492519 0.015174808
0.004315887 0.022155454 -0.00083393726 -0.009933242 0.016888503 -0.010607784 0.018367141 -0.02008869
-0.008494987 -0.0018617392 0.003388778 0.007006896 0.025477486 0.012837109 0.0051800516 0.015711378
0.018451588 0.010508839 -0.042820048 0.03043344 -0.0056227357 0.015889551 -0.03037189 -0.007849047
-0.028172188 -0.022761993 0.01428143 0.020057874 -0.025887286 0.02823824 -0.03689634 0.0015302394
-0.0155382855 -0.013265544 0.018639345 -0.010162019 0.019239735 0.0030960524 -0.00012928576 -0.02814775
-0.0049099824 0.009325674 0.005715627 0.012526346 -0.01845872 -0.00699517 -0.0056168768 0.007872226
-0.053262386 -0.028122004 0.018424489 0.014400628 -0.020791797 0.0018667139 0.009106433 0.011870196
-0.028071404 0.005453897 0.018861117 0.012229822 -0.0039781537 0.013709018 0.02802024 -0.002952552
-0.023576984 -0.029106636 -0.016612371 0.006012963 0.02966907 -0.00020463525 -0.011501964 0.027808119
-0.010987038 0.013875836 0.009695942 -0.0054043983 0.018357981 -0.028364612 0.00313152 0.021883775
0.018744575 0.0017355097 0.0023589542 0.0119265625 0.0020541144 -0.0064471737 -0.011807037 -0.018506872
-0.005368814 0.00319272 -0.0005212666 -0.012900414 -0.020852862 0.029823802 0.022871293 0.0106020095
0.030090023 -0.011522832 0.024518296 0.02050501 -0.027203921 -0.02267519 0.022058237 0.021908807
0.008113545 -0.018502112 -0.02410721 0.0002773791 0.0056600175 0.014891358 0.03089412 0.020983435
-0.021757491 -0.0020114612 -0.013006198 -0.0063896277 -0.0035162834 0.026274957 -0.010814431 0.017579777
