p3_collab-compet/models/critic_1.pth (torch_old, 185256 bytes, 5 tensors)

fcs1.weight f4 [256, 48]
1.7068762 0.29815277 0.028134903 0.6730563 -0.38083887 0.118098505 0.011984937 0.70347327
1.3335445 -0.15301493 -0.14276135 -0.18117888 -0.21998805 0.22148806 -0.036328178 -0.21802653
1.873419 -0.119132325 -0.038122926 -0.047199927 -0.057731733 0.17964642 0.001703568 -0.1367935
0.21313061 -0.19747971 0.033536613 0.20253228 0.3106091 0.05429637 -0.002846809 0.2364074
0.35405555 -0.19497027 0.024816003 0.026170323 0.1710243 0.24747281 0.0038209176 0.081880875
0.42708683 -0.34662384 -0.14210548 -0.16427447 0.014938263 0.1785285 -0.13520162 -0.08742929
0.0035666171 0.293146 0.010429587 0.78579795 -0.060075913 -0.39429468 -0.021707483 0.85831606
0.39841682 0.92972714 0.0025168413 0.50141865 -0.11558511 -0.015953956 -0.005375091 0.51933956
0.98051095 1.4645144 0.0054357345 0.8595422 0.16554676 -0.3676359 -0.0132136 0.77678066
0.23149107 0.7403793 -0.07193338 -0.12760974 -0.021168724 -0.37087023 -0.11844053 -0.13811827
0.3969174 0.18214607 0.08929329 -1.0781705 0.05554088 0.025750583 0.128525 -1.118216
0.47939104 0.52990437 -0.0027753236 -0.035122056 -0.1593978 -0.30461138 -0.023496073 -0.010875086
0.33610085 1.0883181 -0.09090911 -0.52831554 -0.16597106 -0.406633 -0.105010614 -0.43382734
0.6626381 0.75334394 -0.16604084 -0.45558864 -0.18225306 -0.07293037 -0.066947274 -0.4769361
0.34967932 0.0403763 -0.090370834 -0.75362897 0.14859872 0.47420833 -7.2431634e-05 -0.64015853
0.033239532 0.9745556 -0.17170551 -0.68728113 0.17093094 -0.39236364 -0.09074591 -0.76487374
0.03558272 0.54030615 -0.042886432 -1.2297086 0.20717543 -0.09290009 -0.05676624 -1.2213525
0.07232455 -0.52208656 0.027939126 0.12975827 -0.12804656 0.511015 0.04879819 0.19448012
-0.15985517 -1.9420066 -0.054611444 0.15545288 0.2604741 0.3801218 -0.091712065 0.17915064
0.9024095 -1.2942597 -0.053547077 0.20876203 -0.030748285 -0.33230588 0.005650504 0.09567282
1.0131253 -1.1754413 -0.11117185 -0.15873131 0.09272207 -1.4258021 -0.17224844 -0.113279805
0.22212158 -1.4387015 -0.031231113 0.15050806 -0.29323786 0.28905198 0.004193185 0.1996205
0.033881478 -1.8114986 0.0529137 -0.00858363 0.03233105 -0.29777017 -0.05377456 -0.051006556
0.12585768 -2.0896146 0.06307423 0.08475116 -0.06353311 -1.4465724 0.050233137 0.06723563
0.35808766 0.7047293 0.0051421304 -0.4686365 0.016683804 -1.0522051 -0.068157375 -0.4935587
0.26767695 -0.0416575 -0.22153854 0.019140622 0.34028512 -0.72616845 -0.20873359 0.10806674
0.13418737 0.25540105 -0.28301328 0.5333528 0.16327815 -0.8500015 -0.23885243 0.5400411
0.45101452 1.8874002 -0.03223372 0.12311334 -0.03743175 -0.9876984 -0.028340425 0.13758045
0.44630942 1.4392593 -0.100049354 -0.26394075 -0.25528634 -0.81115764 -0.0071855322 -0.16562556
0.69910496 1.3711075 -0.014547875 -0.6840412 -0.14115675 -0.91653794 0.045253538 -0.7421586
0.07014358 -0.8686329 -0.15454246 -0.86163056 0.19772463 -0.7238139 -0.14173055 -0.8111979
0.36915022 -0.89703447 0.10179848 -0.10085453 -0.0027758814 -0.43404108 0.11723001 -0.06945641
00000000: eb7a da3f 7ba7 983e 2b7b e63c 6b4d 2c3f
00000010: 50fd c2be a1dd f13d 785c 443c d316 343f
00000020: 96b1 aa3f f2af 1cbe 0830 12be f586 39be
00000030: 8c44 61be c4cd 623e dbcc 14bd 5942 5fbe
00000040: 32cc ef3f a6fb f3bd c926 1cbd b654 41bd
00000050: 1c78 6cbd 3bf5 373e 424a df3a 9813 0cbe
00000060: e93e 5a3e 1f38 4abe b05d 093d 9f64 4f3e
00000070: 2808 9f3e df65 5e3d 8891 3abb c814 723e
00000080: c546 b53e 49a6 47be ee4a cb3c 2563 d63c
00000090: fe20 2f3e 8369 7d3e 5c68 7a3b 29b1 a73d
000000a0: 20ab da3e ae78 b1be 1984 11be 9137 28be
000000b0: 9ebf 743c 2dd0 363e 4b72 0abe 210e b3bd
000000c0: e8bd 693b 3c17 963e dce0 2a3c 0e2a 493f
000000d0: 2912 76bd fee0 c9be e4d3 b1bc 9aba 5b3f
000000e0: 4afd cb3e 9902 6e3f 97f1 243b f95c 003f
000000f0: e3b7 ecbd dfb1 82bc 8821 b0bb 70f3 043f
00000100: c402 7b3f 3575 bb3f 3f1e b23b f50a 5c3f
00000110: 1785 293e c63a bcbe db7d 58bc 19db 463f
00000120: ff0b 6d3e 7f89 3d3f cf51 93bd 21ac 02be
00000130: 086a adbc b4e2 bdbe f390 f2bd e06e 0dbe
00000140: c238 cb3e 8084 3a3e 67df b63d 7e01 8abf
00000150: d57e 633d e3f2 d23c 0f9c 033e b421 8fbf
00000160: be72 f53e d0a7 073f 34e2 35bb 25dc 0fbd
00000170: 2d39 23be 06f6 9bbe d67a c0bc 6b2d 32bc
00000180: 6915 ac3e 024e 8b3f 8e2e babd b03f 07bf
00000190: 51f4 29be 3332 d0be ce0f d7bd 9e1e debe
000001a0: a7a2 293f 26db 403f 9c06 2abe ea42 e9be
000001b0: 8ca0 3abe 855c 95bd a71b 89bd f830 f4be
000001c0: 2b09 b33e 9f61 253d 5814 b9bd d4ed 40bf
000001d0: 432a 183e 6fcb f23e 70e6 97b8 6ee1 23bf
000001e0: 2d26 083d 7a7c 793f 92d3 2fbe a8f1 2fbf
000001f0: 8508 2f3e e3e3 c8be fed8 b9bd c4ce 43bf
00000200: 30bf 113d 8151 0a3f afa9 2fbd 1767 9dbf
00000210: cc25 543e 6742 bebd b883 68bd 4755 9cbf
00000220: e51e 943d 77a7 05bf 98e0 e43c 5adf 043e
00000230: a31e 03be e1d1 023f 9ce0 473d cc25 473e
00000240: 13b1 23be ac93 f8bf 40b0 5fbd 0a2f 1f3e
00000250: dc5c 853e 539f c23e 89d3 bbbd 4473 373e
00000260: 4f04 673f 4daa a5bf 2e54 5bbd b7c5 553e
00000270: d4e3 fbbc ff23 aabe dd27 b93b 1df0 c33d
00000280: 17ae 813f dc74 96bf 11ae e3bd 768a 22be
00000290: 12e5 bd3d af80 b6bf e561 30be 3eff e7bd
000002a0: d773 633e 5f27 b8bf 64d8 ffbc c91e 1a3e
000002b0: 4623 96be 9ffe 933e fc66 893b 5169 4c3e
000002c0: 4ec7 0a3d 30df e7bf 09bc 583d 5ba2 0cbc
000002d0: 906d 043d 5575 98be b742 5cbd 40ec 50bd
000002e0: d6e0 003e 3fbc 05c0 102d 813d 0492 ad3d
000002f0: a61d 82bd 4929 b9bf 43c1 4d3d d5b2 893d
00000300: 4457 b73e 2469 343f 517f a83b 20f1 efbe
00000310: 79ac 883c a8ae 86bf 1896 8bbd bab3 fcbe
00000320: f40c 893e 0ea1 2abd 00db 62be cbcc 9c3c
00000330: da39 ae3e 2de6 39bf 42be 55be 1852 dd3d
00000340: 6a68 093e edc3 823e 1ee7 90be cf89 083f
00000350: 6332 273e b399 59bf bb95 74be 2240 0a3f
00000360: 60eb e63e 5496 f13f 8107 04bd d922 fc3d
00000370: 0952 19bd cdd9 7cbf 2e2a e8bc e4e1 0c3e
00000380: ab82 e43e a639 b83f ade6 ccbd 3e23 87be
00000390: e4b4 82be 07a8 4fbf 9d74 ebbb bf99 29be
000003a0: 8bf8 323f 7380 af3f 365a 6ebc 531d 2fbf
000003b0: 658b 10be 3ba2 6abf c65b 393d 1bfe 3dbf
000003c0: 70a7 8f3d ba5e 5ebf 6140 1ebe d293 5cbf
000003d0: 5378 4a3e de4b 39bf d021 11be aaaa 4fbf
000003e0: 4201 bd3e 0da4 65bf b97b d03d d28c cebd
000003f0: 90eb 35bb a23a debe 4a16 f03d 2a3f 8ebd

fcs1.bias f4 [256]
-0.39018744 -0.5376947 -0.13304357 0.7738642 -1.2213683 -1.2573549 0.47833318 -0.034642976
-1.7791418 -0.6668287 -1.6083542 -2.0987566 -0.080900304 -0.14449428 -0.58270025 -0.44882095
-0.5254819 -0.52812827 -2.031484 -0.16812532 -1.3088592 -0.5064205 0.03212231 -0.25360182
-0.7886087 0.12072967 -0.56264484 0.24207677 -0.78147924 -1.3884052 -0.44724098 -1.0352503
-0.19158591 0.09520317 0.49677324 -0.7719006 -1.1869255 -1.1405587 0.25765753 -1.8849157
-1.0463343 -0.09360096 -1.0201468 -1.4735719 -0.55621475 0.9097535 0.09850754 0.14317258
0.30925608 -0.008060224 -2.0688074 0.6074133 -0.9358919 0.22733153 -0.63107437 -1.0583546
-1.3266624 -0.23788987 -0.39227316 -0.25300926 -1.0184126 -0.8041603 -0.12167989 -0.39404243
0.17553096 -0.20329145 -1.2688786 0.48628333 -0.12399265 -1.236267 -0.60914624 -0.5538171
-1.0376068 -1.4999583 -0.31891468 0.31431818 -0.91562 -1.4700297 -0.3137953 -0.509855
0.5170025 -0.90460855 -1.7423911 -0.73902327 0.5064866 0.5385156 0.98128814 -0.3369195
0.09090511 -0.68325305 -1.3436946 0.1786998 0.54595417 0.89464235 -0.14144498 -1.4498384
-0.6078799 0.7369426 -1.1141713 -0.23204955 -0.16774155 -1.0531558 -0.822315 -0.49661008
-0.870074 -1.6350152 0.12196692 -0.24762955 -0.89213043 -0.5909372 -1.2156882 -0.78741705
-0.81596315 -0.43013215 -0.67178684 0.2647772 -0.43561763 -0.76626575 0.6495274 -0.6064492
-0.15857321 0.8751712 0.6487926 -1.0179089 -0.015640214 -1.2133378 0.08880099 -1.203646
-0.79629827 -0.6105445 -1.0460197 -1.0464765 -1.0306866 -1.6217428 -0.382628 0.019659393
0.10212476 -0.6458167 -0.5415089 -0.6273983 -0.43357918 -1.2399267 -2.4668717 0.30671707
0.5464836 -0.5078356 -0.4751595 0.27796796 0.05579608 -1.6059318 -0.29257676 0.2780263
0.08289094 -0.6510512 -0.039511666 -0.8219387 -1.3688494 -0.28148642 -0.21220385 -0.32545066
-2.046724 -1.6430051 -0.6837458 0.48568976 0.14101213 -0.7462162 -3.4579794 -0.3125995
-0.9198901 -0.29309165 -0.8938441 0.540092 -1.2201269 -1.2755339 -0.9743609 -1.8178161
-1.1068039 -0.30079892 -0.030747008 0.105047874 -1.5347966 -0.41536292 -1.9004412 -1.5858083
-0.7870787 -0.48739466 -0.6836107 -0.14353324 -1.653106 -1.0718656 0.69231796 0.79628134
-0.6024564 -0.6655996 1.615297 -0.84284526 -0.88159233 -0.27209207 -0.8461093 0.089959696
-0.6040287 0.40738726 -0.27900594 -1.9398526 -1.0066936 0.07152215 0.5985773 -0.583117
-0.7654365 -0.1794329 0.018457424 -0.5998686 -1.1103225 -0.23263395 -1.430817 -0.4128372
-0.65836227 -0.71158564 -0.3458985 -0.5418291 -0.22136721 0.31955576 -0.57226396 -1.4913177
0.7568625 -0.44212687 -0.9135557 -0.33764654 -0.2458598 -1.25528 -0.23342147 0.5610124
-0.79848874 -0.87061787 -1.2183976 0.025527552 -0.6944316 0.1246348 -0.5097663 -0.114031345
-0.94793636 -0.5351556 -2.0482419 -0.09894704 0.11264977 -0.008264997 -0.7637739 -0.8788855
-0.10090807 -0.9837764 -1.1243757 -0.3453316 0.38028437 -0.81812537 -1.4285444 -1.4909027
00000000: a6c6 c7be 5ca6 09bf 933c 08be f71b 463f
00000010: cc55 9cbf 01f1 a0bf 16e8 f43e cbe5 0dbd
00000020: ebba e3bf 49b5 2abf 8dde cdbf 0752 06c0
00000030: 0faf a5bd 4ff6 13be d82b 15bf dccb e5be
00000040: fb85 06bf 6a33 07bf d503 02c0 0b29 2cbe
00000050: b388 a7bf c6a4 01bf af92 033d 19d8 81be
00000060: 42e2 49bf 1e41 f73d 7e09 10bf f9e2 773e
00000070: 060f 48bf 43b7 b1bf c5fc e4be 1583 84bf
00000080: 192f 44be e1f9 c23d 1059 fe3e 479b 45bf
00000090: 2ded 97bf d4fd 91bf b0eb 833e eb44 f1bf
000000a0: 48ee 85bf dcb1 bfbd 2c94 82bf 019e bcbf
000000b0: 1764 0ebf 9be5 683f 52be c93d d59b 123e
000000c0: d056 9e3e 080f 04bc 5767 04c0 707f 1b3f
000000d0: 9d96 6fbf 99c9 683e 178e 21bf 2a78 87bf
000000e0: 13d0 a9bf 6799 73be 07d8 c8be 6e8a 81be
000000f0: 585b 82bf 73dd 4dbf 4e33 f9bd eebf c9be
00000100: 63be 333e a22b 50be 9d6a a2bf 21fa f83e
00000110: dcef fdbd ff3d 9ebf 02f1 1bbf f5c6 0dbf
00000120: 4dd0 84bf a2fe bfbf c948 a3be 50ee a03e
00000130: 1366 6abf ef29 bcbf c7a9 a0be db85 02bf
00000140: 475a 043f 6d94 67bf ac06 dfbf a130 3dbf
00000150: 1ba9 013f 29dc 093f b335 7b3f b680 acbe
00000160: 752c ba3d ace9 2ebf 2ffe abbf 15fd 363e
00000170: a7c3 0b3f 4807 653f f4d6 10be 4e94 b9bf
00000180: 049e 1bbf 45a8 3c3f 2a9d 8ebf 669e 6dbe
00000190: 71c4 2bbe cfcd 86bf 3c83 52bf ad43 febe
000001a0: 2bbd 5ebf 2e48 d1bf cbc9 f93d 9a92 7dbe
000001b0: a962 64bf a947 17bf ac9b 9bbf 2a94 49bf
000001c0: f6e2 50bf 483a dcbe 39fa 2bbf e190 873e
000001d0: 4609 dfbe fe29 44bf 6d47 263f 4140 1bbf
000001e0: 0461 22be 380b 603f 4617 263f d74a 82bf
000001f0: e81f 80bc a74e 9bbf 4bdd b53d 1211 9abf
00000200: 34da 4bbf a54c 1cbf f9e3 85bf f1f2 85bf
00000210: 8aed 83bf 4595 cfbf d1e7 c3be bc0c a13c
00000220: c926 d13d 3e54 25bf 54a0 0abf 2d9d 20bf
00000230: 17fe ddbe ebb5 9ebf 3ae1 1dc0 050a 9d3e
00000240: 59e6 0b3f 8401 02bf 1b48 f3be d151 8e3e
00000250: 6e8a 643d 2c8f cdbf 9fcc 95be 7759 8e3e
00000260: bac2 a93d 4bab 26bf fcd6 21bd 936a 52bf
00000270: 7536 afbf fd1e 90be f74b 59be 78a1 a6be
00000280: 87fd 02c0 fe4d d2bf f709 2fbf 54ac f83e
00000290: 7c65 103e 0608 3fbf 894f 5dc0 0b0d a0be
000002a0: eb7d 6bbf 1c10 96be f8d2 64bf 7843 0a3f
000002b0: 1e2d 9cbf b244 a3bf b76f 79bf 33ae e8bf
000002c0: c0ab 8dbf 5102 9abe 26e1 fbbc 5723 d73d
000002d0: 3774 c4bf 73aa d4be a841 f3bf c4fb cabf
000002e0: fd7d 49bf cb8b f9be 1c01 2fbf 61fa 12be
000002f0: fa98 d3bf e432 89bf c03b 313f 18d9 4b3f
00000300: 953a 1abf bc64 2abf 0dc2 ce3f b5c4 57bf
00000310: 09b0 61bf a74f 8bbe 9e9a 58bf ca3c b83d
00000320: a0a1 1abf 1095 d03e ded9 8ebe 174d f8bf
00000330: 56db 80bf 347a 923d 5d3c 193f 2847 15bf
00000340: a5f3 43bf 42bd 37be 0634 973c fd90 19bf
00000350: 0c1f 8ebf 9837 6ebe 0325 b7bf 665f d3be
00000360: 6e8a 28bf 7a2a 36bf 9c19 b1be 50b5 0abf
00000370: 16ae 62be d09c a33e e47f 12bf 80e3 bebf
00000380: bec1 413f 745e e2be c9de 69bf 02e0 acbe
00000390: acc2 7bbe 04ad a0bf 0a06 6fbe 829e 0f3f
000003a0: c269 4cbf d0e0 5ebf 74f4 9bbf 281f d13c
000003b0: 45c6 31bf 8840 ff3d 0b80 02bf 4489 e9bd
000003c0: f5ab 72bf f5ff 08bf 6516 03c0 bfa4 cabd
000003d0: ecb4 e63d e969 07bc b086 43bf a4fe 60bf
000003e0: e4a8 cebd c5d8 7bbf 8beb 8fbf 4ecf b0be
000003f0: a2b4 c23e aa70 51bf 8bda b6bf e6d5 bebf

fc2.weight f4 [128, 260]
-0.5144277 -0.08478408 -0.18897527 -0.11557234 -0.07652755 -0.15663727 -0.14207423 -0.09163015
-0.018297087 -0.56904984 0.0005370906 0.020497458 -0.21137948 -0.362138 -0.2243743 -0.12628557
-0.05467293 -0.002075592 -0.113343194 -0.08227671 -0.13381922 -0.046591464 -0.15419571 -0.041022196
-0.338975 -0.36867747 -0.8407348 -0.5391494 -0.35383815 -0.2294367 -0.07532261 0.13439724
0.018771062 -0.17288573 -0.5705157 0.01691699 -0.05133031 -0.009911678 -0.25881302 -0.09984422
-0.029455315 -0.32824084 -0.33946058 -0.25527456 -0.19522157 -0.15738912 0.025628107 -0.12599373
-0.11370139 -0.7328948 0.0632321 0.011284169 0.06189123 -0.09197572 -0.08181464 -0.05663839
-0.18776836 -0.120275505 -0.025372926 -0.68700135 -0.42586192 -0.418583 -0.03074424 0.07384597
-0.22934684 -0.11807004 0.053671528 -0.13444017 -0.18191294 0.09283474 -0.84905463 -0.2978602
-0.052170116 -0.008026616 -0.08029528 -0.5841189 -0.057849173 -0.0044211163 -0.4254363 0.041418187
0.09163836 -0.54092157 -0.064448 -0.029599082 -0.49282095 0.09347099 -0.50782293 -0.10158332
0.10546408 0.020333746 0.020151531 -0.10325791 0.11370231 -0.093886 -0.033240404 0.005614641
0.06862366 -0.21387209 -0.048869964 -0.19500935 -0.18871889 0.0059089134 -0.06565127 -0.60292965
-0.0520043 -0.71132135 -0.0296293 -0.027397105 -0.13672012 -0.43905815 -0.03647446 0.084560394
-0.058317382 0.04162786 -0.31021374 -0.031864166 -0.52839094 -0.39469495 -0.13793737 -0.082402565
-0.29900315 -0.09753385 -0.2633185 -0.107547425 -0.06835525 0.06743043 -0.22069156 -0.175343
-0.19334479 -0.20795864 -0.4827742 -0.04620894 0.05689321 0.019911729 0.18575169 -0.1673701
-0.9829279 -0.009470453 -0.12408002 0.029031709 -0.12054076 -0.12166586 -0.15327856 -0.062997505
-0.28128278 -0.018325696 -0.35828134 -0.14025962 -0.037778437 0.013644773 -0.072679766 -0.06077993
-0.38207817 -0.03707405 0.055440184 -0.4135283 -0.1870284 -0.09833936 -0.008429248 -0.5796607
0.010412273 -0.15114781 -0.0027738207 -0.36734915 -0.0022477214 -0.59046066 0.052886106 -0.1311569
-0.40230736 -0.18195792 -0.007305402 -0.0683271 -0.044755712 0.028395332 -0.32469112 -0.02268662
-0.07812047 -0.12978114 -0.028582912 0.059525322 -0.46776575 -0.26710296 -0.12097714 -0.21035962
-0.6764604 -0.47006875 -0.11652975 -0.7257404 -0.41604465 0.12268631 -0.54083306 -0.0993405
-0.35151646 -0.20418605 -0.4857014 -0.049730718 -0.23752616 -0.0896752 0.060861144 -0.15719241
0.093148805 -0.9976731 -0.11912834 -0.06598928 -0.12872313 0.011738347 -0.7461321 0.0016431593
0.018808758 -0.27012464 -0.09165291 -0.13419054 0.08183097 -0.1988696 -0.20576748 -0.25577343
-0.007391118 -0.16246372 -0.25195515 -0.26037303 0.04342791 -0.015936535 -0.042536166 -0.33265334
-0.014096155 -0.23954402 -0.00053935614 -0.03330977 -0.080764994 -0.14438927 -0.5341003 -0.016780937
-0.09189188 -0.13266025 0.02876554 -0.17769961 -0.8925024 -0.22227843 0.033542447 -0.33233958
-0.37558606 -0.03884748 -0.23359413 -0.3757588 -0.31690457 -0.13389851 0.0033616512 -0.009173996
-0.0855749 -0.3456402 0.030046849 0.000930023 -0.5672623 -0.056590624 0.013670358 -0.038346637
00000000: 89b1 03bf 47a3 adbd bc82 41be 31b1 ecbd
00000010: 7aba 9cbd 8565 20be e87b 11be 97a8 bbbd
00000020: c6e3 95bc 40ad 11bf 8acb 0c3a 49ea a73c
00000030: dd73 58be 276a b9be 60c2 65be 0151 01be
00000040: b9f0 5fbd a806 08bb 7a20 e8bd b180 a8bd
00000050: e807 09be b1d6 3ebd 7be5 1dbe e406 28bd
00000060: 228e adbe 4bc3 bcbe 653a 57bf b205 0abf
00000070: 462a b5be 74f1 6abe be42 9abd 6e9f 093e
00000080: c5c5 993c f508 31be 510d 12bf 8095 8a3c
00000090: bb3f 52bd 9764 22bc 2483 84be 207b ccbd
000000a0: 464c f1bc 2f0f a8be c7cd adbe 59b3 82be
000000b0: 2ae8 47be 9d2a 21be 09f2 d13c 8004 01be
000000c0: 46dc e8bd fe9e 3bbf d57f 813d 3ce1 383c
000000d0: a981 7d3d c45d bcbd 6f8e a7bd a8fd 67bd
000000e0: 5946 40be 0153 f6bd e2da cfbc 52df 2fbf
000000f0: 930a dabe 8350 d6be 58db fbbc 8e3c 973d
00000100: e6d9 6abe b5ce f1bd add6 5b3d afaa 09be
00000110: 6347 3abe 2420 be3d a55b 59bf 2281 98be
00000120: 55b0 55bd 1182 03bc da71 a4bd d188 15bf
00000130: 41f3 6cbd 03df 90bb c9d2 d9be 1ea6 293d
00000140: e4ac bb3d d679 0abf 50fd 83bd c679 f2bc
00000150: 0753 fcbe b86d bf3d af00 02bf ea0a d0bd
00000160: 8dfd d73d f592 a63c d314 a53c e278 d3bd
00000170: c2dc e83d 4e47 c0bd 1727 08bd 06fb b73b
00000180: 908a 8c3d 4901 5bbe df2b 48bd 88b0 47be
00000190: 863f 41be 8f9f c13b 2c74 86bd 9959 1abf
000001a0: 7602 55bd 2819 36bf 25b9 f2bc e56f e0bc
000001b0: 5c00 0cbe 3bcc e0be 3e66 15bd 002e ad3d
000001c0: 35de 6ebd fa81 2a3d 56d4 9ebe 0084 02bd
000001d0: a144 07bf 7515 cabe 743f 0dbe adc2 a8bd
000001e0: f116 99be d4bf c7bd afd1 86be d341 dcbd
000001f0: d6fd 8bbd f718 8a3d f8fc 61be 1e8d 33be
00000200: 2dfc 45be 1cf3 54be 2e2e f7be 9645 3dbd
00000210: db08 693d ec1d a33c b135 3e3e 1163 2bbe
00000220: 2aa1 7bbf f529 1bbc aa1d febd e8d3 ed3c
00000230: 13de f6bd f32b f9bd 0ef5 1cbe d604 81bd
00000240: 4c04 90be c51f 96bc a770 b7be 38a0 0fbe
00000250: 90bd 1abd 538e 5f3c 21d9 94bd 60f4 78bd
00000260: c09f c3be f6da 17bd 3f15 633d fbb9 d3be
00000270: 5f84 3fbe 2566 c9bd d41a 0abc a564 14bf
00000280: 3d98 2a3c 7ec6 1abe fdc8 35bb 3015 bcbe
00000290: 824e 13bb 6e28 17bf 1a9f 583d ff4d 06be
000002a0: 3bfb cdbe 2d53 3abe 2762 efbb 14ef 8bbd
000002b0: c451 37bd 549d e83c ea3d a6be 4ad9 b9bc
000002c0: a0fd 9fbd 59e5 04be b626 eabc d3d0 733d
000002d0: fe7e efbe b8c1 88be ddc2 f7bd 8368 57be
000002e0: 822c 2dbf daac f0be 26a7 eebd 1fca 39bf
000002f0: ce03 d5be f642 fb3d 0974 0abf 0873 cbbd
00000300: f7f9 b3be 2616 51be dbad f8be 70b2 4bbd
00000310: 0f3a 73be a2a7 b7bd 8949 793d 0cf7 20be
00000320: cdc4 be3d 8167 7fbf 8ff9 f3bd 6325 87bd
00000330: ffcf 03be 3252 403c 8302 3fbf 475f d73a
00000340: d314 9a3c c74d 8abe 85b4 bbbd 3f69 09be
00000350: ff96 a73d 79a4 4bbe b6b4 52be bcf4 82be
00000360: 3131 f2bb e45c 26be 4400 81be 9d4f 85be
00000370: 77e1 313d 568d 82bc 673a 2ebd 8a51 aabe
00000380: 8ff3 66bc 074b 75be 9463 0dba d36f 08bd
00000390: 1e68 a5bd c8da 13be ccba 08bf 2d78 89bc
000003a0: cf31 bcbd 17d8 07be b6a5 eb3c e3f6 35be
000003b0: 0a7b 64bf f59c 63be ce63 093d 6a28 aabe
000003c0: d14c c0be 891e 1fbd 4d33 6fbe 7563 c0be
000003d0: 5141 a2be b11c 09be 264f 5c3b 874e 16bc
000003e0: e541 afbd c1f7 b0be cf24 f63c c9cc 733a
000003f0: 1a38 11bf 92cb 67bd a3f9 5f3c 5d11 1dbd

fc2.bias f4 [128]
-0.7694877 -0.31624168 -0.3683204 -0.43840915 -0.3503162 -0.6081087 -0.78642696 -0.16041781
-0.746324 -0.28460705 -0.17001478 1.2992259 -0.5233139 -0.22109966 -0.19292504 -0.25049463
-0.1614362 -0.19074145 -0.052268572 -0.2742668 -1.0330784 -0.54653674 -0.27005327 -0.27625534
-0.17232813 -0.33556178 -1.3709865 -0.19713971 -0.47948632 -0.27034393 -0.2284439 -0.7972583
-0.47715706 -0.15581909 -0.3881612 -0.6340993 -0.46139482 -0.87166226 -0.3083211 -0.1997803
-0.28669593 -0.55974233 -0.246751 -0.55692923 -0.17655402 -0.7559911 -0.35038406 -0.19592261
-0.57615495 -0.3896814 -0.32642013 -1.1250257 -0.3340895 0.748326 -0.5210422 -0.20203061
-0.15413065 -0.6820184 -0.2704436 -0.30120555 -0.30151427 -0.3768333 -0.17414574 -0.18459836
-0.953236 -1.4139715 -0.17776245 -0.20339528 -0.2628644 -0.36644793 -0.3145396 -0.3205343
-0.22002684 -1.3042017 -1.092508 -0.28215337 -0.48661414 -0.22571799 -0.5198087 -0.8586153
-1.5454011 -0.1315808 -0.27700832 -0.16394563 -0.8812206 -0.45871204 -0.20238805 -0.013190789
-0.7413681 -0.49427727 -0.21268044 -0.21201473 -0.95277154 -0.35861462 -0.18534143 -0.8704755
-0.7325966 -0.22043619 -0.24488513 -0.44954556 -0.6596403 -0.11919582 -0.20961827 -0.4088543
-0.8762388 1.3593522 -0.6496134 -0.17967813 -0.36689463 -1.300406 -1.0738664 -0.5961708
-0.394158 -0.19399361 -0.29439628 -0.8874077 -0.68167 -0.2584323 -0.8865616 -0.39606807
-0.33970585 -0.26215023 0.011303503 0.29197758 -0.58807904 -0.5777805 -0.011780697 -1.3541787
00000000: 25fd 44bf 6eea a1be 7e94 bcbe 2a77 e0be
00000010: a55c b3be 03ad 1bbf 4753 49bf 9144 24be
00000020: 170f 3fbf 04b8 91be 5b18 2ebe 094d a63f
00000030: e6f7 05bf f367 62be 248e 45be d540 80be
00000040: 884f 25be ba51 43be 9217 56bd b36c 8cbe
00000050: ea3b 84bf d5e9 0bbf 6c44 8abe 5771 8dbe
00000060: c976 30be c1ce abbe 7c7c afbf fede 49be
00000070: 3b7f f5be 856a 8abe 33ed 69be 1f19 4cbf
00000080: ee4d f4be 0a8f 1fbe 11bd c6be 5554 22bf
00000090: f13b ecbe 4225 5fbf 43dc 9dbe 3593 4cbe
000000a0: cfc9 92be 464b 0fbf 4bac 7cbe ea92 0ebf
000000b0: 94ca 34be a288 41bf 8a65 b3be f09f 48be
000000c0: e47e 13bf 5284 c7be 8a20 a7be d800 90bf
000000d0: c70d abbe 4b92 3f3f 0663 05bf 1de1 4ebe
000000e0: 6dd4 1dbe c298 2ebf 9577 8abe 9d37 9abe
000000f0: 1460 9abe 4bf0 c0be 4353 32be 5a07 3dbe
00000100: 4607 74bf 05fd b4bf 5c07 36be da46 50be
00000110: 2a96 86be 109f bbbe 560b a1be 121d a4be
00000120: b74e 61be 15f0 a6bf 4dd7 8bbf 6876 90be
00000130: 7d25 f9be 9e22 67be 2f12 05bf 36ce 5bbf
00000140: b4cf c5bf 1ebd 06be 09d4 8dbe 5de1 27be
00000150: ac97 61bf 4edc eabe d03e 4fbe 2e1e 58bc
00000160: 4dca 3dbf e911 fdbe e7c8 59be 641a 59be
00000170: d6e8 73bf 569c b7be 25ca 3dbe 7bd7 5ebf
00000180: 738b 3bbf 06ba 61be 2bc3 7abe d62a e6be
00000190: 30de 28bf f01c f4bd 2ca6 56be 5a55 d1be
000001a0: 3051 60bf 41ff ad3f 104d 26bf 8bfd 37be
000001b0: 9dd9 bbbe b473 a6bf 7474 89bf a69e 18bf
000001c0: 14cf c9be 43a6 46be 1cbb 96be 272d 63bf
000001d0: ed81 2ebf 3d51 84be b3f5 62bf 6fc9 cabe
000001e0: eded adbe 8e38 86be 5432 393c 167e 953e
000001f0: 598c 16bf 6ce9 13bf d303 41bc ba55 adbf

fc3.weight f4 [1, 128]
-0.027320333 -0.014054415 -0.008343738 -0.020005688 -0.008816583 -0.044307265 -0.00081597787 -0.017148482
-0.024993464 -0.015100831 0.004086306 -0.0063432558 0.013130842 0.044540334 0.015561268 -0.0047187903
0.018006716 -0.013701054 0.031470373 -0.018721076 -0.005530743 0.018905055 0.009385009 0.02301924
-0.0021189875 0.057048816 -0.021108406 -0.014858926 0.0025132215 0.012698236 -0.006415237 0.017226573
0.026247228 -0.02021093 -0.040276155 0.028182108 -0.02424316 -0.013126505 -0.0071037146 0.0036886183
-0.011019793 0.026968913 0.023748383 -0.031436037 -0.03140293 -0.0082983365 -0.0021590951 0.012873881
-0.0046074833 0.017545668 0.004638028 -0.01731783 0.02278874 -0.0061140833 -0.005123199 0.015316694
4.1052397e-05 0.010538959 -0.03532733 -0.008455589 0.01363469 -0.00668642 0.021313544 -0.0077271922
-0.01728334 -0.011263438 -0.03118858 0.009451618 0.030401826 0.00035823096 -0.027953863 -0.00031932478
-0.011395548 -0.018918209 -0.007915872 -0.0031796794 0.025346179 -0.019130973 -0.011003698 0.00046246772
-0.009957679 0.029820912 0.014303234 0.01144012 0.02387069 0.014111361 -0.029336182 0.027371384
-0.030872686 -0.009871235 0.016636413 -0.006740142 -0.007325014 0.024335269 -0.0041480544 -0.030013666
-0.013556248 -0.0019718977 0.0124551235 0.008616823 0.024915533 0.009117501 0.009248111 0.005956972
0.01057508 -0.01103607 0.020076847 -0.023332106 -0.013099394 -0.010086741 0.0025042717 -0.04342692
0.006399258 0.026223106 0.026908988 -0.0141556775 0.040895063 0.013445749 -0.01820292 0.010687753
-0.02582552 0.000610862 0.0021846408 -0.007389084 0.01626376 0.009760721 0.009393691 -0.010795466
00000000: e4ce dfbc 7d44 66bc 2cb4 08bc f8e2 a3bc
00000010: 6e73 10bc 897b 35bd 59e7 55ba f97a 8cbc
00000020: 18bf ccbc 7a69 77bc 6be6 853b 16db cfbb
00000030: be22 573c ed6f 363d b0f4 7e3c 15a0 9abb
00000040: d282 933c 637a 60bc 14e7 003d f15c 99bc
00000050: 3c3b b5bb c6de 9a3c 95c3 193c d892 bc3c
00000060: b6de 0abb 05ac 693d 89eb acbc da72 73bc
00000070: dcb4 243b 430c 503c e936 d2bb be1e 8d3c
00000080: 6d04 d73c 6491 a5bc 9cf8 24bd 2ade e63c
00000090: 9799 c6bc 8d10 57bc 47c6 e8bb bfbc 713b
000000a0: 5d8c 34bc e9ed dc3c f88b c23c 13c3 00bd
000000b0: 5ca0 00bd bff5 07bc 9b7f 0dbb f8ec 523c
000000c0: 5ffa 96bb efbb 8f3c 99fa 973b 1fde 8dbc
000000d0: 74af ba3c a658 c8bb 82e0 a7bb dff2 7a3c
000000e0: ad2f 2c38 99ab 2c3c 64b3 10bd 5089 0abc
000000f0: 0964 5f3c c219 dbbb be99 ae3c 6334 fdbb
00000100: cb95 8dbc 488a 38bc 317f ffbc f6da 1a3c
00000110: 400d f93c f2d0 bb39 80ff e4bc 0c6b a7b9
00000120: 64b4 3abc 5cfa 9abc 93b1 01bc 2b62 50bb
00000130: caa2 cf3c 8fb8 9cbc db48 34bc 5e77 f239
00000140: 8825 23bc fc4a f43c 1d58 6a3c 576f 3b3c
00000150: 778c c33c 5633 673c 6f52 f0bc f439 e03c
00000160: b7e8 fcbc f6ba 21bc 1649 883c 69dc dcbb
00000170: ac06 f0bb c25a c73c 67ec 87bb 38df f5bc
00000180: 061b 5ebc f43a 01bb 9310 4c3c 932d 0d3c
00000190: a91b cc3c 9261 153c 6485 173c b432 c33b
000001a0: 1a43 2d3c a2d0 34bc 3378 a43c f922 bfbc
000001b0: d79e 56bc dc42 25bc b51e 243b 6de0 31bd
000001c0: deb0 d13b d7d1 d63c 3d70 dc3c 37ed 67bc
000001d0: 9581 273d 8f4b 5c3c 4a1e 95bc af1b 2f3c
000001e0: 0a90 d3bc 4122 203a 312c 0f3b 2120 f2bb
000001f0: 943b 853c 6eeb 1f3c ffe7 193c 77df 30bc
