p2_continuous-control/actor_ckpt.pth (torch_old, 548262 bytes, 10 tensors)

fc1.weight f4 [400, 33]
000000 c5 00 79 c0 c8 20 2d be e0 e8 d1 bf 8f 01 38 3f
       -3.890672 -0.16907036 -1.6399193 0.7187738
000010 88 2c 1e be 40 95 38 3c 6a 25 63 bf d7 af 9b bf
       -0.15446675 0.011266053 -0.88728964 -1.2163037
000020 cd f7 a4 3e c2 9a 93 bc 3d b4 6b bf d2 c4 1f bf
       0.32220307 -0.01801813 -0.92071897 -0.624097
000030 57 dc a0 bd e9 4d b4 3f bf 96 5f bf b5 84 06 3f
       -0.078545265 1.4086276 -0.87339395 0.52546245
000040 06 35 21 bf 76 ba 84 be ae a3 b4 be 4d 00 56 be
       -0.6297153 -0.25923508 -0.35281128 -0.20898552
000050 2d c5 31 bf 57 26 8b 3e 13 5c dc bd ac 90 44 3e
       -0.6944149 0.27177688 -0.10759749 0.19195813
000060 c7 6a 74 3e 23 12 49 3f 9f b4 8b 3f 5f 2d 10 3c
       0.23868857 0.785433 1.0914496 0.00879988
000070 ac 19 a1 3e d2 71 aa 3c ff 21 41 3d 93 85 2c bd
       0.314649 0.020806227 0.04715156 -0.042119574
000080 fc f2 80 3f 6c 6f 0d c0 2b 97 b6 bf dc cb f9 3e
       1.0074153 -2.2099257 -1.4264883 0.48788345
000090 23 b0 71 3f 9c 80 5c bf c8 22 6c 3f 24 03 31 c0
       0.9440939 -0.8613374 0.9224057 -2.7658167
0000a0 11 ed ad 3e 0a 71 0e bf 00 79 2a bf d5 07 e1 be
       0.3396993 -0.55641234 -0.6659088 -0.43951288
0000b0 59 09 08 bf c1 2b d2 3d 2a 36 7f bf 92 40 4c bf
       -0.53139263 0.10262252 -0.9969202 -0.79786026
0000c0 09 4e a7 bd f8 09 aa bf 7a 7e 06 3f 12 8e 94 3f
       -0.08169181 -1.3284292 0.5253674 1.1605856
0000d0 5d 98 12 bf a6 0a 80 3f 89 65 eb be 82 d8 a3 3e
       -0.5726374 1.000325 -0.45975903 0.3200112
0000e0 d7 e8 81 bf f0 51 4c bf 1c a6 88 bf 88 8d 07 40
       -1.0149182 -0.79812527 -1.0675693 2.1180134
0000f0 1c 90 25 bb 5d 41 20 3f 0d 67 1a bd 4b 44 2a 3d
       -0.0025262898 0.62599736 -0.037695933 0.041569036
000100 57 03 e3 bc b4 cc d5 be 4d de c6 3f 99 c5 ff 3e
       -0.027711553 -0.4175774 1.5536591 0.49955443
000110 10 75 04 40 24 5f 29 3f 0e 46 73 bf b7 63 27 40
       2.069645 0.661608 -0.9502877 2.615461
000120 ec 0a 69 be 33 09 fb 3e 67 ea c0 3f 7d cd 5b 3e
       -0.22758073 0.49030456 1.5071534 0.21465106
000130 43 36 99 3e 4d 7a c9 be b2 fa c0 be 08 49 a0 bf
       0.2992421 -0.3935112 -0.37691265 -1.2522287
000140 c7 41 39 3e b4 16 c8 be e0 21 ba 3e 03 e7 b6 3e
       0.18091498 -0.3907982 0.3635397 0.35723123
000150 f3 8b 8e 3f d4 08 30 be 8a fe da be 02 59 ee 3d
       1.1136459 -0.17190868 -0.42772323 0.11638071
000160 25 43 c5 bf 63 59 cc be 7f 3c 04 bf 8b 33 8b bf
       -1.5411116 -0.39911947 -0.5165481 -1.0875105
000170 7a 8c 01 bd 6e 47 1e bc 59 3d d5 bf 18 cb ca 3b
       -0.03162811 -0.009660585 -1.6659347 0.0061887614
000180 c4 fa 32 bd 41 a0 42 3d 78 4f 6b 40 44 e1 32 40
       -0.04369618 0.04751611 3.6767254 2.7949991
000190 f7 88 39 be 2a e1 b7 bf 39 1f bc be 53 d9 8d 3f
       -0.18118654 -1.436559 -0.3674257 1.1081947
0001a0 2f b0 c4 be cf 10 bd bd 30 22 c2 3d 2c 4f e0 bf
       -0.38415667 -0.092317216 0.09479177 -1.7524161
0001b0 8e 2f ba 3e 99 82 ab 3e 62 96 3c 3f a9 0b af bf
       0.36364406 0.33498076 0.73666966 -1.3675433
0001c0 c3 0a 22 3e fc e2 0c 40 bb 2d 0b bf e9 8b 05 bf
       0.15824418 2.201354 -0.54366654 -0.5216661
0001d0 b4 ec 50 be 12 d2 86 bf 20 ac 1d 3d c7 a8 32 3e
       -0.20402795 -1.0532858 0.03849423 0.17447196
0001e0 90 38 46 bf 36 f3 75 3f 73 20 77 bf 0d 6b 1d 3f
       -0.7743006 0.96074235 -0.9653389 0.6149147
0001f0 4c 6c cd be 47 1d f8 bf ce 06 2d bd ca e3 78 3f
       -0.40121686 -1.9383935 -0.042242818 0.9722258
000200 e0 ba 48 3c 2e 4e 14 3d aa ca 1f bd ac 57 9b 3f
       0.012251586 0.03620737 -0.039011635 1.213613
000210 bc 3d 17 40 5e 23 ae bf c2 f7 ca be 5e 0b 55 3e
       2.363143 -1.3604543 -0.3964215 0.20805117
000220 e4 cf 28 bc c3 8b 0a bf 97 97 a5 be b0 72 a1 be
       -0.010303471 -0.5411951 -0.32342216 -0.31532812
000230 f8 16 67 bf 78 5c 4f bd 40 32 06 40 56 09 a8 3e
       -0.9026942 -0.050625294 2.096817 0.32819623
000240 81 35 df 3f 51 d6 d0 3d 76 b7 02 3f 27 bf 16 bf
       1.7438203 0.101971276 0.5106119 -0.58885425
000250 1e 04 bb be 3d 59 c8 be 64 74 bb 3f b8 69 54 bf
       -0.3652658 -0.39130583 1.4644895 -0.82973814
000260 ed cb e7 3e dd 64 9c 3f 46 51 a6 be 3e a7 c2 be
       0.4527277 1.2218281 -0.32483882 -0.3801822
000270 f6 4d 04 3f 14 be 65 bf 1c 06 93 bf 17 d5 00 3d
       0.5168146 -0.8974316 -1.148624 0.03145322
000280 a8 2c dc 3f 6f 58 32 3d 4a 3f 2b bd bb e4 36 3d
       1.7201128 0.043541368 -0.041808404 0.044651728
000290 2b bf 0b 3f 09 0e 9a 3f 26 14 9c c0 19 6a 0f bf
       0.54588574 1.2035533 -4.8774595 -0.5602127
0002a0 ba b7 11 3e df 7f 2b 3f de ad 45 3e 69 ab 11 be
       0.14230242 0.6699199 0.19304606 -0.14225544
0002b0 03 58 1a be a5 0e 9d 3e 1d 5f 62 bc d8 fc 7d 3e
       -0.15072636 0.30675235 -0.013816622 0.24803483
0002c0 d5 f1 35 bd 82 36 4a bf bb a2 16 3e dd 84 20 40
       -0.044420082 -0.7898942 0.14710514 2.5081093
0002d0 49 4d c3 be de a1 10 be 01 0b e0 be 41 07 eb 3e
       -0.381449 -0.14124247 -0.43758395 0.45903972
0002e0 0d 7c e6 3e 9c 12 53 bf 21 87 d9 3d 00 e7 95 3e
       0.45016518 -0.8245027 0.10621477 0.29277802
0002f0 8d 10 03 3e 17 1c 21 3f a6 e0 20 3e 6c 21 f2 be
       0.12799282 0.62933487 0.15710697 -0.47291124
000300 42 bd 91 bc 30 b0 78 3e 09 e7 1e 3d aa 12 33 bd
       -0.01779044 0.2428596 0.03879455 -0.04371897
000310 d4 17 92 bc b9 34 bb 40 1b ce 0b c0 89 9a 80 3f
       -0.017833628 5.850186 -2.1844547 1.004716
000320 2c 76 3b c0 29 bc 8e 3f 7c 5e 05 bf f3 43 19 be
       -2.9290876 1.1151172 -0.52097297 -0.14967327
000330 06 5f 6e be c7 50 8c 3f 4e 02 4c 40 82 78 82 be
       -0.23278436 1.0962151 3.1876407 -0.25482565
000340 ac b9 8c bf e3 76 19 be 22 84 7b 3e 58 76 1f 3f
       -1.0994163 -0.14986758 0.24562123 0.62289953
000350 8e d7 f1 3d 86 a8 a7 3e 47 b8 5b 3f a7 82 44 3f
       0.11808692 0.3274576 0.8582806 0.7676186
000360 65 e2 e9 3c cb 06 0b 3f 50 72 b7 3e 86 eb ad 3e
       0.028550336 0.5430724 0.358294 0.33968753
000370 d6 e1 37 3f eb 49 6d 3f 2b 5a 97 3d af d3 34 3d
       0.71828973 0.92690915 0.07390245 0.04414719
000380 93 59 ff be b6 97 81 bc 47 d4 9f 3f 22 9f e3 3c
       -0.49873027 -0.015819412 1.2486657 0.027785841
000390 86 3a 51 bc c3 ab 2b bd c4 02 98 40 57 e7 c8 3e
       -0.012770301 -0.04191185 4.7503376 0.39238998
0003a0 cc b4 69 bf ad 63 1e 3f 49 7f 21 3f 16 f1 d4 3d
       -0.912915 0.61870843 0.63084847 0.10397546
0003b0 78 e6 e5 3e 05 a6 b7 be 6c fd 9b 3e 83 88 62 3e
       0.44902396 -0.3586885 0.30466783 0.22122388
0003c0 63 d1 e6 be 3b f3 c0 3e 04 44 91 3d 9f 6d 26 bf
       -0.45081624 0.3768557 0.07093051 -0.6501102
0003d0 53 9a 94 3e a6 d5 02 40 b5 2f f3 bf 5a 69 68 3f
       0.2902399 2.04429 -1.8998934 0.90785754
0003e0 3c 88 8a 3e 89 20 89 be c6 62 0b be 5d 91 18 bf
       0.27057064 -0.26782635 -0.13611898 -0.59596807
0003f0 19 e7 00 be 47 03 f2 bd 14 8d c6 be ba 49 bf 3e
       -0.12588157 -0.11817031 -0.3877951 0.37360936

fc1.bias f4 [400]
000000 a7 08 47 3d 40 2a 1f 3e b8 4a bc 3d 8f 05 ef 3c
       0.048592236 0.15543461 0.09193939 0.029177455
000010 0e e3 f1 bd 95 f2 ed 3d 9d af 03 3a 80 42 69 3d
       -0.11810885 0.116185345 0.0005023422 0.056948185
000020 b8 39 ab bd e5 41 14 be a4 e2 1e be 50 89 56 bd
       -0.08360618 -0.14478262 -0.15516144 -0.052377045
000030 8a 11 04 be 3f 60 1a be c8 51 2f 3e 9c 5c 8d 3d
       -0.12897316 -0.15075777 0.17121041 0.069024295
000040 4c fd bc bc a5 d1 1d be 44 fb fc bd 1d 38 28 be
       -0.02307 -0.15412004 -0.123526126 -0.16427656
000050 e9 cc 33 bd d6 7a fc 3d 70 12 ba bc 09 da 1d 3d
       -0.04389659 0.123281166 -0.02271387 0.038538013
000060 25 6d 51 bc 62 62 d8 3d bf 78 2a 3e cc ff 90 bd
       -0.01278237 0.1056564 0.16647623 -0.070800394
000070 0d c9 08 be 9f f0 d0 3d 64 ba eb 3d 72 eb 59 3c
       -0.13357945 0.10202145 0.115101606 0.013300763
000080 eb 1c a0 bd ec 32 28 bd b1 45 c9 3d 25 6f 54 3d
       -0.07818016 -0.041064188 0.09827746 0.05186381
000090 3d 66 77 bd 10 5c 4e 3d b3 b3 5e 3d 5c b8 4c bd
       -0.060400236 0.050380766 0.054370593 -0.049980506
0000a0 f7 24 cc bd eb 02 2e 3d 66 d7 2e 3d e5 ce 2c 3e
       -0.09967988 0.04248325 0.04268589 0.16875799
0000b0 ab a7 ed bc f6 5e d1 3c f1 73 1d 3d c2 7b 9f 3d
       -0.029010614 0.025557976 0.03844065 0.07787277
0000c0 fe f3 a5 3d 34 5d f8 bd d6 8d 17 3e ff 41 0b 3d
       0.081031784 -0.12127152 0.148002 0.033998486
0000d0 c6 dd 31 3e 51 fa 09 be 7e fe 1e 3e 6b 2f 03 3e
       0.17369756 -0.13474394 0.15526769 0.12811057
0000e0 75 d0 87 bd 97 c8 24 be 2c 53 e7 3c 38 e4 d9 3d
       -0.06631557 -0.16092144 0.028237902 0.106392324
0000f0 b1 cb b6 bd 12 5b 94 3d 00 dc de 3c d5 8d 17 3e
       -0.0892557 0.07243933 0.027204514 0.14800198
000100 7b 42 2d 3e de 23 a2 3d ab 0c f6 bc f6 a9 6e bd
       0.16919892 0.079169974 -0.030035337 -0.058267556
000110 62 bd fa 3d 2a 01 c1 bd 4f a7 86 bd fb 07 d0 bd
       0.12243153 -0.0942405 -0.0657488 -0.10157772
000120 08 8d 31 be df 0e 20 3e 48 57 e3 3d 16 da 91 3d
       -0.17338955 0.15630673 0.11100632 0.07121675
000130 0c 42 04 3e ff e1 fd 3d fe 86 f5 3d 17 43 e8 bd
       0.1291582 0.12396621 0.11988638 -0.11340921
000140 14 e1 e8 3d 89 f9 4a bc 63 93 29 3e 4d 73 1c 3e
       0.11371055 -0.012388595 0.1656013 0.15278359
000150 20 cd 1d 3d 18 11 c0 bd 58 63 27 3e 26 00 31 be
       0.0385257 -0.093782604 0.1634649 -0.17285213
000160 9d 6f 99 bd 11 8d 4f 3d c5 c5 ac 3c 10 9e 07 be
       -0.07491992 0.05067164 0.021090398 -0.1324389
000170 e5 ab cf bd 1b 65 0b 3d c7 8d 09 bd 9a 8e 0f be
       -0.10140208 0.03403197 -0.033582475 -0.14019242
000180 98 43 cd 3d 74 90 03 3e fa 69 8a bc dc ce b3 3d
       0.10022658 0.12848073 -0.016896237 0.0877969
000190 b3 23 14 3d 31 2d c6 3d 5a e5 86 3a cf c8 57 3d
       0.036166858 0.09676588 0.0010291741 0.05268174
0001a0 c8 a8 f7 3d 1e 9e 5e bd 37 3f 00 3e 5f 94 47 3d
       0.12092739 -0.05435001 0.12524115 0.048725482
0001b0 2b 4f 10 be 58 a2 0d 3e 5f 1e 8c bd 73 ca 2e be
       -0.140927 0.1383146 -0.0684173 -0.17069416
0001c0 82 7b 34 bd ba 45 30 be f2 9d 4b bd 8f 91 2d bd
       -0.0440631 -0.17214099 -0.049711175 -0.042375144
0001d0 ab 28 00 be 12 06 11 3e f7 ff de 3d 41 9e b3 3d
       -0.12515514 0.14162472 0.10888665 0.08770419
0001e0 ee 9a 24 3e 94 74 90 bd 36 af 89 3d 80 9c 04 3e
       0.16074726 -0.070534855 0.06722872 0.12950325
0001f0 30 d9 0e 3e 4c b0 82 3d 4b 91 a3 3d ca fd 20 3e
       0.13950038 0.06381282 0.07986697 0.15721813
000200 48 37 15 3e ee 0e 0e be 9f d4 12 3e ce 41 8c bd
       0.1457187 -0.13872883 0.14338921 -0.06848489
000210 16 1d e7 3d e7 9f 2d be 07 21 1f 3e fb 6f 14 3e
       0.112848446 -0.16955529 0.15539943 0.14495842
000220 59 72 4b bd a5 de 22 3e 57 f1 10 3d bd b9 eb bd
       -0.049669597 0.15905245 0.03538641 -0.11510036
000230 9f 69 8c 3d dd 35 e1 bd ee fc ba bd 20 7a 19 3e
       0.06856083 -0.10996602 -0.09130274 0.14987993
000240 c7 9c 53 3b 37 3b c2 bd 88 a3 2a be 71 a4 0f bc
       0.0032289492 -0.094839506 -0.16663945 -0.008767233
000250 e6 d9 a1 3c ac ee f8 bc a2 e3 06 3c 9b 53 12 3e
       0.019757222 -0.030387245 0.008232983 0.14289705
000260 80 9a 22 be 3d 22 25 3d 55 fb a6 bc f0 15 1d be
       -0.1587925 0.040315855 -0.020383516 -0.153404
000270 dc 6d 2c be dc 10 04 bc fa c5 2b be 69 7b 30 3e
       -0.16838783 -0.00806066 -0.16774741 0.17234577
000280 25 12 19 be da 44 a8 bb 74 38 6e bb 74 8e d0 bd
       -0.14948328 -0.005135161 -0.0036349567 -0.10183421
000290 d4 78 26 3e f4 66 cd bc f8 a0 88 bd 58 3d 10 3e
       0.1625703 -0.025073506 -0.06671327 0.14085901
0002a0 c6 68 68 3d 88 90 56 bd 25 0c 2d be 90 12 09 bd
       0.056740545 -0.05238393 -0.16899164 -0.03346497
0002b0 fc cc 31 bd 50 ef 42 bd 25 9f d2 3d 57 b5 53 bc
       -0.04340838 -0.047591507 0.10284261 -0.012921653
0002c0 f6 73 43 3d 0c 7d 11 3e 8b 70 37 3b 25 b0 27 3e
       0.04771801 0.14207858 0.0027990665 0.16375788
0002d0 21 57 96 3d df f4 04 be 80 4e b3 3d ab fe 91 bd
       0.07340837 -0.12984036 0.08755207 -0.07128652
0002e0 b1 57 0c 3e 9b 4f 4b 3d 58 31 d8 bd 51 53 d7 bd
       0.13705327 0.049636465 -0.105562866 -0.10513938
0002f0 55 b6 30 be 2f 44 2a be d5 5c e2 bd ad 84 35 3d
       -0.17257054 -0.16627572 -0.110528626 0.044315983
000300 da 9a 4b bd e0 a3 09 3d 60 39 18 be 61 46 11 ba
       -0.049708225 0.03360355 -0.14865637 -0.00055417983
000310 c8 c0 a7 bd 9b 62 39 3d 8f 9d f6 bd 9d 2f a8 3d
       -0.08191067 0.045260053 -0.12041771 0.082122065
000320 94 58 94 bd a0 9e 9d 3c db 91 97 bd 97 9d 17 3e
       -0.072434574 0.019240677 -0.074008666 0.1480621
000330 2a 30 86 3c d0 c7 ad 3d 3d 10 8b bd 7b 9d 0e 3e
       0.016380388 0.08485377 -0.067902066 0.13927262
000340 67 9e 83 bd 94 c7 e2 3d ee ea 2a 3e 99 2a b3 bd
       -0.06426697 0.11073223 0.16691181 -0.08748359
000350 c3 9d 21 3d 4c ef 0d 3d 70 cb 6f ba 6a 7a 9a 3d
       0.039457094 0.03465204 -0.0009147441 0.0754288
000360 6a 44 1d 3e f3 d1 b9 ba 77 20 30 3d 3f e9 dd 3d
       0.15358129 -0.001417695 0.04299971 0.10835504
000370 c2 0c 12 be ae e7 d2 3d 66 33 89 3b c3 80 01 be
       -0.14262679 0.10298096 0.0041870354 -0.12646775
000380 83 7b 93 3d 71 27 a4 bd 9b a5 02 be c2 33 66 bd
       0.07201292 -0.08015335 -0.12758486 -0.056201704
000390 72 1c b6 3c cd 51 cd 3d 0f 81 9e bd a2 78 15 3e
       0.02223036 0.10025368 -0.0773946 0.14596799
0003a0 b8 3e ff bd c6 5b 02 be 1a 0e 8c 3d 86 59 27 3e
       -0.124631345 -0.12730321 0.06838627 0.16342744
0003b0 4f 02 07 3e 4c 91 00 3e e0 40 30 3c f4 a3 80 bd
       0.13184474 0.12555426 0.010757655 -0.062812716
0003c0 de bf 04 be 96 51 fe bd 9f 6a 5d 3d 6a 1d 49 bc
       -0.12963817 -0.12417905 0.05405676 -0.012275079
0003d0 a7 3d e3 bc 7d 45 07 bd 6e 57 fd b9 d0 90 d0 bd
       -0.027739359 -0.033025254 -0.0004832106 -0.10183871
0003e0 8f 9a 22 bd d5 76 12 3e b8 02 bd bd 52 3c 65 bc
       -0.03969818 0.14303143 -0.09229034 -0.013991432
0003f0 de aa 0c be 15 4a 8f bd 6d b2 71 3d 71 e3 9a 3d
       -0.13737056 -0.06996552 0.05900805 0.07562912

bn1.weight f4 [400]
000000 5a 03 44 3f f1 18 5d 3f c5 90 22 3f b3 53 34 3f
       0.76567614 0.8636618 0.6350215 0.70440215
000010 c0 59 33 bf 83 84 0f 3f 42 8c 81 3f 19 e4 8f 3f
       -0.7005882 0.5606157 1.0120928 1.1241485
000020 60 64 65 3f 48 67 6b 3f 7c 03 07 3f f2 33 23 3f
       0.89606285 0.9195447 0.5273969 0.6375114
000030 c6 55 70 3e 4d 94 36 3f c4 3f 5c 3f e8 57 5c 3f
       0.2347022 0.7132004 0.860348 0.86071634
000040 e1 b3 24 3f 09 18 15 3f 2d e8 0a 3f 56 8b 5a 3c
       0.64336973 0.582398 0.5426052 0.013338884
000050 fd 34 25 3f fe 0e 41 3f ad 22 53 3f b6 64 83 3f
       0.6453398 0.754135 0.82474786 1.026511
000060 4d 79 cd 3e cd e8 43 3f fe 2e 77 3f e4 39 48 3f
       0.40131608 0.765271 0.9655608 0.78213334
000070 4c c7 71 3f 30 c3 1f 3c 8e b1 25 3f 9e a3 39 3f
       0.9444473 0.009751126 0.6472405 0.72515285
000080 99 34 50 3f 4e 75 8d 3f da 0a b2 3f fb e9 a0 3f
       0.8133026 1.1051424 1.3909562 1.2571405
000090 74 8b 12 3f e0 aa 58 3f 03 0c 75 3f 3d 07 0e 3f
       0.5724404 0.84635735 0.95721453 0.55479795
0000a0 e1 bb af 3e a4 f6 9f 3f bc f7 31 3f c9 02 24 3f
       0.34323028 1.2497144 0.6951864 0.6406675
0000b0 cd f0 8c 3e e6 32 6c 3f 1e e2 d5 3e 76 70 2b 3f
       0.27527466 0.92265165 0.41774076 0.66968477
0000c0 bd e9 96 3f ae ca 37 3f 25 24 6c 3f 1e a0 3f 3f
       1.1790081 0.7179364 0.9224265 0.74853694
0000d0 09 0e 84 3f 36 32 88 3f 4c 3c 19 3f 42 bb 44 3f
       1.0316783 1.0640323 0.5985763 0.7684823
0000e0 dd b8 c7 3e f4 f7 7b 3f e2 09 d4 3e 9f c5 21 3f
       0.39008227 0.9842522 0.4141379 0.6319217
0000f0 3f 5f 80 3f 04 4d a0 3f fd 59 6d 3f e8 f1 a8 3f
       1.0029067 1.2523503 0.92715436 1.3198824
000100 8c c4 a5 3f 58 f5 da 3e 8c 99 8a 3f 3a 94 bb 3e
       1.2950606 0.42765307 1.0828109 0.36636525
000110 eb 88 99 3f d2 60 49 3f fe a0 8b 3f 5a f1 1e 3f
       1.1994909 0.7866336 1.0908506 0.62087023
000120 93 64 84 3e 95 7f 09 3f 10 1e ef 3f 40 c2 87 3f
       0.25857982 0.537103 1.8681049 1.0606155
000130 db 5f bd 3f 14 bb 0d 3f af 2f 5d 3f 5e fc 16 3f
       1.4794878 0.55363584 0.86400884 0.5897883
000140 e2 cf 3c 3f aa 2e 27 3f c5 82 b6 3f df f4 f1 3e
       0.73754704 0.6530558 1.4258658 0.47257134
000150 0f 27 40 3f b1 07 84 3a 34 cb 7b 3f 79 47 2d 3f
       0.750596 0.0010073093 0.9835694 0.67687184
000160 88 07 4d 3f a8 7a 72 3f 7e 83 d2 3f 79 a8 2e 3f
       0.80089617 0.9471841 1.6446378 0.6822582
000170 02 73 6f 3f 4f 2f 1d bd 5e 1a 6c 3d ec da 32 3f
       0.93534863 -0.038375195 0.057642333 0.698653
000180 79 79 9a 3f d2 8b a6 3f 4b c7 35 3f 82 a2 8c 3f
       1.206832 1.301142 0.7100722 1.0987093
000190 60 80 0e 3f 26 5f 95 3f 19 c1 65 3f 4f ad 75 3f
       0.55664635 1.1669662 0.8974777 0.9596757
0001a0 ce f7 20 3f 78 d1 12 3f 9e 39 92 3f 0b 59 7c 3e
       0.6287812 0.57350874 1.1423833 0.24643342
0001b0 72 06 5b 3f ca 94 81 3f c0 01 9c 3f 3d 55 22 3f
       0.8555671 1.0123532 1.2188034 0.63411313
0001c0 f8 10 1a 3f 00 6b 1f 3f ef df 82 3f bb 47 b4 3f
       0.6018214 0.62272644 1.0224589 1.408439
0001d0 4f a4 43 3f 08 7a ef 3e ad 51 54 3f 3a aa 09 3f
       0.7642259 0.4677279 0.8293713 0.5377537
0001e0 65 03 1e 3f 22 dd 7d 3f 2e 64 88 3f 95 f1 54 3f
       0.6172393 0.99165547 1.0655572 0.83181125
0001f0 1e 77 5d 3f 97 1d 59 3f d1 c3 0c 3f 4d 32 55 3f
       0.86509883 0.84810776 0.5498629 0.8327988
000200 13 f4 95 3f 13 79 21 3f 4b 9c 27 3f b3 1b 24 3f
       1.171511 0.6307537 0.6547286 0.64104766
000210 55 79 ca 3e 86 21 1d 3f 8f c5 4b 3f 9d b4 f1 3e
       0.39545694 0.6137928 0.79598325 0.4720811
000220 1c 87 50 3f b8 4e 6e 3f 32 ad f7 3e 75 a2 02 3f
       0.8145616 0.93088865 0.48374325 0.5102914
000230 ca 35 67 3f 44 74 03 3f 32 be 3c 3f fe 6e 3e 3f
       0.9031645 0.5134928 0.73727715 0.7438811
000240 26 5c 91 3f 68 e9 84 3f 67 a7 bb 3d 53 2a 5a 3f
       1.1356246 1.038373 0.09162789 0.8522083
000250 bd 69 f5 3e 76 59 4d 3f e6 e5 66 3f a2 74 29 3f
       0.47932234 0.8021463 0.9019455 0.6619359
000260 05 1f f7 3e 02 00 86 3f 0a 9e ad 3f 8b 68 eb 3e
       0.48265854 1.0468752 1.3563855 0.45978197
000270 83 d5 08 3f 6d ad e4 3e c0 4f b6 3e ed e0 0d 3f
       0.53450793 0.44663563 0.3560772 0.55421335
000280 11 dd f4 3e 60 d9 11 3f 12 5d 0e 3f 13 0c 5d 3f
       0.4782491 0.5697231 0.55610764 0.8634655
000290 2b 73 35 3e 55 e8 50 3f d4 23 1e 3f 8d 50 49 3f
       0.17719714 0.8160451 0.6177342 0.78638536
0002a0 44 62 70 3f 81 4f 3a 3f 1d 88 3d 3f a5 e2 14 3f
       0.9389994 0.72777563 0.7403582 0.5815833
0002b0 81 f1 17 3f 6e 59 37 3f 48 84 9e 3e d3 f7 0b 3f
       0.5935288 0.71620834 0.30960298 0.54675025
0002c0 ec 57 4b 3f 36 79 0d 3f 76 2d 44 3f 26 ea 5e 3f
       0.79431033 0.5526308 0.7663187 0.8707603
0002d0 e5 98 3b 3f d4 b8 a1 3f cd 8f 07 3f 58 34 68 3f
       0.73280174 1.263453 0.529538 0.9070487
0002e0 65 41 a9 3f d1 89 f5 3e 39 6d 96 3f b8 1d 7e 3f
       1.3223082 0.47956708 1.1752082 0.992641
0002f0 ba 19 87 3f 55 3f 05 3f 2f 69 8b 3f 85 03 89 3d
       1.0554726 0.5204976 1.0891474 0.066901244
000300 76 45 29 3f 67 0e 42 3f 86 e7 c8 3b 0e 33 89 3f
       0.66121614 0.75803226 0.0061311154 1.0718706
000310 fd 5b 69 3f ab 3d 85 3f a6 49 3a 3f 67 a6 bd 3f
       0.9115599 1.0409445 0.7276863 1.4816407
000320 bd 97 08 3f 2f 69 0d 3f eb 31 09 3f b7 5b 3c 3f
       0.53356534 0.5523862 0.53591794 0.73577446
000330 bd ff a1 3f 6e 80 44 3f 3d cd e2 3f 04 89 c9 3e
       1.265617 0.7675847 1.7718884 0.39362347
000340 ad 6e 05 3f 22 43 0f 3f 30 1c 1e 3f 93 5c 33 3f
       0.52122 0.5596181 0.6176176 0.7006313
000350 ed cd 3e 3f 47 cd 64 3f 79 e2 30 3f 22 d9 0d 3f
       0.7453297 0.8937573 0.6909557 0.55409443
000360 16 2c ab 3f eb 86 55 3f 94 80 a4 3f b3 22 52 3f
       1.3372829 0.83408993 1.2851739 0.82084197
000370 97 6a 1b 3f 59 87 11 3f f2 68 9d 3f 37 18 10 3f
       0.6070952 0.5684715 1.2297652 0.5628695
000380 5a 88 46 3f 56 69 37 3f 8c 13 4a 3f f0 31 a9 3f
       0.77551806 0.71645105 0.78936076 1.3218365
000390 90 15 18 3f 22 b0 a5 3e 33 e4 4f 3f 2e c3 54 3f
       0.594079 0.3236094 0.8120758 0.8311032
0003a0 eb 42 8f 3f ca 28 88 3b 8b 8a 53 3f a2 85 69 3f
       1.1192297 0.004155253 0.82633275 0.9121953
0003b0 82 55 5e 3f 84 bf 70 ba a0 87 8f 3f e6 d9 68 3f
       0.86849225 -0.00091838115 1.1213264 0.90957487
0003c0 7d 54 c5 3e c5 ed 66 3f f0 4e 82 3f 89 22 18 3f
       0.38541022 0.9020656 1.018034 0.59427696
0003d0 cf 20 14 3f f1 27 26 3f 2c 64 0a 3f 32 2b 3f 3f
       0.5786256 0.64904696 0.540591 0.74675286
0003e0 31 75 23 3f c7 02 7f 3f 37 f1 7b 3f 39 77 87 3f
       0.63850695 0.9961361 0.9841494 1.0583259
0003f0 de b2 7a 3f c2 13 54 3f 69 b3 4a 3f a1 b9 72 3f
       0.9792918 0.8284265 0.7918001 0.948145

bn1.bias f4 [400]
000000 0b 82 8e be 0d 5b 84 bf 28 96 71 bf 51 b1 88 bf
       -0.2783359 -1.0340286 -0.94369745 -1.0679113
000010 de 5e 8e bf e5 7e d1 3e b1 ae 82 bf de 66 5f bf
       -1.1122701 0.40917125 -1.0209562 -0.8726634
000020 5c 19 5f bf 97 c9 3b bf 18 48 25 3f dc 47 74 bf
       -0.8714807 -0.73354477 0.6456313 -0.9542215
000030 b6 b0 86 bf 96 14 91 bf 8a e8 8a bf 61 5f 46 bf
       -1.0522678 -1.1334407 -1.0852215 -0.77489287
000040 a0 27 5c bf 3c 2c aa bf c0 6c 8a bf f8 c6 45 be
       -0.8599796 -1.3294749 -1.0814438 -0.19314182
000050 cc f5 61 be 96 87 25 bf 28 92 92 bf 97 9e 89 bf
       -0.2206642 -0.6466001 -1.1450853 -1.0751523
000060 54 dd d3 bf fd cf 4f bf 99 31 d2 bf 86 86 a1 bf
       -1.6551919 -0.8117674 -1.6421386 -1.2619178
000070 00 28 a5 be 7b 68 a8 bd 59 bd 39 bf 47 c8 89 bf
       -0.3225708 -0.08223053 -0.72554547 -1.0764245
000080 2d 42 92 bf 49 da c9 bf 69 55 a6 bf dc ff ca bf
       -1.1426445 -1.576974 -1.2994815 -1.5859332
000090 60 24 46 bf f4 fd ed be bf 16 84 bf 3f 43 9c bf
       -0.77399254 -0.46482813 -1.0319442 -1.2208022
0000a0 3d f8 b0 bf db ed a2 bf bd 45 93 bf b3 27 16 bf
       -1.3825756 -1.2728838 -1.1505657 -0.58654326
0000b0 de 54 7b bf 08 e2 03 bf dc c7 19 c0 d4 36 20 bf
       -0.9817637 -0.5151677 -2.4028234 -0.6258366
0000c0 52 cc 89 be 5a b2 72 bf d7 10 87 bf bc 0a 51 bf
       -0.26913697 -0.9480339 -1.0552014 -0.81657004
0000d0 94 9a d8 bf 47 52 3b bf d0 54 14 bf 89 bb 14 bf
       -1.6922174 -0.7317242 -0.57941914 -0.58098656
0000e0 a7 85 75 bf 77 38 95 bf 9b d1 e4 3d f3 ba 64 bf
       -0.9590706 -1.1657857 0.111727916 -0.8934776
0000f0 4c 82 2c 3f 44 af a4 bf d3 19 80 bf 8f a4 00 bf
       0.6738632 -1.2865987 -1.0007881 -0.50251096
000100 33 14 af bf 99 08 86 3d c8 f7 69 bf 1e 44 8b bf
       -1.3678039 0.065446086 -0.9139371 -1.0880163
000110 66 3c 18 bf 2c 03 76 bf 1a 66 ee bf 7e 0a ff 3e
       -0.5946716 -0.9609859 -1.8624909 0.49812692
000120 72 1b 8d bf c7 0b 9c bf ee 83 b3 be f1 77 76 bf
       -1.1024001 -1.2191094 -0.35061592 -0.96276766
000130 62 4b 81 bf 29 5d 59 bf fa fc a4 bf 63 5c 96 3d
       -1.010113 -0.84907776 -1.2889702 0.0734184
000140 cd d4 40 bf 31 94 00 c0 67 c6 86 bf e4 6f 7d bf
       -0.7532471 -2.009045 -1.0529298 -0.98998857
000150 7b b9 e3 3c 5d 92 17 bc 64 2f 97 bf 75 45 4c bf
       0.027798405 -0.009251204 -1.1811337 -0.79793483
000160 5b 16 33 bf e6 fb d0 be d0 77 c4 bf c5 50 8a bf
       -0.69955987 -0.40817183 -1.5349064 -1.0805899
000170 8e 18 99 bf 04 f4 d0 3f 38 b5 cd be 05 0b 78 bf
       -1.1960618 1.6324468 -0.4017732 -0.96891814
000180 46 57 8c bf e8 4b 81 bf c4 c6 1a bf 1d 2c 6b bf
       -1.0964134 -1.010129 -0.6045954 -0.91864187
000190 71 e1 67 bf 47 22 a8 bf 11 d7 91 bf eb ac 52 c0
       -0.9057837 -1.3135461 -1.1393758 -3.291804
0001a0 d4 05 19 bf 54 51 fa 3d b7 48 b2 bf c2 0a 9a bf
       -0.5977452 0.12222543 -1.3928441 -1.2034533
0001b0 f9 01 12 bf 48 23 14 bf 7b 25 87 bf fe 0d f1 be
       -0.5703426 -0.57866335 -1.0558313 -0.47080988
0001c0 4d 03 35 bf 9c 38 dd be ac 5e c8 bf 1a 88 f5 be
       -0.7070816 -0.43207252 -1.5653892 -0.479554
0001d0 d4 0d 36 bf 12 9a fc be ad c2 c1 bf 05 54 4b bf
       -0.7111485 -0.49336296 -1.5137535 -0.7942508
0001e0 d0 59 88 bf d4 b6 0a bf 88 38 ab be 87 ed 6c bf
       -1.0652409 -0.54185224 -0.33441567 -0.9254994
0001f0 c8 6c 66 be c7 d4 93 bf 29 13 85 bf 91 1e 67 bf
       -0.22502434 -1.154931 -1.0396472 -0.90281016
000200 1b 9a 9f bf 75 ce 3b be 1b 18 a2 bf 65 8b 59 bf
       -1.2468904 -0.18340476 -1.2663606 -0.84978324
000210 af 5f 0b bf e2 30 79 bf 7d 6f af bf 88 ad 79 bf
       -0.54442877 -0.97340214 -1.3705899 -0.9753041
000220 b5 91 99 bf 91 4e a2 bf 82 37 fc bd 49 89 1f bf
       -1.1997591 -1.2680227 -0.12315275 -0.62318856
000230 18 65 50 bf 8e 99 46 bf 06 a0 59 bf e4 8f 82 bf
       -0.81404257 -0.77578056 -0.850098 -1.0200162
000240 99 a7 8a bf 47 06 8d bf 1c 58 18 bf 2f 1f 9c bf
       -1.0832397 -1.1017541 -0.59509444 -1.2197016
000250 28 85 c7 bf 51 fd 2e bf 6c e1 7a bf 58 83 c4 3d
       -1.5587511 -0.6835528 -0.98000216 0.09595364
000260 f4 99 02 bf 7c 00 5a bf ce d4 3a bf 36 f9 ba bd
       -0.51016164 -0.8515699 -0.72980964 -0.091295645
000270 99 8a cc bc 34 11 01 bf 77 a5 21 bf dc 7f c5 bf
       -0.024968432 -0.50416875 -0.63143104 -1.5429645
000280 fd bd 3f bf fb 5e 87 be e3 2e 69 bf b9 0d 1f bf
       -0.74899274 -0.26439652 -0.9108717 -0.62130314
000290 a7 b5 52 bf d3 54 13 bf 5d 63 dc be 6a 71 47 bf
       -0.8230843 -0.57551306 -0.43044558 -0.7790743
0002a0 48 f4 3d bf 24 c2 95 bf 41 73 de bf d1 6c 1e bf
       -0.7420087 -1.1699872 -1.7378923 -0.6188479
0002b0 00 0d 3c bf 04 dc a3 bf 80 0e fe 3e ea 82 90 bf
       -0.73457336 -1.2801518 0.49620438 -1.1289952
0002c0 cc 11 4f bf ba eb a6 bf c1 59 b4 bf 72 3c 63 bf
       -0.8088653 -1.3040688 -1.4089891 -0.8876411
0002d0 4d 82 61 bf 47 13 ba bf 61 02 20 bf 69 dd a4 bf
       -0.8808945 -1.4537133 -0.6250363 -1.2880069
0002e0 2e ac 73 3f 93 10 81 bf a4 b1 4c bf 46 0c 93 bf
       0.951846 -1.0083183 -0.7995856 -1.148812
0002f0 69 68 1d bf 98 ea f9 be 03 1a 3e bf 89 03 b5 be
       -0.6148744 -0.48811793 -0.7425844 -0.3535426
000300 f0 18 81 bf a9 72 26 bf 0c 4e 36 bd 48 e5 19 bf
       -1.0085735 -0.6501871 -0.044508025 -0.6011548
000310 0e 1c a1 be 9e a3 81 bf c6 0a 84 bf 65 93 46 bf
       -0.31466717 -1.0128057 -1.0315788 -0.77568656
000320 ea 37 9a bf 32 40 a9 bf fc e8 c0 be 23 4f 43 bf
       -1.2048314 -1.3222716 -0.37677753 -0.7629263
000330 01 d4 9e bf ee 26 96 be 30 a3 f0 bf 6f 8a 28 bf
       -1.2408448 -0.29326576 -1.8799801 -0.6583623
000340 99 ce 12 bf 8b 3e 1a bf 45 49 49 bf 7b dc 48 bf
       -0.57346493 -0.60251683 -0.78627425 -0.78461426
000350 ab 48 41 bf 0c c7 40 bf e6 c4 23 bf 82 f5 d7 be
       -0.7550151 -0.7530372 -0.6397232 -0.42179495
000360 3a 4e 97 bf 32 40 8c bf c3 b1 61 bf c7 9f a7 bf
       -1.1820748 -1.0957091 -0.8816187 -1.3095635
000370 73 6b 97 bf 94 55 5e bf 28 c6 a3 3b 21 e4 19 bf
       -1.1829666 -0.8684933 0.0049979873 -0.6011372
000380 77 69 81 bf 0d 1d a9 bf 37 57 4d bf 06 c9 b4 bf
       -1.011031 -1.321199 -0.80211204 -1.4123847
000390 80 5f ce bd 91 f8 09 bf 0f af 95 bf e4 fd 78 bf
       -0.10076809 -0.5389491 -1.1694049 -0.97262406
0003a0 75 80 a3 bf d2 41 c8 bc 38 2a b6 bf b9 35 5c 3e
       -1.2773577 -0.024445448 -1.4231634 0.21504869
0003b0 3e f1 92 bf cf 8a 67 bd 9a a5 87 bf 78 a5 17 bf
       -1.1479871 -0.056528863 -1.0597413 -0.5923686
0003c0 9e 43 64 bf b4 1e 86 bf 8d bd 9d bf 15 dd 4f bf
       -0.89165676 -1.047812 -1.2323471 -0.8119672
0003d0 a5 02 78 be 3a e4 00 be 99 1f 2f bf c3 51 0e bf
       -0.24219759 -0.12587062 -0.6840759 -0.5559351
0003e0 1d e8 ec be 75 58 83 bf 42 e5 01 bf d7 7d 91 bf
       -0.46270838 -1.026137 -0.50740445 -1.1366528
0003f0 d0 3d 66 bf 84 27 92 bf 0f c2 a2 bf 98 76 95 bf
       -0.8993807 -1.1418309 -1.2715472 -1.1676817

bn1.running_mean f4 [400]
000000 f7 0b d7 3f 0c 52 97 40 e0 53 81 bf fa a8 81 c0
       1.6800526 4.7287655 -1.0103722 -4.051877
000010 b6 47 6e 40 67 3c d7 40 6a 8c 67 c0 67 be 40 c0
       3.723127 6.7261233 -3.6179452 -3.0116212
000020 73 a5 eb 40 9d d8 91 c0 9a 86 23 bd ad 45 e2 40
       7.3639464 -4.557692 -0.039923288 7.0710053
000030 17 dc 74 c0 7e 84 c0 3f e0 25 d0 c0 00 e4 89 3e
       -3.8259332 1.5040433 -6.5046234 0.26931763
000040 28 cf 80 c0 94 d7 5f c1 1c ba 8e 3f d7 9a 71 3f
       -4.0252876 -13.990131 1.1150546 0.9437689
000050 95 c5 82 40 bb ea 04 c1 28 3e 48 bf 82 7a f5 c0
       4.086619 -8.307307 -0.7821984 -7.6712046
000060 62 8a 93 c0 d9 f3 25 be 7a 08 bc bf 21 ff 73 40
       -4.6106424 -0.16206302 -1.4690087 3.8124468
000070 38 98 87 40 20 19 ef c0 97 a2 9e c0 5f 95 76 c0
       4.2373314 -7.471817 -4.9573474 -3.852867
000080 e6 90 99 40 50 f0 6f c0 87 30 f5 bf 25 2f 10 bf
       4.798938 -3.7490425 -1.9155434 -0.56321937
000090 f1 ab e0 c0 53 99 e3 bf 87 69 a0 c0 a9 4d 03 40
       -7.020989 -1.7781166 -5.0128818 2.051615
0000a0 a2 5a b6 3f cd ce 48 c0 e5 04 e5 c0 a6 0d ec 40
       1.4246409 -3.137622 -7.1568475 7.376666
0000b0 f2 b7 8d c0 c7 84 d4 40 21 a4 1d 3f 37 a0 05 be
       -4.4287043 6.641208 0.61578566 -0.13049398
0000c0 76 f9 c7 3f fe af 30 40 99 ba 70 be 63 99 99 bf
       1.5623004 2.7607417 -0.23508681 -1.1999935
0000d0 ee bf e0 3f 9a 5a 71 c0 76 7d 06 41 4c a4 cd c0
       1.7558572 -3.7711549 8.40563 -6.426306
0000e0 98 31 08 c0 89 9c c7 3f d8 41 a0 40 cd f9 18 c1
       -2.128027 1.5594646 5.0080376 -9.5609865
0000f0 33 1a 57 40 2c 2d 32 bf 49 7d 69 c0 ff d6 db bf
       3.360974 -0.69600177 -3.6482718 -1.7174987
000100 75 dd 81 c0 27 d8 b6 3f 77 4f 7d c0 60 78 05 bd
       -4.0582833 1.4284714 -3.9579751 -0.0325855
000110 d5 62 61 3f cc 90 51 c0 7f 6c 8c c0 b8 d2 c5 40
       0.8804143 -3.2744627 -4.388244 6.1819725
000120 bf ab c5 c0 00 4f 7d 3f 9e 3d be 3f 0f db 1f bf
       -6.177215 0.9894867 1.4862554 -0.6244363
000130 55 0d 4d c0 93 d1 0b c0 a8 79 90 c0 df b2 1a 41
       -3.2039387 -2.1846664 -4.5148506 9.66867
000140 a2 68 4b 40 67 cb 2a c0 6d 50 7a 3f e1 9e 35 c1
       3.1782613 -2.6686647 0.9777897 -11.351289
000150 0d 0a d7 40 21 a0 52 be 73 d9 9f c0 a0 69 3c 3f
       6.719977 -0.20568897 -4.995294 0.7359867
000160 8f 7a 80 3e 20 e5 c7 bc f5 8d 01 bf d0 db 16 c1
       0.25093505 -0.024401248 -0.50607234 -9.428665
000170 40 86 c8 c0 0d 30 19 41 5b f5 0b 3f 96 ce 2b 3f
       -6.266388 9.574231 0.5467126 0.671121
000180 70 96 00 40 9d 45 02 c0 9b eb 5f 40 00 08 b0 40
       2.009182 -2.0354989 3.4987552 5.5009766
000190 9e 32 3f c0 9b 42 82 bf 5f f9 86 c0 cd a8 07 bf
       -2.9874644 -1.0176576 -4.217941 -0.52991945
0001a0 77 aa 67 40 f1 c5 a7 40 31 fe a3 be 4c 9b 70 40
       3.6197793 5.242913 -0.3202987 3.7594786
0001b0 f3 65 a5 be ae 69 a1 3f 1e 43 6d 40 4f ba e7 3f
       -0.32304344 1.2610376 3.7072215 1.8103732
0001c0 21 b4 eb c0 fe 1c c3 40 22 a0 6d c0 c0 8c 94 bf
       -7.3657384 6.097289 -3.7128987 -1.1605453
0001d0 9a 0b 13 c1 4d d3 90 40 ae 26 7f c0 78 e2 89 c0
       -9.190332 4.5257936 -3.9867358 -4.308895
0001e0 4c c0 fc bf 1d 79 aa bf b2 4a cb be 34 9b de c0
       -1.9746184 -1.3318211 -0.39705426 -6.9564457
0001f0 e5 0d 95 40 5b c6 f5 40 5f 0d 9d 3f f4 6e 54 3f
       4.657946 7.6804633 1.2269706 0.829818
000200 52 28 1b c0 b4 e6 66 40 5b 34 c6 3f a1 56 a3 40
       -2.424336 3.607831 1.5484728 5.104325
000210 f1 b8 21 3e dd bd 5d 3f 7a 14 2d be bc 51 b3 c0
       0.15793206 0.86617833 -0.16902342 -5.6037273
000220 45 fb d4 bf 13 2b 02 3f e9 37 35 40 35 94 76 3f
       -1.6639181 0.50846976 2.8315375 0.96319896
000230 2a 86 28 40 b0 b6 ea c0 35 9a 81 bf 47 51 71 c0
       2.6331887 -7.3348007 -1.0125185 -3.7705858
000240 ac 3f 83 c0 2e 35 b7 bf 78 81 e1 be cf 7c ae 40
       -4.1015224 -1.4313104 -0.4404409 5.4527354
000250 1f ba 03 be 0d ac 1f c1 e5 35 ce c0 25 2b c7 3f
       -0.12863968 -9.979505 -6.444079 1.5560042
000260 24 5d b5 40 c7 12 a9 3f 18 be 1f 3f b3 7a d2 bf
       5.6676197 1.3208855 0.62399435 -1.6443695
000270 14 e1 33 c0 8f ac bc c0 ea 17 4f bf 50 32 13 c1
       -2.8106127 -5.8960643 -0.80895865 -9.199783
000280 22 f8 c9 3f 67 45 83 40 28 d3 fb c0 f3 7b 97 3f
       1.5778849 4.102222 -7.869526 1.1834701
000290 a9 e4 e9 c0 68 22 7a c0 b2 e5 3a c1 b3 8b a8 c0
       -7.3091626 -3.90835 -11.681078 -5.267053
0002a0 90 c0 38 bf 3d 11 93 3f 67 ea 2d 40 ff 2e bc 40
       -0.7216883 1.1489636 2.7174318 5.880737
0002b0 b5 b1 3e 40 4c f5 b9 c0 8f 97 fc be 3f 3f a2 40
       2.9795964 -5.8111935 -0.4933438 5.0702205
0002c0 56 f6 69 bf 58 09 56 40 c3 72 93 c0 b9 43 e1 be
       -0.91391504 3.3443203 -4.607759 -0.4399698
0002d0 2d ab 27 c1 be e1 ce bf 6b 06 19 41 9a fe 70 c1
       -10.479291 -1.6162641 9.564067 -15.062159
0002e0 3d 76 1c 3f 17 a0 30 3f 06 27 42 3f 2f 5f 8d bf
       0.6111792 0.6899428 0.75840795 -1.1044673
0002f0 cf 49 04 40 da 4e f4 c0 b6 f1 46 40 58 a5 47 41
       2.067005 -7.6346254 3.1085029 12.477867
000300 3e 8a 14 c1 d7 4d 05 41 a2 a0 d6 bd 01 29 9e bf
       -9.283751 8.331504 -0.10479857 -1.2356263
000310 e8 86 81 bf 7a 2c 88 bf 6d 7e c9 c0 58 ef c7 bf
       -1.0119295 -1.0638573 -6.296683 -1.5619917
000320 61 f8 ca c0 3b 5c 9b c0 92 35 13 c1 bd c0 94 3e
       -6.3428197 -4.8550086 -9.200579 0.29053298
000330 10 8d ea bd 80 40 b4 c0 71 07 01 c0 e7 56 19 41
       -0.11452687 -5.6328735 -2.0160792 9.583716
000340 d4 07 49 c0 8d 5e 2a c0 03 31 b2 c0 f8 ff 72 bf
       -3.1411028 -2.662021 -5.568483 -0.9492183
000350 7d bb b6 bf b3 a9 7c be ad 3a 36 40 22 b0 32 3e
       -1.4275967 -0.2467411 2.8473313 0.17450002
000360 d2 11 dd 3f cb 41 37 c0 50 38 74 3d 06 99 9e c0
       1.7271063 -2.8633907 0.059624016 -4.9561796
000370 04 d8 40 c1 87 ee 2e 40 cb b8 18 40 93 17 44 41
       -12.052738 2.7333086 2.3862789 12.255755
000380 19 1b 41 3f 63 d2 57 c1 80 3f f5 3f 96 5e 31 3f
       0.7543197 -13.488864 1.9160004 0.6928495
000390 0a 2d 92 40 f3 68 b0 c0 99 6e c2 40 fb ee 97 c0
       4.567998 -5.512811 6.0760007 -4.7479224
0003a0 e0 6f 27 be f0 76 39 be 0e 9f 46 bf a8 3b a2 40
       -0.1635127 -0.18111777 -0.7758645 5.0697823
0003b0 91 1f 1f c1 d9 2d 41 3e 2a 78 f4 be b1 ab 77 c0
       -9.945207 0.18865146 -0.47747928 -3.8698542
0003c0 df f4 cf bf 55 fe c1 c0 64 55 55 c0 4a b3 8b bf
       -1.6246604 -6.0622964 -3.3333368 -1.091409
0003d0 bd 7b c2 c0 1e 68 83 40 43 a6 dc 40 92 a4 eb bf
       -6.077605 4.1064596 6.8952956 -1.8409598
0003e0 e3 55 30 c1 ba a7 87 40 f2 6d b8 be 93 5b c1 bf
       -11.020968 4.2392244 -0.36021382 -1.5106071
0003f0 16 95 20 40 99 32 f5 c0 34 b9 21 c1 60 74 d6 c0
       2.5090995 -7.6624265 -10.107716 -6.701706

bn1.running_var f4 [400]
000000 09 4e 5a 42 4b 07 94 42 6d 00 c2 42 4c ae 97 42
       54.576206 74.014244 97.00083 75.84042
000010 dd b8 61 42 42 8e bb 41 6f ef 5a 42 ba 8d 62 42
       56.43053 23.444462 54.73382 56.638405
000020 45 93 38 43 fe 8d 86 43 fc 4a b0 41 ab ae 14 42
       184.57527 269.1093 22.036613 37.170574
000030 e0 db e4 42 c4 ef 35 42 47 bc 05 43 ef d6 a1 43
       114.42944 45.484146 133.73546 323.67917
000040 f4 90 1c 43 b8 89 58 42 81 73 db 42 be 22 a9 40
       156.56622 54.13449 109.72559 5.285491
000050 34 5d f2 42 34 1d b4 41 22 0f 17 43 38 88 06 43
       121.18204 22.51426 151.05911 134.5321
000060 fb 07 91 42 48 0e 43 43 fd e8 8e 42 e4 d6 e0 42
       72.51559 195.05579 71.455055 112.41971
000070 41 33 e3 42 27 98 7e 43 f1 77 34 43 41 ca 30 41
       113.600105 254.59435 180.46852 11.049378
000080 71 36 25 43 2b 92 b5 42 4d 3a dd 42 8b 19 bd 42
       165.21266 90.785484 110.61387 94.54989
000090 13 1c 27 43 7e 90 c6 40 44 bf 93 42 e5 22 02 43
       167.10966 6.205138 73.873566 130.1363
0000a0 a4 e6 ec 42 31 32 f8 42 50 32 70 42 59 7a 07 43
       118.45047 124.09803 60.049133 135.47792
0000b0 85 8a 02 43 21 e2 cd 42 84 b0 04 43 ab 4e 18 42
       130.54109 102.94166 132.68951 38.076824
0000c0 ea 9a 2f 42 38 64 23 42 d0 e8 16 42 94 14 6c 43
       43.901283 40.84787 37.727356 236.08038
0000d0 3c c7 af 42 e8 b4 57 42 94 01 49 43 6c e2 14 42
       87.88913 53.926666 201.00616 37.221115
0000e0 c2 08 dd 43 f5 9a a8 42 b5 1e d3 41 40 7c 8a 42
       442.06842 84.30265 26.389994 69.242676
0000f0 0b c4 e6 41 6c 94 5f 42 b3 a0 9e 43 78 9c 97 42
       28.845724 55.894943 317.25546 75.8056
000100 18 11 92 42 b2 af ed 41 86 55 80 42 06 30 8b 42
       73.03339 29.710789 64.16704 69.593796
000110 0c 80 9b 41 ef 93 8c 42 57 0f be 41 fe 8e 3e 42
       19.437523 70.28893 23.75749 47.63964
000120 4a e0 67 43 19 15 4d 42 3c 04 21 41 06 7f a0 43
       231.87613 51.270603 10.063534 320.99237
000130 12 cf e2 42 08 40 1e 43 86 e4 02 43 dd 50 07 44
       113.404434 158.25012 130.89267 541.2635
000140 d3 17 4c 42 b3 24 82 42 ff c9 b0 41 b0 be 2e 42
       51.023266 65.07168 22.09863 43.68622
000150 14 b7 e0 41 4b 38 0d 3e 4f 61 ae 42 54 87 8a 42
       28.089394 0.13791005 87.190056 69.26431
000160 51 0f f6 42 2d a2 7e 40 e7 11 01 42 6a 5e 8c 42
       123.029915 3.9786484 32.267483 70.1844
000170 7e f4 22 43 db a1 f8 42 5b 77 04 42 ff 1a 99 42
       162.95505 124.316124 33.116558 76.55273
000180 69 fb 57 42 80 93 b2 41 09 6b d9 42 04 59 7d 42
       53.995518 22.322021 108.70905 63.33693
000190 bd 73 be 42 3c 21 91 42 98 65 0f 43 b8 34 a3 41
       95.22605 72.56491 143.39685 20.400742
0001a0 47 93 50 42 8a 28 0e 42 ae dd 1a 43 6e e4 7b 43
       52.143826 35.53959 154.86594 251.8923
0001b0 fc 6d 22 43 86 73 05 43 4b 4f ee 42 9d fc 3e 43
       162.42963 133.45126 119.15487 190.98677
0001c0 7e 5e 18 42 85 af 30 42 45 b2 e9 42 9c 5b 4d 41
       38.092278 44.171406 116.84818 12.834866
0001d0 42 3f 08 43 1e 8d 9f 42 8a 02 60 42 6f f7 1a 42
       136.2471 79.77562 56.00248 38.741634
0001e0 d3 d2 c6 42 fb 21 b4 42 0a 2e d4 41 2d e0 36 42
       99.411766 90.06637 26.52248 45.71892
0001f0 55 4e 22 43 af 39 9a 42 3e 0a 0d 43 a3 ed dd 42
       162.30598 77.11266 141.04001 110.964134
000200 6a ee 11 42 5d 57 34 44 2d c8 ad 42 67 87 f5 41
       36.482826 721.36505 86.89097 30.691114
000210 f2 07 f6 42 1e b0 31 43 aa 9f d8 42 94 d5 24 42
       123.01552 177.68796 108.311844 41.208572
000220 2d dd 9c 42 be d9 e1 42 72 61 32 42 b6 d5 0a 42
       78.431984 112.92528 44.59516 34.708702
000230 7c 77 9e 42 2d 76 ba 42 20 5c 85 42 5d 26 d9 42
       79.23337 93.23081 66.67993 108.57493
000240 7f 33 5c 42 8f b9 c7 42 a4 e5 a3 40 5b b5 9f 42
       55.05029 99.86242 5.1217823 79.85421
000250 0e 87 b7 42 47 0b 9f 42 71 62 f7 41 bb e8 52 41
       91.76378 79.522026 30.923067 13.181819
000260 b1 4c 36 43 4b 3e 55 42 4d 60 87 41 16 69 b2 41
       182.29958 53.310833 16.922022 22.301311
000270 45 f0 7a 42 f2 1a b5 42 30 03 51 42 83 ff 42 43
       62.73464 90.55263 52.253113 194.9981
000280 f2 14 a7 42 c1 53 86 42 25 97 51 42 37 5e f8 42
       83.54091 67.16358 52.397602 124.18401
000290 04 73 ea 42 19 04 90 43 4d 2d 8d 42 d0 70 3a 42
       117.22464 288.032 70.58848 46.61017
0002a0 4b 28 de 42 25 eb e8 42 b5 45 c0 42 eb 7b 0f 43
       111.0787 116.45927 96.13615 143.48405
0002b0 5f c6 be 42 63 84 be 42 e6 63 c0 41 bf 5f cc 42
       95.38744 95.25857 24.048779 102.187004
0002c0 00 b0 84 42 31 e8 f8 42 a9 07 78 42 c8 5d cf 40
       66.34375 124.4535 62.00748 6.480198
0002d0 ae fa 5d 42 ab 20 1a 43 d1 fb d8 42 8f 27 95 42
       55.494804 154.12761 108.49183 74.57726
0002e0 44 3d 19 43 d6 f2 a9 42 06 c9 1b 42 6d 5f d8 42
       153.23932 84.97429 38.946312 108.18638
0002f0 2f f6 42 42 ac f3 e0 41 99 1d f1 41 eb 4d ac 42
       48.740414 28.11898 30.139452 86.15218
000300 8c cb 08 42 c4 58 b4 43 7b 14 6b 3f fd 93 5e 42
       34.198776 360.69348 0.91828126 55.64452
000310 bd 0f 17 42 20 a4 b7 42 4b 8d fa 42 28 db 81 41
       37.76537 91.82056 125.27596 16.23201
000320 a3 42 c9 42 bf d0 07 42 3a 39 fb 42 a1 1e c7 42
       100.63015 33.953854 125.61177 99.55982
000330 f0 73 b4 42 22 e2 a0 42 7c f8 3f 42 57 66 34 42
       90.22644 80.441666 47.99266 45.09994
000340 0d 3b c6 42 a8 bd aa 42 4e 08 54 42 8f ab 5e 42
       99.11533 85.37042 53.00811 55.667538
000350 d6 13 80 42 fb 22 48 42 ec ed 39 43 c0 a6 ed 42
       64.03874 50.03416 185.92938 118.82568
000360 95 4d 48 43 ff 0a 6d 42 4a cf 1d 42 2d 05 0b 43
       200.30305 59.26074 39.45243 139.02022
000370 73 58 3e 42 ac 2c dd 41 29 9d a2 42 b6 01 d8 42
       47.586376 27.646812 81.30695 108.00334
000380 eb f0 bf 42 7e 3e 85 42 fd 1d 0a 42 d2 47 bf 42
       95.97054 66.622055 34.529285 95.640274
000390 ee 4f 97 41 5c 69 80 43 8e 40 c5 42 36 a6 d4 43
       18.914028 256.82312 98.62608 425.29852
0003a0 ea 2e 0d 42 42 fc 88 3f 24 f4 74 42 78 41 87 41
       35.295815 1.0701983 61.23842 16.906967
0003b0 83 5a 66 42 89 aa 1a 3e a0 b9 40 42 1f 96 98 41
       57.58839 0.15104116 48.181274 19.073301
0003c0 b0 72 9a 42 69 f5 14 43 80 13 3e 43 e4 e1 6e 42
       77.224 148.95863 190.07617 59.720596
0003d0 78 ae 02 43 3e 1c a9 41 de 3a d9 42 46 25 04 43
       130.68152 21.13879 108.614975 132.1456
0003e0 03 31 0a 43 25 ee 8d 43 e5 68 89 42 da 8b 47 41
       138.19145 283.8605 68.70487 12.471643
0003f0 2f a6 66 42 92 46 91 42 3d e6 b8 42 31 17 cf 42
       57.66229 72.63783 92.449684 103.545296

fc2.weight f4 [300, 400]
000000 1e 79 89 3e 52 4d f0 be 28 4b 06 c0 2d 0b 7d bf
       0.26850218 -0.4693399 -2.0983372 -0.9884518
000010 4d 3a 65 bd 13 43 93 bf 1e d4 6f bf 18 7e bf 3f
       -0.055963803 -1.1504844 -0.9368304 1.4960356
000020 79 9c d9 3e 4b b3 a0 bb 6e 49 de bf cd 15 cd bf
       0.42502192 -0.004904186 -1.7366159 -1.6022278
000030 65 a7 c4 bf dd 06 a9 3f 8d 0b 2a 3f 51 c3 e8 bf
       -1.5363585 1.320522 0.66423875 -1.8184606
000040 25 17 c2 bb 82 0d 89 3f 9d 06 57 bf 7c ac bd 3d
       -0.005923169 1.0707247 -0.83994466 0.092614144
000050 68 5a ee bf 72 44 8f bf ba c3 97 3f 46 e9 3c be
       -1.862134 -1.1192763 1.1856606 -0.18448362
000060 1e f2 d2 3f aa 90 79 3f aa 0c b6 3f d5 b6 1d 3f
       1.6480138 0.97486365 1.4222615 0.61607105
000070 8e 5e 39 3f 36 5d 12 bf 0b ed ec 3e 20 8d ff be
       0.72409904 -0.5717348 0.462746 -0.49912357
000080 39 c7 79 bf 63 2a 3d 3d b9 ad d0 be 63 0b 2f ba
       -0.97569615 0.046183 -0.4075754 -0.0006677417
000090 39 a0 07 bf fc 21 c1 3f 6d b8 0b c0 90 f3 b8 3f
       -0.52978855 1.5088496 -2.1831315 1.4449329
0000a0 41 2d 10 bf fe f9 cd be 7c 5e 4b bf ac f6 86 bf
       -0.5631905 -0.4022979 -0.79441047 -1.0544028
0000b0 17 06 83 bf 3f b1 cd 3f b2 4d 16 3d 56 54 05 3e
       -1.0236233 1.6069716 0.03669519 0.13020453
0000c0 e4 53 27 be 45 da 90 3e 1c 48 1e 3f cb 55 85 3f
       -0.16340595 0.28291526 0.6182878 1.0416807
0000d0 34 2c 56 3e c0 ca 15 be 3e 03 e0 be ef e9 9d bf
       0.209153 -0.14628124 -0.43752474 -1.2337016
0000e0 f5 6b 94 bf a9 7c aa 3c d5 71 11 bf ca c6 aa be
       -1.1595446 0.020811396 -0.5681432 -0.3335479
0000f0 e0 13 01 c0 97 6f 1e bf c0 7d c8 be b4 ea 32 bf
       -2.016838 -0.6188902 -0.3915844 -0.6988938
000100 5b bc 1e 3f 4e 02 9b bf be 0f 97 bf 61 1d 96 bf
       0.6200616 -1.2110078 -1.1801679 -1.1727716
000110 40 72 6c 3f eb 16 11 bf 51 ab 92 be 45 23 47 bd
       0.9236183 -0.56675595 -0.2864633 -0.04861762
000120 7f 1e 92 3e 82 9d 9e bf 60 7e a5 3e 95 13 a3 bf
       0.28538892 -1.2391818 0.3232298 -1.2740351
000130 08 14 bd bf 73 01 82 3f 18 9e 8a 3f a2 9c 03 c0
       -1.4771738 1.0156692 1.0829496 -2.056435
000140 36 8a a6 be 7b 8b a6 3f 90 b4 b8 3e 71 3c 40 bf
       -0.32527322 1.3011316 0.36075258 -0.75092226
000150 71 f5 6e 3c 12 d7 3f 3b c7 95 54 bf 12 21 0c bf
       0.014584885 0.002927248 -0.8304104 -0.5473796
000160 dd 8a 0c 3f 68 b2 ca 3f 1a 71 94 3f 2f 44 6a bf
       0.5489939 1.5835695 1.1597016 -0.9151029
000170 8e d4 ce bf a0 20 de bf ec 71 9a 3e ec 77 76 3f
       -1.6158617 -1.7353706 0.3016504 0.96276736
000180 77 38 5c 3f b0 64 ec be 8e e7 dd be d0 84 f4 3e
       0.8602366 -0.46170568 -0.43340725 0.47757578
000190 53 b7 0b be 90 d5 a8 3e 2c 9b a9 be 2e b8 85 be
       -0.13644151 0.32975435 -0.331262 -0.2611708
0001a0 0f 86 4e 3f ca 02 25 be 21 8e 40 bf 74 67 95 bd
       0.8067331 -0.16114345 -0.7521687 -0.07295123
0001b0 db 77 fd 3e 30 b6 0e c0 1f 5a f5 be f4 d6 e9 3e
       0.49505505 -2.2298698 -0.4792032 0.4567181
0001c0 f0 53 5d bf 26 54 cf be 97 34 9b bf c7 4d bd 3e
       -0.86456203 -0.40493888 -1.2125424 0.36973402
0001d0 e4 91 19 3e ec a2 88 bd 64 fd 46 c0 6f ff 8c bf
       0.14997059 -0.066717 -3.1092157 -1.1015452
0001e0 89 d7 9e 3f 56 05 78 be ae 67 1c bf 2e ff 21 3f
       1.2409526 -0.24220785 -0.610957 0.6328
0001f0 c5 21 61 be c8 eb 08 40 1c b1 bc be e4 7c 88 bd
       -0.21985538 2.139391 -0.36853874 -0.06664446
000200 bc 0c af 3f 3c 78 b2 bf 53 46 74 3f 2e 3b 9a bf
       1.3675761 -1.3942943 0.95419806 -1.204931
000210 74 4f 63 bf c2 9b f0 3e 4d 27 5b 3f 1d 12 58 3f
       -0.8879311 0.46993834 0.85606843 0.8440264
000220 4e 30 74 3e 45 2f 89 bf 5d 1d e4 be 15 b0 ba 3e
       0.23846552 -1.071755 -0.44553652 0.36462465
000230 80 34 1d be 71 ac 94 3e a5 95 71 3f 9e 02 a5 bf
       -0.15352058 0.29037812 0.94368964 -1.2891424
000240 82 09 04 3f e0 62 4f 3f 0f 9c 85 3e 71 d7 39 bf
       0.5157701 0.81010246 0.26095626 -0.7259436
000250 16 75 68 be ea 5e 9f bf 09 f9 66 be 84 3b cf 3e
       -0.22700915 -1.245084 -0.22555937 0.40475094
000260 e7 ff fb bf 91 7e 2a bf a2 2d bd be 44 80 49 bd
       -1.968747 -0.66599375 -0.36948878 -0.04919459
000270 4e a0 9a bf 8e f1 86 3f f1 4a be 3d ff ce b7 be
       -1.2080171 1.0542467 0.09291638 -0.35900113
000280 ee 31 d8 bf 72 f4 1c 3f ed cf f3 3e 7c 32 99 3f
       -1.6890237 0.61310494 0.47619572 1.1968532
000290 bf 2f 16 3e 88 ad 91 bf 4e 77 dc be ad 6d 84 3e
       0.14666651 -1.1381083 -0.43059772 0.25864926
0002a0 bd 01 70 3f 60 0d a9 3d fe 26 ba 3e bb bf aa 3f
       0.9375265 0.08254504 0.36357874 1.3339761
0002b0 4a 41 43 3f 0d d6 f1 be aa 66 d4 bf f2 8d 09 3f
       0.762715 -0.4723362 -1.659383 0.53732216
0002c0 aa a8 19 bd a0 6d be 3f 94 23 3d 3e 64 28 85 3f
       -0.037514366 1.4877205 0.18470603 1.0402951
0002d0 b8 d5 31 3f c1 fa 66 bd 4a f5 4c 3e 46 8d 1d 3f
       0.69466734 -0.05639148 0.20015445 0.6154369
0002e0 88 ed d9 bd b4 4c 22 c0 b4 ea e4 3f a7 07 3d bf
       -0.106410086 -2.5359316 1.7884126 -0.738398
0002f0 fe 7b 49 bf e2 17 ab bf 65 14 13 3e 54 55 82 3f
       -0.7870482 -1.3366663 0.14363249 1.018229
000300 f9 99 e7 bf 19 a5 43 3f 07 99 3f bc d7 57 15 3d
       -1.8093864 0.76423794 -0.011694199 0.036460724
000310 77 10 83 3d 91 e4 ca 3f d1 47 9b 3f ec ce a9 3f
       0.06399625 1.5851003 1.2131292 1.3266273
000320 c9 f1 7b 3e e7 b9 c0 3f 0f 68 21 40 ce 60 4c 3f
       0.24603952 1.5056733 2.5219762 0.7983521
000330 59 34 ca 3f 60 51 06 3c d2 d1 9c bd a1 a1 44 3f
       1.5797225 0.008198112 -0.076572075 0.76809126
000340 98 9d 65 3f f1 37 1e c0 4d ee 4a bd 5b c1 17 be
       0.89693594 -2.4721644 -0.049543668 -0.14819853
000350 77 72 95 be c4 c2 73 3e 94 90 80 bf f2 6e 18 bf
       -0.29188892 0.23804766 -1.0044122 -0.5954429
000360 35 9c ce 3f fd 92 5c 3f 0f fb 71 3f 73 8b 27 3a
       1.6141421 0.86161786 0.9452371 0.0006391324
000370 74 04 82 3f 71 4a 32 3f 18 b1 f6 3e a3 89 2e 3e
       1.0157609 0.6964484 0.48181987 0.17044692
000380 66 e1 5d bf a5 83 b6 3f a0 3a 98 3f 69 b7 3e bc
       -0.86672056 1.4258925 1.1892891 -0.011640408
000390 31 3e 1e bf d9 9b 89 bf 90 f7 10 3e 6c c7 13 c0
       -0.61813647 -1.0750686 0.14156938 -2.3090467
0003a0 a9 07 5b 3e 82 9e 9c bb 2e fd b8 3e df 14 a1 3e
       0.21389641 -0.004779638 0.3613066 0.31461236
0003b0 8a 61 2a 3e ff 73 65 bc 5f c9 3b bf a2 27 e5 3f
       0.1663877 -0.014004706 -0.7335414 1.790272
0003c0 ee 62 db 3f 15 27 b8 bf 2a 8a a9 bd 60 8b 42 3e
       1.7139566 -1.4386927 -0.08278306 0.1899848
0003d0 c8 25 0b c0 b0 bd 85 bf f9 14 8c bf a0 8a 00 c0
       -2.174181 -1.0448513 -1.09439 -2.008461
0003e0 5f 5e 34 3f 5d af aa 3f 1c 7d ea 3f 93 0f 13 bf
       0.704565 1.3334767 1.831943 -0.5744564
0003f0 04 34 45 be 10 e9 85 3f 37 c2 b1 3e 02 3f aa 3c
       -0.19258124 1.046175 0.34718487 0.020781998
