p2_continuous-control/critic_ckpt.pth (torch_old, 549485 bytes, 9 tensors)

fcs1.weight f4 [400, 33]
0	0xc02e880a	-2.7270532
1	0x3f926ca4	1.1439404
2	0xbf1a2be4	-0.6022322
3	0xbf61cc0f	-0.88201994
4	0x3f2ec5e4	0.6827071
5	0xbf97a03e	-1.1845777
6	0x3ea747b3	0.3267189
7	0xbe13e9be	-0.14444634
8	0xc06327f4	-3.5493135
9	0x3fd77aff	1.683441
10	0x3d166a1f	0.0367223
11	0x3e0f1351	0.13972212
12	0xbe1f614a	-0.15564457
13	0x4022f712	2.54633
14	0x3fa916e7	1.3210114
15	0x3ff9fc09	1.953004
16	0x3eafc35f	0.34328744
17	0x3efe09f1	0.4961696
18	0x3f3e43b0	0.7432203
19	0x3ea586fa	0.3232954
20	0x3e72c701	0.23708726
21	0xbddeb3d8	-0.10874146
22	0xbdc4d0d5	-0.09610144
23	0xbdbfb345	-0.09360365
24	0x3eb1c50e	0.34720653
25	0xbe6d71d5	-0.23187955
26	0xbf31fb04	-0.69523644
27	0x3cee5f21	0.029098095
28	0xbf9b1d23	-1.2118267
29	0xbd17423d	-0.036928404
30	0xba8fc46c	-0.0010968572
31	0x3cc947ca	0.024570365
32	0xbfbee4c1	-1.491356
33	0xbf108f13	-0.56468314
34	0xbf92a53a	-1.1456673
35	0x3ec642b3	0.38722762
36	0x3e06ed56	0.13176474
37	0xbf10b559	-0.56526715
38	0xbfe39336	-1.77793
39	0xbf2bf065	-0.6716369
40	0x3f655c14	0.89593625
41	0x3fa466ba	1.284385
42	0xbf3f47cc	-0.7471893
43	0x3ec847bc	0.3911723
44	0xbe89da04	-0.26924145
45	0x3e8ddc55	0.27707162
46	0xbfa3680b	-1.2766126
47	0xbf88bc7b	-1.068252
48	0x3f530bed	0.8244007
49	0xbf9141e0	-1.1348228
50	0x3e0d3798	0.13790739
51	0x3fd90b10	1.6956501
52	0xc00e779e	-2.2260509
53	0x3e1ac6c1	0.15114881
54	0x3dffa130	0.12481916
55	0xbf837fd4	-1.0273385
56	0x3eeeca89	0.46638897
57	0x3f87c5d4	1.0607247
58	0x3f456c6c	0.77118564
59	0x3e95c8be	0.29254717
60	0xbce6eb56	-0.028188389
61	0xc02405a0	-2.5628433
62	0x3c598d24	0.013278279
63	0x3cd1f078	0.02562736
64	0xbb967070	-0.0045910403
65	0xc04a3694	-3.1595812
66	0x3fa1a05a	1.262706
67	0xbe75649c	-0.2396416
68	0xbf1b00b0	-0.60547924
69	0xbe603ead	-0.21898909
70	0xbfaf248a	-1.3683026
71	0x4035e5b9	2.8421462
72	0x4028b8fe	2.636291
73	0x3f1cf153	0.6130573
74	0x404014b1	3.001263
75	0x3f75938d	0.9592827
76	0xbec99b91	-0.393765
77	0xbf95c6e5	-1.1701323
78	0xbf27d116	-0.65553415
79	0xbea9493e	-0.33063692
80	0x4005097b	2.0787036
81	0xbd26bd37	-0.040707793
82	0x3fa4cfcc	1.2875915
83	0x3c685a31	0.01418166
84	0x3f3b5cb9	0.7318836
85	0x4015c0fa	2.3399034
86	0xbea5da17	-0.32392952
87	0x3f2dacda	0.67841876
88	0x3f423b9a	0.75872195
89	0xbfb636c6	-1.4235466
90	0xbf06ac7b	-0.52606934
91	0x3e3db39f	0.18525551
92	0x3f8fc1a1	1.1230966
93	0x3d1915d1	0.03737432
94	0x3fba4e23	1.4555095
95	0xbd09364c	-0.033499047
96	0xbc8ae5bd	-0.01695525
97	0xbbd401c0	-0.006469935
98	0x40898075	4.296931
99	0xbe9172ed	-0.28407994
100	0x3f23665e	0.63828075
101	0xbe2bd7f6	-0.16781601
102	0xc014fd3a	-2.3279557
103	0x3c962813	0.018329656
104	0xbfde45f8	-1.7365103
105	0xbfbe8b9b	-1.4886354
106	0xbe437013	-0.19085722
107	0xbfad2341	-1.3526384
108	0x3fbddf4f	1.4833773
109	0x3d9d7d6e	0.076899394
110	0xbddae202	-0.10687639
111	0xbe5ee155	-0.21765645
112	0xbf39e96c	-0.726218
113	0xbecfa3c1	-0.40554622
114	0xbe07cacd	-0.13260956
115	0xbe3735fa	-0.17891684
116	0x3d8881e6	0.06665401
117	0xbf95a89e	-1.1692083
118	0xbd89640f	-0.06708538
119	0x3e8b5462	0.27212816
120	0xbe478be0	-0.19486952
121	0xbeaa48e5	-0.3325874
122	0x3cc7f8f0	0.024410695
123	0x3ec83b17	0.39107582
124	0xbe2dda46	-0.16977796
125	0x3ff1f740	1.890358
126	0x3c8b099b	0.016972354
127	0xbf97f0c3	-1.187035
128	0xbcdc5f5d	-0.026900942
129	0x3cefe3f5	0.029283503
130	0xbca7922a	-0.020455439
131	0xc1307a2c	-11.029827
132	0xbd71b432	-0.05900974
133	0xbdb3b2ac	-0.08774313
134	0x3dbacb3b	0.091207944
135	0x3d9e8729	0.077406235
136	0xbd12650b	-0.035740893
137	0x3c57deab	0.013175647
138	0x3c963a08	0.018338218
139	0xbc2b4d47	-0.010455436
140	0xbd4c267c	-0.04984139
141	0x3cdb916a	0.026802737
142	0x3d69e69e	0.0571047
143	0xbbcaf299	-0.0061934707
144	0x3dab7ac9	0.08373029
145	0xbd99af58	-0.07504147
146	0xbdc28f61	-0.095000036
147	0x3e185656	0.14876685
148	0x3dd1c4aa	0.10242589
149	0x3c2ffe1f	0.0107417395
150	0xbd396284	-0.045259967
151	0xbd2d4b8c	-0.042308375
152	0x3d3a4100	0.045472145
153	0xbd300cc0	-0.04298091
154	0x3c34bbcc	0.011031102
155	0x3cd68261	0.026185216
156	0xba8cace4	-0.0010732678
157	0x3d4ad066	0.04951515
158	0x3d26aee3	0.04069413
159	0x3d1b596e	0.037927084
160	0x3d3a1b5c	0.04543625
161	0xbc794088	-0.015213139
162	0x3c7ffcf4	0.015624274
163	0xbce37717	-0.027766747
164	0x3ccd8e04	0.025092132
165	0x3db8cee5	0.09023837
166	0xbee0baa3	-0.43892393
167	0x3fa951f4	1.3228135
168	0x3fb89dbd	1.4423138
169	0xbf058bf3	-0.5216667
170	0xc0740ec8	-3.8134022
171	0x3f620153	0.8828327
172	0xbedd607b	-0.4323767
173	0xbb54ae28	-0.0032452438
174	0xbf84cb27	-1.0374497
175	0xbf207728	-0.6268182
176	0xbf52adf7	-0.822967
177	0xbe986ed4	-0.29772055
178	0x3fa1ad7a	1.2631066
179	0x3f6d50c8	0.9270139
180	0x3f19ddae	0.6010388
181	0xbfe9c502	-1.8263247
182	0x3f79168e	0.9730004
183	0xbda51a53	-0.080616616
184	0xbf07875f	-0.52940935
185	0x3f69a11c	0.9126146
186	0x3fd409f4	1.6565537
187	0x3e6978df	0.22800015
188	0xbf9db3b6	-1.2320468
189	0x3fe43520	1.7828712
190	0x3dd3303c	0.10311934
191	0x3ee5e4e2	0.44901186
192	0x3ba50fe5	0.005037295
193	0x3e6a0073	0.22851734
194	0xb9c1f100	-0.00036991388
195	0xbc0b501a	-0.008502984
196	0x3d2a4921	0.041573647
197	0x40391488	2.8918781
198	0xbf9e4505	-1.2364813
199	0x3f85c658	1.0451155
200	0xbebef8b2	-0.37299114
201	0xbfb4ce34	-1.4125428
202	0xbfaebb84	-1.3650975
203	0xbfa93d59	-1.3221847
204	0x3f3369ee	0.7008351
205	0x3dc3ac7f	0.095543854
206	0x3de9e213	0.11420073
207	0x3e9ef390	0.31045198
208	0x3ec52af5	0.38509336
209	0xba88c181	-0.0010433645
210	0xbd96cead	-0.07363639
211	0x3ecadd05	0.3962175
212	0x3e75915b	0.2398123
213	0x3f998c5d	1.199596
214	0x3f9cec5c	1.2259631
215	0xbf14264c	-0.57870936
216	0x3fb18bce	1.387079
217	0x3e80f1f4	0.25184596
218	0xbee5dad2	-0.4489351
219	0x3f1a6ad5	0.6031926
220	0x3d7cf3a8	0.061755806
221	0xbd983294	-0.07431522
222	0x3e80ea8e	0.2517895
223	0x3ec4b031	0.38415673
224	0x3fdad1ac	1.7095237
225	0x3bea4da4	0.0071503688
226	0xbd4119b8	-0.047143668
227	0x3c71f244	0.014767233
228	0xbd3c30bd	-0.045944918
229	0x3cdacf82	0.026710276
230	0xc0eef7b5	-7.4677377
231	0x3fd120d3	1.6338142
232	0xbe761cec	-0.2403447
233	0x3f84c6c4	1.0373158
234	0x3fc394ce	1.5279787
235	0xbf98799f	-1.1912116
236	0xbfbcbab7	-1.4744481
237	0x3cbb315c	0.022850685
238	0xbd8a6a50	-0.06758559
239	0xbf2b9907	-0.67030376
240	0x3fa0d216	1.2564113
241	0xbe33eeb2	-0.17571524
242	0x3d6dfe6a	0.058103956
243	0xbe904bc4	-0.28182805
244	0xc00f3ef5	-2.2382176
245	0x3ee5ade5	0.44859233
246	0xbf998c1d	-1.1995884
247	0xbe9427fd	-0.2893676
248	0x3e9ce493	0.30643138
249	0x3e07650a	0.13222137
250	0x3e7c889c	0.24661487
251	0xbdc73873	-0.09727564
252	0xbebd4540	-0.36966896
253	0xbeaf76ce	-0.34270328
254	0xbe6ee27d	-0.23328586
255	0xbda4a9d6	-0.08040206

fcs1.bias f4 [400]
0	0x3d47b385	0.048755188
1	0x3e1f0978	0.15530956
2	0x3dbbafa2	0.09164359
3	0x3cefe58e	0.029284265
4	0xbdf16463	-0.11786725
5	0x3dedeccc	0.11617431
6	0xb8466877	-4.730417e-05
7	0x3d6c5175	0.05769487
8	0xbdaad9f3	-0.08342352
9	0xbe144336	-0.14478764
10	0xbe1eab46	-0.15495023
11	0xbd5a8dee	-0.05335801
12	0xbe04753c	-0.12935346
13	0xbe1a86ef	-0.15090536
14	0x3e2fc885	0.17166336
15	0x3d8d579e	0.06901477
16	0xbcbd3728	-0.02309759
17	0xbe1f4001	-0.1555176
18	0xbdfccc18	-0.12343615
19	0xbe27c8a7	-0.16385137
20	0xbd31c95d	-0.043404926
21	0x3dfd8af3	0.12380018
22	0xbcc28d38	-0.023748979
23	0x3d1e95cc	0.038717076
24	0xbc5481cc	-0.012970399
25	0x3dd81cd2	0.10552372
26	0x3e2a7847	0.16647445
27	0xbd917286	-0.07101922
28	0xbe093686	-0.13399705
29	0x3dd0c658	0.10194081
30	0x3dec2977	0.11531346
31	0x3c639780	0.013891101
32	0xbd9fee16	-0.07809083
33	0xbd278465	-0.040897746
34	0x3dca444c	0.09876308
35	0x3d553416	0.052051626
36	0xbd770657	-0.06030878
37	0x3d48e385	0.049045105
38	0x3d5dccc8	0.054150373
39	0xbd4cb5bc	-0.049978003
40	0xbdcb3aca	-0.099233225
41	0x3d2f993b	0.04287074
42	0x3d2f3d60	0.04278314
43	0x3e2ce649	0.16884722
44	0xbcea715b	-0.028618505
45	0x3cd5f694	0.026118554
46	0x3d1e2db8	0.03861782
47	0x3da04a1d	0.07826636
48	0x3da6399d	0.081164576
49	0xbdf82444	-0.12116292
50	0x3e1751ca	0.14777294
51	0x3d0b8381	0.03406096
52	0x3e32696d	0.17423029
53	0xbe0931ec	-0.1339795
54	0x3e1ec000	0.1550293
55	0x3e02cf04	0.12774283
56	0xbd87eaeb	-0.06636604
57	0xbe24d1e2	-0.16095689
58	0x3ce771a8	0.028252438
59	0x3dd95df9	0.10613627
60	0xbdb5cd82	-0.08877088
61	0x3d93e35c	0.072211
62	0x3cded1a4	0.027199574
63	0x3e16d43e	0.14729401
64	0x3e2df429	0.16987671
65	0x3da24d87	0.079249434
66	0xbcf8f210	-0.030388862
67	0xbd6fd130	-0.058549106
68	0x3dfb011a	0.122560695
69	0xbdc0b688	-0.09409815
70	0xbd84c62e	-0.06483112
71	0xbdd00d93	-0.10158839
72	0xbe31852f	-0.17335962
73	0x3e205750	0.15658307
74	0x3de4c6c2	0.111707225
75	0x3d919eb2	0.07110347
76	0x3e03cc1e	0.12870833
77	0x3dfe0bf3	0.12404623
78	0x3df5f2dc	0.120092124
79	0xbde80f0c	-0.11330995
80	0x3de8e4e1	0.1137178
81	0xbc4b6a4c	-0.01241548
82	0x3e2b0fd3	0.16705255
83	0x3e1ceb88	0.15324223
84	0x3d1eb226	0.038744114
85	0xbdc01118	-0.093782604
86	0x3e27e2eb	0.16395156
87	0xbe308309	-0.17237486
88	0xbd980d9d	-0.074244715
89	0x3d54ed15	0.05198391
90	0x3ca3aa9a	0.01997881
91	0xbe06edcc	-0.1317665
92	0xbdd06447	-0.101753764
93	0x3d0c2e9d	0.03422414
94	0xbd095d3c	-0.03353618
95	0xbe0f6b6b	-0.1400582
96	0x3dc8a95e	0.09797929
97	0x3e03c211	0.12866999
98	0xbc8a79ef	-0.016903846
99	0x3db51088	0.08841044
100	0x3d13b41e	0.036060445
101	0x3dc650dd	0.09683392
102	0x3a6619e4	0.0008777662
103	0x3d5937df	0.0530318
104	0x3df808c5	0.12111048
105	0xbd5b4529	-0.053532753
106	0x3e00147c	0.12507814
107	0x3d475b3f	0.048671003
108	0xbe10484c	-0.14090079
109	0x3e0cfc12	0.13768032
110	0xbd8b6c6d	-0.0680779
111	0xbe2eabb3	-0.17057686
112	0xbd3373ac	-0.043811485
113	0xbe30b266	-0.17255554
114	0xbd4c62fa	-0.04989908
115	0xbd303bf5	-0.04302593
116	0xbe000f06	-0.12505731
117	0x3e117df7	0.14208208
118	0x3ddecba2	0.108786836
119	0x3dad4b47	0.08461624
120	0x3e23aeda	0.1598467
121	0xbd91de1c	-0.07122442
122	0x3d88ca5d	0.06679223
123	0x3e04c35c	0.12965149
124	0x3e0eb6ff	0.13936995
125	0x3d824cd4	0.0636231
126	0x3da358e9	0.07975943
127	0x3e212822	0.15737966
128	0x3e14b10a	0.1452066
129	0xbe0e205e	-0.13879535
130	0x3e126608	0.14296734
131	0xbd8b986d	-0.06816182
132	0x3de71cb9	0.11284775
133	0xbe2dabba	-0.1696004
134	0x3e1f0669	0.15529789
135	0x3e149840	0.14511204
136	0xbd4be68e	-0.04978042
137	0x3e22b129	0.15887894
138	0x3d0e4f23	0.03474344
139	0xbdeb239f	-0.114814036
140	0x3d8cefbd	0.06881664
141	0xbde13829	-0.1099704
142	0xbdbaa78a	-0.09113987
143	0x3e193af5	0.14963897
144	0x3ba32a22	0.004979388
145	0xbdc30f5f	-0.09524416
146	0xbe2a96ae	-0.16659042
147	0xbc156e52	-0.009120541
148	0x3ca09382	0.019601587
149	0xbcf7d18b	-0.030251285
150	0x3c011858	0.007879339
151	0x3e120906	0.14261255
152	0xbe22d1a8	-0.1590029
153	0x3d259379	0.040423844
154	0xbca4f42d	-0.020135963
155	0xbe1cbab5	-0.15305598
156	0xbe2d9c36	-0.16954121
157	0xbc0a1ebb	-0.008430178
158	0xbe2bf922	-0.16794255
159	0x3e30329f	0.1720681
160	0xbe1872b8	-0.14887512
161	0xbba6a620	-0.0050857216
162	0xbb876a3a	-0.0041325362
163	0xbdd003d0	-0.10156977
164	0x3e26aaef	0.16276143
165	0xbcd01a15	-0.025403062
166	0xbd8710cc	-0.065950006
167	0x3e0fed17	0.14055286
168	0x3d69098a	0.056893863
169	0xbd54eb52	-0.05198223
170	0xbe2cb563	-0.16866069
171	0xbd0809bf	-0.03321242
172	0xbd316e28	-0.043317944
173	0xbd439c1c	-0.0477563
174	0x3dd314da	0.103067115
175	0xbc55c8c8	-0.013048358
176	0x3d423b36	0.04741975
177	0x3e1239ab	0.14279811
178	0x3b38e1c7	0.0028210746
179	0x3e281ed2	0.16418007
180	0x3d969472	0.073525324
181	0xbe052825	-0.13003595
182	0x3db1e9ad	0.08687148
183	0xbd943aaf	-0.072377555
184	0x3e0ca149	0.137334
185	0x3d4bb737	0.049735274
186	0xbdd73cc1	-0.10509635
187	0xbdd71ce1	-0.10503555
188	0xbe309fd0	-0.17248464
189	0xbe2aa593	-0.16664724
190	0xbde1762b	-0.11008867
191	0x3d3572d9	0.04429898
192	0xbd4cb3cb	-0.04997615
193	0x3d07cf5b	0.033156734
194	0xbe184cd9	-0.14873065
195	0xba9655e3	-0.0011469688
196	0xbda90df7	-0.08254617
197	0x3d3a3379	0.045459244
198	0xbdf76148	-0.12079102
199	0x3daafc6a	0.083489254
200	0xbd948b93	-0.07253184
201	0x3c9d2e21	0.019187035
202	0xbd978b08	-0.07399565
203	0x3e177083	0.14789014
204	0x3c87fa23	0.016598767
205	0x3daf6fd0	0.085662484
206	0xbd8c827f	-0.06860828
207	0x3e0e9543	0.13924126
208	0xbd841b8b	-0.06450566
209	0x3de2ba4c	0.110706896
210	0x3e2aa8ae	0.16665909
211	0xbdb2cf13	-0.087309025
212	0x3d20fd76	0.03930422
213	0x3d0e00db	0.034668785
214	0xb97fa7ad	-0.00024381159
215	0x3d9acfad	0.07559142
216	0x3e1deafa	0.15421668
217	0xba95c270	-0.0011425745
218	0x3d2ec21d	0.04266559
219	0x3ddd7019	0.108123966
220	0xbe129b68	-0.14317095
221	0x3dd2e498	0.10297507
222	0x3bacbb85	0.0052713775
223	0xbe01b374	-0.12666112
224	0x3d92cd86	0.07168107
225	0xbda4207f	-0.08014011
226	0xbe03259a	-0.12807313
227	0xbd68b6d5	-0.056814987
228	0x3cb18d92	0.021673951
229	0x3dcdc010	0.10046399
230	0xbd9d829e	-0.07690929
231	0x3e1558ef	0.14584707
232	0xbdfe7d74	-0.12426272
233	0xbe025c4a	-0.12730518
234	0x3d8c9523	0.06864383
235	0x3e277484	0.16353041
236	0x3e0721fe	0.1319656
237	0x3e00914c	0.12555426
238	0x3c2e0c59	0.010623061
239	0xbd7f02ee	-0.062258653
240	0xbe04b37a	-0.1295909
241	0xbdfdc9c2	-0.12391998
242	0x3d5c8962	0.053841956
243	0xbc429817	-0.011877081
244	0xbce26f7f	-0.027641056
245	0xbd07aabd	-0.033121813
246	0xb9970322	-0.00028803298
247	0xbdd08b33	-0.101828
248	0xbd208128	-0.039185673
249	0x3e120926	0.14261302
250	0xbdbd2440	-0.0923543
251	0xbc5851d3	-0.013203102
252	0xbe0c9504	-0.1372872
253	0xbd8e6191	-0.06952203
254	0x3d71d4b5	0.059040744
255	0x3d99e87a	0.075150445

bn1.weight f4 [400]
0	0x3ed55ec4	0.41673863
1	0x3eed2b40	0.4632206
2	0x3f0f97d6	0.5609106
3	0x3efdaf30	0.4954772
4	0xbc2a8402	-0.01040745
5	0x3eecd3cc	0.46255338
6	0x3f0f7951	0.5604449
7	0x3f113c10	0.56732273
8	0x3e8a3415	0.2699286
9	0x3ec430e2	0.38318545
10	0x3ed9fd5c	0.4257611
11	0x3f1085d5	0.5645421
12	0x3efe9edb	0.49730572
13	0x3e0991e9	0.13434567
14	0x3f11529a	0.56766665
15	0x3e5e63fb	0.21717827
16	0x3ab958a6	0.0014140799
17	0x3f36b5a3	0.71370906
18	0x3ec47552	0.38370758
19	0x3ea1d099	0.3160446
20	0x3c844d22	0.016150061
21	0x3f15c0ad	0.58497125
22	0x3f07f521	0.5310841
23	0x3f1b83bb	0.6074788
24	0x3ec3f215	0.3827063
25	0x3ee7c977	0.45270893
26	0x3e62dcb8	0.2215451
27	0x3f20c218	0.62796164
28	0x3b40c1cd	0.002941239
29	0x3eed2d54	0.46323645
30	0x3eb315da	0.3497761
31	0x3eba440a	0.36380035
32	0x3e5ee220	0.21765947
33	0x3ec0a7df	0.37628075
34	0x3e814639	0.25248888
35	0x3ecf598c	0.40498006
36	0x3ea196c2	0.31560332
37	0x3eba8a0f	0.36433455
38	0x3ed3d751	0.4137521
39	0x3e74f688	0.23922169
40	0x3f30342e	0.6882962
41	0x3e8bcf68	0.27306676
42	0x3f044876	0.51673067
43	0x3f0bc603	0.54599017
44	0x3e980297	0.29689476
45	0x3ee69a33	0.4503952
46	0x3eb2fc69	0.349582
47	0x3f213ea2	0.62986195
48	0x3ed36f75	0.41295972
49	0x3eba8b86	0.36434573
50	0x3ec15c85	0.377659
51	0x3eee7240	0.4657154
52	0x3f5fd444	0.87433267
53	0x3ed8565c	0.42253387
54	0x3edf19a2	0.43574244
55	0x3e6212de	0.2207751
56	0x3e9dc431	0.30813745
57	0x3f56f7e6	0.83972013
58	0x3efca936	0.49347848
59	0x3e0d0961	0.13773109
60	0x3ef798c7	0.48358747
61	0x3e807c8d	0.25095025
62	0x3eefcb72	0.46834904
63	0x3f27f183	0.6560289
64	0x3e379619	0.17928351
65	0x3ec5b74e	0.38616413
66	0x3e85cc43	0.26132402
67	0x3f0367e7	0.5133042
68	0x3ed5286a	0.41632396
69	0x3e7ea487	0.2486745
70	0x3f15e41d	0.585512
71	0x3f16bde0	0.58883476
72	0x3ea83339	0.3285158
73	0x3f0d549c	0.5520723
74	0x3ee25164	0.4420272
75	0x3f07bbd5	0.53020984
76	0x3ec1a464	0.37820733
77	0x3ef80bc0	0.48446465
78	0x3f265dcf	0.6498689
79	0x3e81bf35	0.25341192
80	0x3d9d89cc	0.07692298
81	0x3f1eb6dc	0.6199777
82	0x3e953e46	0.29149073
83	0x3ec0730b	0.3758777
84	0x3ee9bf38	0.456537
85	0x380e6d0f	3.3957007e-05
86	0x3f04a595	0.5181516
87	0x3eead6a7	0.45866892
88	0x3f1970b0	0.5993757
89	0x3f1444c0	0.57917404
90	0x3e895913	0.2682577
91	0x3ea0c344	0.31398976
92	0x3f0e37b1	0.5555373
93	0x3f15d47f	0.5852737
94	0xbca02c6e	-0.019552436
95	0x3eaa9e9e	0.3332414
96	0x3e40ac1f	0.18815659
97	0x3e345754	0.17611438
98	0x3ec6c664	0.38823235
99	0x3ef7dce1	0.48410705
100	0x3e86faf4	0.26363337
101	0x3efc31d0	0.49256754
102	0x3e9b72e5	0.30361095
103	0x3ed2e83b	0.41192803
104	0x3ebb4333	0.36574706
105	0x3f25ac16	0.6471571
106	0x3f000a2c	0.5001552
107	0x3f0ba8ca	0.54554427
108	0x3ab719c7	0.0013969474
109	0x3f0c288f	0.5474939
110	0x3e93be47	0.28856108
111	0x3da59245	0.08084539
112	0x3f0ee768	0.5582185
113	0x3f25a6cf	0.64707655
114	0x3edf98fb	0.43671402
115	0x3ec94490	0.39310122
116	0x3f063f49	0.52440315
117	0x3f05a03f	0.5219764
118	0x3f01af37	0.5065798
119	0x3f36067c	0.71103644
120	0x3eec6bd6	0.46176022
121	0x3f015bce	0.5053071
122	0x3ecb3bda	0.396941
123	0x3e3d67c9	0.18496622
124	0x3ec8c9ac	0.39216363
125	0x3e42148d	0.18953152
126	0x3edf1634	0.43571627
127	0x3f268794	0.65050626
128	0x3f17f68f	0.59360594
129	0x3aface12	0.00191349
130	0x3e72f64c	0.23726767
131	0x3f015c85	0.505318
132	0x3ea11b60	0.31466198
133	0x3f10c402	0.56549084
134	0x3e8554a2	0.26041132
135	0x3f056295	0.5210355
136	0x3eba4085	0.3637735
137	0x3ef46c34	0.47738802
138	0x3f132e9f	0.57493013
139	0x3ef8dd72	0.4860645
140	0x3edb5680	0.42839432
141	0x3ed93930	0.42426443
142	0x3ef65048	0.48108125
143	0x3eb0e82f	0.34552142
144	0x3ed9909f	0.4249315
145	0x3e44de17	0.19225346
146	0x3ea72b4e	0.32650226
147	0x3ec41ffa	0.38305646
148	0x3ec4d288	0.38441873
149	0x3ee5ea16	0.44905156
150	0x3ecf50d5	0.40491357
151	0x3ed45c35	0.41476598
152	0xbc5f6460	-0.013634771
153	0x3edae72a	0.4275449
154	0x3f2232e0	0.6335888
155	0x3f2dd65b	0.67905205
156	0x3f07e81f	0.53088564
157	0x3e8f4b70	0.27987242
158	0x3e9f102f	0.31067035
159	0x3ebfa10a	0.3742755
160	0x3ef74315	0.48293367
161	0x3e164b7c	0.14677233
162	0x3e2d319d	0.16913457
163	0x3ed779da	0.42085153
164	0x3e864b32	0.26229244
165	0x3e51da7d	0.20493503
166	0x3ebc3a4b	0.36763224
167	0x3e40df9c	0.188353
168	0x3f054944	0.5206492
169	0x3e5f26e8	0.21792185
170	0x3edfc16c	0.43702257
171	0x3eadb882	0.3392983
172	0x3b422864	0.0029626125
173	0x3e907114	0.28211272
174	0x3f0f3036	0.5593294
175	0x3e984462	0.29739672
176	0x3ef31bda	0.47482187
177	0x3ddfbfea	0.109252766
178	0x3ee20dc6	0.44151133
179	0x3ea3eb83	0.3201562
180	0x3e9bb045	0.3040792
181	0x3ebf5045	0.37365928
182	0x3eb3ecc6	0.3514158
183	0x3f332504	0.69978356
184	0x3e156479	0.14589109
185	0x3ec74e6e	0.38927025
186	0x3f03a4b1	0.51423174
187	0x3edeb5db	0.4349812
188	0x3ed67795	0.4188811
189	0x3f00ff89	0.50389916
190	0x3f12cec7	0.5734677
191	0x3e90e031	0.28296044
192	0x3ece5ecc	0.403067
193	0x3e9fa90d	0.31183663
194	0x3ec181e7	0.3779442
195	0x3ededb88	0.43526864
196	0x3f067ed6	0.52537286
197	0x3e90b949	0.2826636
198	0x3e25a3bc	0.16175741
199	0x3e888eaa	0.26671344
200	0x3f0ac2d1	0.54203516
201	0x3ebd6b03	0.36995706
202	0x3f0800e9	0.5312639
203	0x3f0df7c5	0.5545619
204	0x3f08152d	0.5315731
205	0x3f5a95d5	0.85384876
206	0x3f1cc94e	0.61244667
207	0x3eddd296	0.43324727
208	0x3e816bcc	0.25277555
209	0x3ee1d931	0.44111016
210	0x3f175a08	0.5912175
211	0x3ea0bc1f	0.31393525
212	0x3f063f8f	0.5244073
213	0x3f01b0fe	0.50660694
214	0x3e0c8107	0.13721095
215	0x3ed096dc	0.40740097
216	0x3e42d355	0.1902593
217	0x3ec08f94	0.3760954
218	0x3eec437e	0.46145242
219	0x3f11310f	0.5671548
220	0x3ea0774e	0.31341022
221	0x3eacc597	0.337445
222	0x3e290dac	0.16509122
223	0x3eefcf48	0.4683783
224	0x3f027985	0.50966674
225	0x3f022eee	0.5085286
226	0x3ec160c4	0.3776914
227	0x3f093769	0.53600174
228	0x3ed70125	0.4199306
229	0x3ede998a	0.43476516
230	0x3ef4133a	0.4767092
231	0x3edaa19f	0.42701432
232	0x3f2b6945	0.66957504
233	0xbbb02e30	-0.0053765997
234	0x3e54038e	0.20704481
235	0x3edc4caf	0.43027255
236	0x3ea548b6	0.32282037
237	0x3b6286fc	0.003456532
238	0x3f06c4af	0.52643865
239	0x3f19aa95	0.6002591
240	0x3ed9a682	0.42509848
241	0xbbaddb68	-0.0053056963
242	0x3f0cce09	0.55001885
243	0x3eb8b3a4	0.36074555
244	0x3e8684df	0.26273248
245	0x3ee0dfa4	0.43920624
246	0x3ec3cdb5	0.3824288
247	0x3ee77363	0.4520522
248	0x3f0b3ff7	0.5439448
249	0x3e95a9b3	0.29231033
250	0x3e97e99e	0.29670423
251	0x3f231a94	0.6371243
252	0x3ef15476	0.4713475
253	0x3eac75d0	0.33683634
254	0x3f305b7f	0.6888961
255	0x3f079f56	0.529775

bn1.bias f4 [400]
0	0xbf586717	-0.845323
1	0xbf53d1b2	-0.82741845
2	0xbfad7ccd	-1.3553711
3	0xbf361714	-0.71128964
4	0xbd528c48	-0.051403314
5	0xbf26d604	-0.6517031
6	0xbecfdc3f	-0.40597722
7	0xbf898f57	-1.0746869
8	0xbf5d9ba4	-0.86565614
9	0xbf5fc56e	-0.8741063
10	0xbfa71f11	-1.3056356
11	0xbe89ca94	-0.26912367
12	0xbf1bf965	-0.6092742
13	0x3c158163	0.0091250865
14	0xbf3a094d	-0.7267044
15	0xbeb12468	-0.34598088
16	0xbc6131a7	-0.013744748
17	0xbf789d31	-0.97114855
18	0xbf0b5724	-0.5442984
19	0xbf8aa893	-1.0832695
20	0xbe5f1ccf	-0.21788333
21	0xbf7d9b76	-0.9906534
22	0xbf151667	-0.5823731
23	0xbf3db126	-0.7409843
24	0xbf3e5306	-0.74345434
25	0xbf368140	-0.7129097
26	0xbdf60bf8	-0.120140016
27	0xbf829ece	-1.0204713
28	0xbd44206c	-0.047882482
29	0xbf1c2bdd	-0.6100443
30	0xbf117891	-0.56824595
31	0xbf5b73f8	-0.8572383
32	0x3cc47eec	0.023986302
33	0xbf97264e	-1.1808565
34	0x3b495eed	0.0030726746
35	0xbfa32e59	-1.2748519
36	0xbf904446	-1.1270835
37	0xbf3614b5	-0.71125346
38	0xbf218311	-0.63090616
39	0xbecaf6ab	-0.39641318
40	0xbf6f99c8	-0.93594027
41	0xbe8a4f3a	-0.2701357
42	0xbf85b823	-1.0446819
43	0xbf8b474f	-1.0881137
44	0xbef2fcb3	-0.4745842
45	0xbf1ec5dd	-0.62020665
46	0xbf074b4d	-0.52849275
47	0xbf8cb1ef	-1.0991801
48	0xbebe53e6	-0.37173384
49	0xbef556bc	-0.47917736
50	0xbe401001	-0.18756105
51	0xbf51e89a	-0.81995547
52	0xbf9090a1	-1.1294137
53	0xbe620752	-0.22073105
54	0xbf768a7e	-0.9630507
55	0xbe3b113c	-0.18268293
56	0xbfe086f8	-1.7541189
57	0xbfd40045	-1.6562582
58	0xbf594b39	-0.84880406
59	0x3cdf9896	0.027294438
60	0xbf24f65b	-0.6443841
61	0xbf129695	-0.5726102
62	0xbf602dc4	-0.8756983
63	0xbf375509	-0.7161413
64	0xbe8baaca	-0.2727874
65	0xbf8614ea	-1.0475132
66	0xbeffd5e5	-0.49967876
67	0xbf027345	-0.5095714
68	0xbf3d1e0d	-0.7387398
69	0xbf9beb27	-1.2181138
70	0xbf606071	-0.8764716
71	0xbf132845	-0.5748332
72	0xbf1c2b90	-0.6100397
73	0xbf0c20cf	-0.5473756
74	0xbf27ea84	-0.6559222
75	0xbf16bb42	-0.5887948
76	0xbf5f305e	-0.8718318
77	0xbf170612	-0.5899364
78	0xbf3dd7cf	-0.7415742
79	0xbefcdab7	-0.49385616
80	0x3bb069ab	0.0053836904
81	0xbf8bc3da	-1.0919144
82	0xbebb6b3e	-0.36605257
83	0xbed4ed6b	-0.41587386
84	0xbefa46d0	-0.4888215
85	0xbbafcea8	-0.0053652115
86	0xbf987927	-1.1911973
87	0xbeb5a964	-0.35480797
88	0xbfa459ce	-1.2839906
89	0xbf647560	-0.892416
90	0xbf7613bb	-0.96123856
91	0xbeae1457	-0.33999893
92	0xbf585e9a	-0.8451935
93	0xbfc6a473	-1.5518936
94	0x3ecadc2d	0.39621106
95	0xbcb022f7	-0.021501048
96	0xbd56abee	-0.05241006
97	0xbe8b0019	-0.27148512
98	0xbf174b18	-0.5909896
99	0xbf480def	-0.7814626
100	0xbe1a1782	-0.1504803
101	0xbf8ac6a6	-1.0841873
102	0xbeb982f7	-0.3623273
103	0xbf0fd33b	-0.5618169
104	0xbf8e9d4c	-1.1141753
105	0xbf82af83	-1.0209812
106	0xbf95bff7	-1.1699208
107	0xbf77b6f5	-0.96763545
108	0xbdb3a9ab	-0.08772596
109	0xbf9acd2f	-1.2093867
110	0xbed604a7	-0.41800424
111	0xbf0b8d31	-0.54512316
112	0xbf40eee9	-0.7536455
113	0xbf7774e9	-0.96662766
114	0xbdd9b5e0	-0.10630393
115	0xbf306539	-0.68904454
116	0xbf9bd853	-1.2175392
117	0xbf5c999b	-0.86171883
118	0xbf833212	-1.0249655
119	0xbea08915	-0.31354585
120	0xbeff2b64	-0.49837792
121	0xbebcb149	-0.36854008
122	0xbdd5cdc1	-0.10439635
123	0xbe6f2dc0	-0.23357296
124	0xbf031c49	-0.51215035
125	0xbecab4e8	-0.39591146
126	0xbf3bfe75	-0.73435146
127	0xbf5ebc0c	-0.87005687
128	0xbf6f9fcb	-0.936032
129	0xbd78bd74	-0.06072755
130	0xbd819e5b	-0.06329032
131	0xbf4e0140	-0.8047066
132	0xbf83d5e2	-1.0299647
133	0xbfaeb0f9	-1.3647758
134	0xbe7f32ca	-0.24921718
135	0xbf91378d	-1.1345078
136	0xbf372f1c	-0.7155626
137	0xbf23ce6b	-0.63986844
138	0xbf131044	-0.57446694
139	0xbfb63a23	-1.4236492
140	0xbea4ed8d	-0.32212487
141	0xbe9b82b0	-0.30373144
142	0xbf492124	-0.78566194
143	0xbc8c9f04	-0.017165668
144	0xbf1f146f	-0.62140554
145	0xbc1acf14	-0.009448785
146	0xbea18fe3	-0.3155509
147	0xbf879ddf	-1.0595053
148	0xbf1f5dc4	-0.6225245
149	0xbf07c010	-0.5302744
150	0xbe66f866	-0.22555694
151	0xbf6bb7ae	-0.9207715
152	0xbe1e5861	-0.15463401
153	0xbf3999e7	-0.7250046
154	0xbf313e3b	-0.6923558
155	0xbe1aca73	-0.15116291
156	0xbf08fe4b	-0.5351302
157	0xbee57eb9	-0.44823244
158	0xbf2ccedc	-0.6750314
159	0xbf8ab84e	-1.0837495
160	0xbf134026	-0.5751976
161	0xbd04158a	-0.032247104
162	0xbea4fa53	-0.32222232
163	0xbf3356c6	-0.7005428
164	0xbe80e334	-0.25173342
165	0xbdfb1184	-0.122592
166	0x3d016cf5	0.03159805
167	0xbe2d3331	-0.16914059
168	0xbf977f68	-1.1835756
169	0xbeab29b4	-0.33430254
170	0xbe54e0e0	-0.20788908
171	0x3d8d4991	0.06898797
172	0xbd35cd13	-0.044385027
173	0x3cd0e96c	0.02550193
174	0xbf5e02ee	-0.8672322
175	0xbf04f3cb	-0.519345
176	0xbf3eb384	-0.7449267
177	0x3de6affc	0.11264035
178	0xbe9ebc27	-0.31002924
179	0xbe9a21ab	-0.30103812
180	0xbd8c5495	-0.0685207
181	0xbe9e0f33	-0.3087097
182	0xbeb2ef64	-0.34948266
183	0xbebb417b	-0.36573395
184	0xbe8c630c	-0.27419317
185	0xbf4831fb	-0.78201264
186	0xbf4ee713	-0.8082134
187	0xbf6f278a	-0.93419707
188	0xbeb0b6ae	-0.34514374
189	0xbf8d31c4	-1.1030812
190	0xbf65b080	-0.8972244
191	0xbeb6270d	-0.35576668
192	0xbf1fbcf7	-0.6239771
193	0xbebed1cd	-0.3726944
194	0xbf1e8347	-0.61919063
195	0xbe65fc75	-0.22459586
196	0xbfa659cc	-1.2996154
197	0xbede1ddf	-0.43382165
198	0xbe1111f0	-0.14166999
199	0xbd9608a5	-0.073258676
200	0xbf958c80	-1.1683502
201	0xbf3dbc5d	-0.74115545
202	0xbf8b207f	-1.0869292
203	0xbf265a71	-0.6498175
204	0xbf452099	-0.77002865
205	0xbfac9fb3	-1.3486236
206	0xbf38965b	-0.72104424
207	0xbf33f214	-0.70291257
208	0xbe168f94	-0.14703208
209	0xbf9b6a0e	-1.214174
210	0xbf529d68	-0.8227143
211	0xbee62835	-0.4495255
212	0xbf0932d3	-0.53593177
213	0xbec359ee	-0.38154548
214	0xbf0e489a	-0.5557953
215	0xbf1e6173	-0.61867446
216	0xbf427516	-0.7595991
217	0xbe9b215a	-0.30298883
218	0xbf9a319a	-1.2046387
219	0xbf825d79	-1.0184776
220	0xbebb564f	-0.36589286
221	0xbf1535d7	-0.5828528
222	0xbf93d634	-1.1549745
223	0xbf8c4f3e	-1.0961683
224	0xbf618429	-0.88092285
225	0xbf2856de	-0.6575755
226	0xbf963bc7	-1.1736993
227	0xbf221898	-0.6331878
228	0x3d48187a	0.048851468
229	0xbf5d5355	-0.8645528
230	0xbf2d3c5a	-0.67670214
231	0xbf22c89d	-0.6358736
232	0xbe4588f1	-0.1929052
233	0xbd9d836d	-0.07691083
234	0x3d9d2d3a	0.07674642
235	0xbf525685	-0.8216327
236	0xbf2aeaa1	-0.66764265
237	0xbd5d6aec	-0.054057047
238	0xbf36e5eb	-0.71444577
239	0xbf6fd2c1	-0.9368096
240	0xbec71c7c	-0.3888892
241	0x3ee4cd40	0.44687843
242	0xbf268c89	-0.6505819
243	0xbf092453	-0.5357105
244	0xbf187706	-0.59556615
245	0xbeffea9a	-0.49983674
246	0xbf6a37ae	-0.9149121
247	0xbef765ec	-0.48319948
248	0xbf7b95ce	-0.9827546
249	0xbec8a216	-0.39186162
250	0xbf1e6f21	-0.6188832
251	0xbf4f95a7	-0.81087726
252	0xbf8d64c0	-1.1046371
253	0xbfacb2e5	-1.3492094
254	0xbf65d1e2	-0.8977338
255	0xbefd2633	-0.49443206

bn1.running_mean f4 [400]
0	0xc0e4b6b6	-7.1473036
1	0x40a2904d	5.080115
2	0xc097246b	-4.7231956
3	0xc03759ba	-2.8648515
4	0x3ec49d97	0.38401482
5	0x3f937f96	1.1523311
6	0xc0982e14	-4.755625
7	0x3e924595	0.28568712
8	0xc08ff378	-4.4984703
9	0xbf8f3b8c	-1.1190047
10	0xc0d6a408	-6.7075233
11	0x3fbcaaa2	1.4739573
12	0xc01b0a45	-2.4225018
13	0xbe9a43cf	-0.3012986
14	0xc049d41b	-3.153571
15	0x3f923ff8	1.1425772
16	0x3cf99b23	0.030469483
17	0xbf2d67d4	-0.67736554
18	0xc160c583	-14.048221
19	0xbfcaae13	-1.5834373
20	0x3e018dc7	0.1265174
21	0xc0dbf0e6	-6.8731565
22	0xc076701d	-3.8505929
23	0xc02c260d	-2.6898224
24	0xc11baa71	-9.729112
25	0x4097e4fa	4.7467012
26	0xc040cc71	-3.012478
27	0xbe90a2a5	-0.28249088
28	0xbdc94cf5	-0.098291315
29	0x3e300a8e	0.17191526
30	0xc09c8afd	-4.8919663
31	0x40456acb	3.0846431
32	0x408db150	4.4278946
33	0x40242269	2.5646002
34	0x3f40d575	0.7532571
35	0xc14a04f2	-12.626207
36	0xc0c8341a	-6.25636
37	0x40e78652	7.2351465
38	0x4086ee3f	4.216583
39	0x406552f4	3.583188
40	0xbf00d6a5	-0.5032752
41	0xc03011bd	-2.7510827
42	0xc0702c44	-3.7527018
43	0x40ace80b	5.4033256
44	0xbff8394f	-1.9392489
45	0xc0a16318	-5.0433464
46	0xbf138712	-0.57627976
47	0xc0a3a6c3	-5.1141067
48	0xbfa1b30d	-1.2632767
49	0x4054c2c3	3.3243873
50	0xc04a8a6f	-3.1646993
51	0x4108f1a0	8.5589905
52	0xbe9c06bb	-0.30473885
53	0xbfa5b486	-1.2945716
54	0x410c740b	8.778331
55	0xc06370b8	-3.5537548
56	0xc109514c	-8.582348
57	0xbdbeeb17	-0.093221836
58	0xc0c144e1	-6.039658
59	0x40810652	4.0320215
60	0x3f931dc7	1.1493462
61	0x408a6a1e	4.3254538
62	0x3f8c8244	1.0977254
63	0x3f86fba0	1.054554
64	0x408d1a06	4.4094267
65	0xc09f4b19	-4.977917
66	0xc09eca51	-4.962197
67	0x3defdecc	0.11712417
68	0xc0d75760	-6.729416
69	0xbfe4d6f8	-1.7878103
70	0xc0262280	-2.5958557
71	0x3f384dfc	0.71993995
72	0xc047d4de	-3.1223674
73	0x3e23a0ae	0.15979263
74	0x40b12ce8	5.5367317
75	0x3e423aed	0.18967791
76	0xc06d1182	-3.7041936
77	0xbe7c1a96	-0.24619517
78	0xbf7f2b94	-0.9967587
79	0xc03e770e	-2.9760165
80	0x400c7b0b	2.19501
81	0xc0942ce9	-4.630482
82	0xbf2378e0	-0.63856316
83	0x40196b97	2.3971918
84	0xbfae496e	-1.3616159
85	0x3dfab3d5	0.122413315
86	0xc10574e2	-8.341036
87	0xc00a1e48	-2.1580982
88	0xc0cb2960	-6.3488007
89	0xbfb7d3ce	-1.4361513
90	0xc0ae0859	-5.438519
91	0x3fc3d7e9	1.5300266
92	0x3e199480	0.14998055
93	0xc14b4164	-12.7034645
94	0x40a25ba5	5.073687
95	0x405728ca	3.3618646
96	0x402fc7da	2.746573
97	0xbede60a3	-0.43433103
98	0xbfbf34c4	-1.4937978
99	0x406f9b83	3.7438667
100	0x4029a297	2.6505487
101	0xc008272c	-2.1273909
102	0xbf5d0657	-0.863378
103	0xc08a68c9	-4.325291
104	0x40c6a53e	6.207671
105	0xc0263346	-2.5968795
106	0xbea20022	-0.31640726
107	0x3fa9b247	1.3257531
108	0xbe4607eb	-0.19338958
109	0xc0ee349e	-7.443923
110	0xc083c093	-4.1172576
111	0xc09f28a1	-4.9737096
112	0xc0255fd1	-2.5839732
113	0x407c581a	3.9428773
114	0x400bf9d0	2.1871223
115	0xc0a3cd6e	-5.118827
116	0xc0b7cd70	-5.743828
117	0xc100e056	-8.0547695
118	0xc1339300	-11.223389
119	0x3f58af5b	0.8464257
120	0xbf284bfe	-0.65740955
121	0xbfeaf20d	-1.8355118
122	0xbf385fc9	-0.72021157
123	0xc06f809e	-3.7422252
124	0xc0914260	-4.5393524
125	0xc0408c7e	-3.008575
126	0x3fafa773	1.3722976
127	0x3fa90147	1.3203515
128	0xc0c64ef1	-6.1971364
129	0xbee5cfa1	-0.4488497
130	0xc03fa8c5	-2.9946759
131	0xc0f7fe14	-7.7497654
132	0xc0f3147e	-7.5962515
133	0xbf909566	-1.1295593
134	0x3e8d9bb2	0.2765785
135	0xc12e0a5e	-10.877531
136	0xc0b8b345	-5.7718835
137	0x40806d62	4.0133524
138	0xbfe255c7	-1.7682427
139	0xc0b37fe1	-5.60936
140	0xc020de47	-2.5135667
141	0x3dcf251b	0.10114499
142	0xc020bebb	-2.5116413
143	0x403155da	2.770865
144	0xc01e922f	-2.4776723
145	0x3e294631	0.16530682
146	0x4085aa32	4.177026
147	0x3f132054	0.57471204
148	0xbf904b81	-1.1273042
149	0xc081f3b0	-4.060997
150	0x3f938dea	1.1527684
151	0xc102e499	-8.18081
152	0xbe43e696	-0.1913093
153	0xc0b0d1ff	-5.5256343
154	0xbf1b2f16	-0.6061872
155	0x3d6638e1	0.056206588
156	0xc035d918	-2.8413754
157	0x403aeef4	2.9208345
158	0xbff6655c	-1.9249682
159	0x3feb50ae	1.8383996
160	0xbff236cf	-1.8922976
161	0x4053eaee	3.311214
162	0x3fcaf67a	1.5856469
163	0xc01debc1	-2.4675143
164	0xc05d4c11	-3.4577677
165	0xbff4608d	-1.9091965
166	0xbfb49fec	-1.4111304
167	0xc02edbeb	-2.7321727
168	0xc18566aa	-16.675129
169	0xc053e08b	-3.31058
170	0xbf9ad0c9	-1.2094966
171	0x404ba348	3.181841
172	0xbeb3eba6	-0.35140723
173	0xbfd9aaeb	-1.7005285
174	0xc01589a8	-2.3365269
175	0x40f93f66	7.788989
176	0xc03b246d	-2.9240983
177	0x40af07ff	5.469726
178	0x40c5c908	6.18079
179	0x3fbdeb90	1.4837513
180	0xbf003d95	-0.50093967
181	0xc0f5ce61	-7.6814427
182	0xc0733b65	-3.8005002
183	0x3f3f4fc2	0.74731076
184	0xc0f570ef	-7.670036
185	0xc0c878ff	-6.26477
186	0xbffa038e	-1.9532335
187	0xc04c8c5f	-3.1960676
188	0x4020eb4c	2.5143614
189	0xc09e949f	-4.955642
190	0xc0b791af	-5.7365336
191	0x4061f4ef	3.5305746
192	0xc08d50f3	-4.4161315
193	0x3ec66801	0.38751224
194	0x4081e537	4.0592303
195	0xbf9f65dc	-1.245296
196	0xc0e8e331	-7.2777333
197	0x40d2ebcb	6.5912833
198	0x3f3b1142	0.7307321
199	0x3f328245	0.69730026
200	0xc1011390	-8.067276
201	0xc0b2bdd9	-5.585675
202	0x40deaa5f	6.9582973
203	0xbe7db261	-0.24775077
204	0xc057f428	-3.374277
205	0xc03f29f3	-2.9869354
206	0xc0a3f67b	-5.123838
207	0xc0f9ad28	-7.802387
208	0x406cd5fa	3.70056
209	0x40b9c9d2	5.8058863
210	0x40e4827a	7.1409273
211	0x3ff37246	1.9019248
212	0x40bae84b	5.840856
213	0xbff8ba5f	-1.9431876
214	0xbf9b6eee	-1.2143228
215	0xc0ccbde1	-6.3981786
216	0xc099f2c6	-4.8108854
217	0x3f8f0477	1.1173238
218	0x413ce84a	11.806711
219	0xc0704c91	-3.7546732
220	0xc0ad8900	-5.4229736
221	0xc0e55830	-7.167015
222	0xc147d53c	-12.489559
223	0x3f5afd3e	0.85542667
224	0xbdb133ce	-0.08652459
225	0xc01637f9	-2.3471663
226	0xc16a9025	-14.660192
227	0x3fe3efb6	1.7807529
228	0x3fea5750	1.8307896
229	0xc0bd3321	-5.9124913
230	0xbfb1a2d9	-1.3877822
231	0x40c80122	6.2501383
232	0xbfdb3825	-1.7126509
233	0xbe80e30b	-0.2517322
234	0x411445f2	9.2670765
235	0xc0540d4a	-3.313311
236	0x4086183f	4.1904597
237	0xbc8d7002	-0.017265324
238	0xbee772cd	-0.45204774
239	0x400204a1	2.0315325
240	0x408a5ddc	4.3239574
241	0x407e4b06	3.973329
242	0x401d3f74	2.4569979
243	0xbf0279e2	-0.5096723
244	0xc10c45b3	-8.767016
245	0x3f8000c6	1.0000236
246	0xc0cb9ecd	-6.363135
247	0xbf3e75bc	-0.743984
248	0xc08bc67f	-4.3679805
249	0xc0678537	-3.6175058
250	0xbf28a342	-0.6587411
251	0x3f742789	0.95372826
252	0xc0d7ab6b	-6.739675
253	0xc0205e50	-2.5057564
254	0xbfb393e7	-1.4029511
255	0xc0b71a83	-5.7219863

bn1.running_var f4 [400]
0	0x41abb2ee	21.462368
1	0x431d5846	157.34482
2	0x431b6751	155.40358
3	0x4318dd28	152.86389
4	0x3fb9b346	1.4507835
5	0x431ae0f9	154.8788
6	0x4300a0d7	128.62828
7	0x422af424	42.73842
8	0x42a5d9d3	82.92544
9	0x424d824e	51.37725
10	0x43626b26	226.41855
11	0x42b230d1	89.095345
12	0x433ee6b0	190.90112
13	0x41bb861e	23.440487
14	0x42308159	44.126316
15	0x422b347f	42.801266
16	0x3e2639e8	0.16233027
17	0x43186a98	152.41638
18	0x42a8af8e	84.34288
19	0x4326c7db	166.78069
20	0x40d42154	6.6290684
21	0x42c21796	97.04607
22	0x42d15b22	104.67799
23	0x426c0a65	59.01015
24	0x42c06f98	96.21796
25	0x43160a53	150.04033
26	0x422922a3	42.283825
27	0x418ffd38	17.998642
28	0x3e0967e3	0.13418536
29	0x4279dffb	62.46873
30	0x42376491	45.84821
31	0x430d5a69	141.35316
32	0x42b289c9	89.26911
33	0x422fcae8	43.94815
34	0x41a8dace	21.106838
35	0x42953a45	74.61381
36	0x438fc9ed	287.57755
37	0x42f9ac7c	124.83688
38	0x433163a6	177.38925
39	0x422485d3	41.130688
40	0x4225d884	41.46144
41	0x41958240	18.688599
42	0x426620e8	57.532135
43	0x42ad18ea	86.54866
44	0x424e93b9	51.64426
45	0x425d3bc5	55.30837
46	0x4292a272	73.317276
47	0x42acd9e2	86.42555
48	0x417fc0e3	15.9845915
49	0x42985786	76.170944
50	0x428eaa7e	71.33299
51	0x4228366b	42.053143
52	0x42998a69	76.77033
53	0x43a705a5	334.0441
54	0x4218ce68	38.20157
55	0x413e25ca	11.884226
56	0x42a32f79	81.59272
57	0x42d85a32	108.17616
58	0x428e57a3	71.171165
59	0x41ab3db6	21.405132
60	0x42e45946	114.17436
61	0x424028fd	48.040028
62	0x42f03d3d	120.119606
63	0x4255f214	53.486404
64	0x42d5b8c4	106.86087
65	0x4220302a	40.047035
66	0x4232b683	44.678234
67	0x42edfb7f	118.9912
68	0x41e12428	28.142654
69	0x42dfb26c	111.84848
70	0x42815d31	64.682014
71	0x437ebb38	254.73132
72	0x428cbc17	70.36736
73	0x42cbe117	101.93963
74	0x4308097c	136.03705
75	0x4193c05a	18.468922
76	0x41cc63ec	25.54879
77	0x41a7d6db	20.97991
78	0x42c990a7	100.782524
79	0x42603403	56.050793
80	0x41f36bf3	30.42771
81	0x429c3a8c	78.11435
82	0x4280d5b2	64.41737
83	0x41b2d229	22.352617
84	0x418bcba4	17.474434
85	0x3d73b6ff	0.05950069
86	0x42d8ac72	108.33681
87	0x433dd8e3	189.84721
88	0x430e79b4	142.4754
89	0x42a2e8f4	81.45499
90	0x4293c0cf	73.87658
91	0x42273951	41.805973
92	0x422e7d20	43.622192
93	0x42aa1f87	85.06158
94	0x434edf65	206.87263
95	0x4299fcb5	76.99357
96	0x42f2c46b	121.38363
97	0x42afc113	87.8771
98	0x43475ba0	199.35791
99	0x430d5fd6	141.37436
100	0x429d2849	78.57868
101	0x41ce6cff	25.80322
102	0x41d7893e	26.942013
103	0x42d6be23	107.37136
104	0x421707dd	37.75768
105	0x4241080a	48.25785
106	0x42df9b7a	111.803665
107	0x423ce325	47.22182
108	0x3f5a1031	0.85180956
109	0x4294c2ef	74.38073
110	0x434193cb	193.57732
111	0x42941759	74.0456
112	0x427fecc3	63.981213
113	0x426a3da8	58.56021
114	0x425846f3	54.069286
115	0x4311b572	145.70877
116	0x420615b8	33.52121
117	0x428a4316	69.13103
118	0x42e7fc0d	115.99229
119	0x42dcb7e9	110.3592
120	0x41418d5b	12.097011
121	0x42c7f419	99.97675
122	0x41f17e10	30.186554
123	0x42f998e7	124.79864
124	0x41e17784	28.183357
125	0x41fe693d	31.801386
126	0x42a156e1	80.669685
127	0x43100a04	144.03912
128	0x42f9cb31	124.89686
129	0x3da06c08	0.07833105
130	0x42cd8d23	102.77566
131	0x4248c4f0	50.19232
132	0x42d90609	108.51179
133	0x42f61823	123.04714
134	0x431a8164	154.50543
135	0x4379546d	249.32979
136	0x41f53f37	30.655867
137	0x425f605f	55.844112
138	0x419f358c	19.901146
139	0x42fbc341	125.881355
140	0x428fcfea	71.90608
141	0x40897920	4.296036
142	0x42deae4d	111.34043
143	0x423bfd87	46.997585
144	0x41d46f63	26.554388
145	0x42cadaec	101.42758
146	0x4183559e	16.416805
147	0x434194c5	193.58113
148	0x4231918b	44.39213
149	0x42bdf013	94.968895
150	0x424babc2	50.917732
151	0x420d6094	35.344315
152	0x3f87da01	1.0613405
153	0x4367499e	231.28757
154	0x42453e64	49.31093
155	0x42e2a1f0	113.316284
156	0x419db869	19.715044
157	0x4238131c	46.01866
158	0x41337408	11.215828
159	0x428db261	70.8484
160	0x41efb455	29.963053
161	0x4246d726	49.710106
162	0x42999a57	76.801445
163	0x428b7250	69.72327
164	0x42ed6089	118.688545
165	0x4211b9ce	36.43145
166	0x42a90213	84.50405
167	0x42423c4e	48.55889
168	0x4252d0ac	52.70378
169	0x42c474c7	98.22808
170	0x422210b5	40.516315
171	0x41d71589	26.885515
172	0x3e6fe323	0.2342649
173	0x42535ca4	52.84047
174	0x429dad95	78.83903
175	0x426f4bac	59.8239
176	0x42f31bef	121.55456
177	0x42186896	38.102135
178	0x431fc80d	159.78145
179	0x43a3eaba	327.8338
180	0x431144b0	145.26831
181	0x4305a000	133.625
182	0x420b04e2	34.75477
183	0x430b647a	139.39249
184	0x430679bf	134.47557
185	0x4211cd3c	36.450424
186	0x42497b40	50.37036
187	0x430b7719	139.46523
188	0x420042f1	32.065372
189	0x424fe1a3	51.97035
190	0x4226038f	41.503475
191	0x4297f251	75.973274
192	0x42d323a9	105.56965
193	0x429c822f	78.254265
194	0x4286e941	67.455574
195	0x4142a35d	12.164884
196	0x4308d724	136.8404
197	0x42677acb	57.869915
198	0x41f93b3f	31.153929
199	0x4301aafc	129.66791
200	0x42d59b64	106.8035
201	0x42858988	66.768616
202	0x42a593ed	82.78892
203	0x432b80cb	171.5031
204	0x427bfc4f	62.996395
205	0x42f53507	122.60357
206	0x42c71edf	99.560295
207	0x42935832	73.67226
208	0x420ae147	34.719997
209	0x430ad1a3	138.8189
210	0x43231530	163.08276
211	0x41d7944f	26.947416
212	0x428bc530	69.88513
213	0x4148bbf7	12.54589
214	0x42c78f2a	99.77962
215	0x42804d98	64.15155
216	0x43159e6c	149.61884
217	0x43154721	149.27785
218	0x4317bff7	151.74986
219	0x4282ed5a	65.46358
220	0x42ff826b	127.75472
221	0x425240e2	52.563362
222	0x428697e9	67.2967
223	0x430efbcc	142.98358
224	0x4298075b	76.014366
225	0x4286a31f	67.318596
226	0x422a4c24	42.574356
227	0x4182da21	16.356508
228	0x42df5582	111.66701
229	0x42f7b108	123.845764
230	0x428d30c8	70.595276
231	0x42afdf04	87.93558
232	0x43218f9d	161.56099
233	0x3dd5cc60	0.10439372
234	0x421c7fd0	39.124817
235	0x428073ec	64.22641
236	0x42898c5c	68.77414
237	0x3e3df34e	0.18549845
238	0x4305ad95	133.67805
239	0x42af8f95	87.78043
240	0x4342deef	194.87083
241	0x43ad5c63	346.72177
242	0x42808bf6	64.27336
243	0x41fd7f3e	31.68713
244	0x42d3991f	105.799065
245	0x43454c13	197.29716
246	0x418490f6	16.570782
247	0x416d2827	14.822303
248	0x41e0ba89	28.091082
249	0x42a9c477	84.88372
250	0x42eefcb0	119.49353
251	0x417af6e9	15.685281
252	0x4289948f	68.79015
253	0x42fb6d3b	125.71334
254	0x4267dc9c	57.96544
255	0x422a6357	42.59701

fc2.weight f4 [300, 404]
0	0xbdb024bc	-0.086007565
1	0xbd5ae2d3	-0.053438973
2	0xbbe68e7a	-0.0070360275
3	0xbc6272ea	-0.013821343
4	0xbccaac91	-0.02474049
5	0xbb574745	-0.0032848876
6	0x3c4977b2	0.012296604
7	0x3ce95cdd	0.028486663
8	0xba48df84	-0.0007662701
9	0xbc95a7a1	-0.018268408
10	0xbd8e762f	-0.069561355
11	0xbd129a68	-0.035791785
12	0xbd9a0fe5	-0.07522563
13	0xbcc6ae3c	-0.024253003
14	0x3c38c9ea	0.011278609
15	0xbae4bbdd	-0.0017451007
16	0x3d08d5d3	0.033407044
17	0xbbb5808e	-0.0055390066
18	0xbcf2ece3	-0.029653972
19	0x3cffc0a4	0.031219788
20	0x3d4db1bc	0.05021833
21	0xbd9457a9	-0.07243282
22	0xbdc4ab40	-0.09602976
23	0xbc97931e	-0.018502768
24	0xbd76bd6d	-0.060239244
25	0xbd6058e6	-0.05477228
26	0xbd7d97b5	-0.061912257
27	0x3c92c839	0.01791774
28	0x3d152770	0.036414564
29	0x3bdcf55b	0.006743116
30	0xbd276f4f	-0.040877637
31	0xbce9097c	-0.028446905
32	0xbd581980	-0.052758694
33	0x3d1e181a	0.038597204
34	0xbd550125	-0.052003045
35	0xbcc3b5fc	-0.023890488
36	0xbd8b302a	-0.06796296
37	0x3be07e30	0.00685098
38	0x3d09a4b1	0.033604328
39	0xbd9e9948	-0.0774408
40	0x3cf40b59	0.029790567
41	0xbd5a2a26	-0.053262852
42	0xbd8260f4	-0.063661486
43	0x3b321e0f	0.002717856
44	0xbd7effb4	-0.062255576
45	0xbcffb527	-0.03121431
46	0xbd2e623c	-0.042574152
47	0x3ce5b770	0.028041571
48	0xbd7f432d	-0.062319923
49	0x3ce320c2	0.027725581
50	0xbcbdba8d	-0.023160243
51	0xbd96f608	-0.073711455
52	0xbdb6e127	-0.08929663
53	0xbd382273	-0.04495473
54	0x3c6de0e7	0.014518953
55	0x3c7a14b6	0.015263727
56	0x3caa35c4	0.02077759
57	0xbd8b4371	-0.06799973
58	0xbc8db1ff	-0.01729679
59	0xbca469c6	-0.020069968
60	0xbc41df0f	-0.0118329665
61	0x3d0dd054	0.034622505
62	0xbc658c08	-0.014010437
63	0xbd82ce34	-0.063869864
64	0xbd090f0f	-0.033461627
65	0xbd368dae	-0.04456871
66	0xbd9f63b4	-0.07782689
67	0xbb4525f2	-0.0030082432
68	0xbd929484	-0.07157233
69	0xbcd4d069	-0.025978284
70	0x3d0dc44f	0.034611043
71	0xbc8f6be0	-0.017507493
72	0xbd8bb0e5	-0.06820849
73	0x3c5714d4	0.013127524
74	0xbcb96c3a	-0.022634614
75	0xbcf68e93	-0.030097282
76	0xbd3ba126	-0.04580798
77	0x3a39466a	0.00070676825
78	0xbc283f78	-0.010269038
79	0xbd2b6b4f	-0.041850384
80	0xbb813696	-0.0039432747
81	0xbc13c218	-0.0090184435
82	0xbc1997a2	-0.009374531
83	0x3d33b7bb	0.04387639
84	0xbd30d9bd	-0.0431764
85	0x3b34f51e	0.0027611922
86	0x3cf1f9ec	0.029538117
87	0x3c9ed076	0.019386511
88	0x3d1b7942	0.037957437
89	0x3ce6b3b4	0.028161861
90	0x3c88a3e4	0.016679712
91	0x3d1d1e6e	0.038359098
92	0xbad3909a	-0.0016141117
93	0xbda817af	-0.08207642
94	0x3af84780	0.0018942207
95	0x3c6dcd41	0.014514268
96	0xbd4fa689	-0.05069593
97	0xbcc7658e	-0.024340417
98	0x3d1ea3f9	0.038730595
99	0xbd32fe9f	-0.043699857
100	0xbc1e8aea	-0.009676674
101	0x3c639c03	0.013892177
102	0xbd62a137	-0.055329528
103	0xbc8f4b66	-0.017492007
104	0xbd19523f	-0.03743195
105	0xbd9adc1e	-0.07561515
106	0x3c84daac	0.016217552
107	0x3d01cf36	0.031691752
108	0x3bc234af	0.0059266905
109	0xbd729cfe	-0.05923175
110	0x3cbe9a17	0.023266835
111	0xbc6895c7	-0.014195866
112	0xbd832ee6	-0.064054295
113	0xbc712ba4	-0.014719877
114	0x3ae1c587	0.0017225005
115	0xbd3457e7	-0.044029143
116	0x39f57b60	0.00046821963
117	0xbd440e2b	-0.047865074
118	0x3d4b17d2	0.049583264
119	0xbcee30dc	-0.029076032
120	0xbcad5496	-0.021158498
121	0x3c3d6289	0.011559137
122	0xbd860a4a	-0.06544931
123	0xbd62022c	-0.055177853
124	0x3d174d76	0.036939107
125	0x3ccb80ac	0.024841629
126	0xbd2141ea	-0.0393695
127	0xbce98a4e	-0.028508332
128	0x3c410803	0.011781695
129	0xbca17a6e	-0.0197117
130	0x3c0fc777	0.0087755835
131	0xbc293499	-0.010327482
132	0xbd0710c9	-0.032974992
133	0xbd5d210c	-0.053986594
134	0x3d1d1bf2	0.03835673
135	0x3ca98874	0.020694949
136	0xbd3cd929	-0.046105538
137	0xbd2c3c48	-0.042049676
138	0x3cbc26d8	0.02296774
139	0x3c6ed878	0.014577977
140	0x3d231c1c	0.03982173
141	0x3b99c91f	0.004693165
142	0xbc144288	-0.009049065
143	0xbd805761	-0.06266666
144	0xbd0cc5a9	-0.03436819
145	0xbc71bb67	-0.014754153
146	0xbc54afc4	-0.012981359
147	0xbcda17f4	-0.02662275
148	0xbd8edd8b	-0.0697585
149	0xbd1a1556	-0.037618004
150	0xbca4a859	-0.020099806
151	0x3ca4d60e	0.0201216
152	0xbcae8f6d	-0.021308625
153	0x3d463d76	0.048398457
154	0xbc670121	-0.01409939
155	0xbb7f01d5	-0.0038911004
156	0xbb2c19de	-0.0026260535
157	0x3b12230b	0.002229872
158	0xbc94b74e	-0.018153813
159	0xbd64c6a1	-0.05585349
160	0xbd524864	-0.05133857
161	0xbd3cb30d	-0.046069194
162	0x3cfe73a6	0.031061005
163	0xbd99d867	-0.075119786
164	0x3d1b42be	0.037905447
165	0x3ce5583d	0.027996177
166	0xbd1895bd	-0.037252177
167	0xbce77823	-0.028255528
168	0xbd7905a1	-0.060796384
169	0x3a806081	0.0009794385
170	0xbda88ffc	-0.08230588
171	0xbc1a056f	-0.0094007095
172	0xbc0315ad	-0.008000773
173	0x3b88d8ae	0.004176221
174	0xbca1fa8c	-0.01977279
175	0xbd2a8976	-0.041635
176	0xbd31bb3d	-0.043391455
177	0x3cc9c00a	0.024627704
178	0x3a95be47	0.0011424505
179	0x3ca7455b	0.020418813
180	0xbb928676	-0.0044715954
181	0xbd71f210	-0.05906874
182	0xbd8871b6	-0.06662314
183	0xbda589ae	-0.08082901
184	0xbd9a31c0	-0.0752902
185	0xbd56c62d	-0.05243509
186	0xbd84cfe4	-0.064849645
187	0xbd31ee15	-0.043439943
188	0xbc4c721e	-0.0124783795
189	0xbc047319	-0.008084082
190	0x3d01d8a2	0.031700738
191	0xbd33c1b5	-0.043885905
192	0xbd462b8d	-0.048381377
193	0xbcfac6ce	-0.030612376
194	0xbd646dfc	-0.05576895
195	0x3cd9e2d8	0.026597425
196	0xbd360dcd	-0.044446755
197	0xbd9caaf1	-0.07649792
198	0x3cfb4561	0.03067273
199	0xbc1fcaee	-0.009752972
200	0xbdac6244	-0.0841718
201	0xbce6099b	-0.028080752
202	0xbd8179c6	-0.063220546
203	0xbc065233	-0.008198309
204	0xbcb12294	-0.021622933
205	0x38fddab8	0.0001210472
206	0xbd7758e1	-0.060387496
207	0xba6c7c08	-0.00090211676
208	0xbca5e5ea	-0.020251233
209	0xbcb2af4f	-0.02181211
210	0x3d41a350	0.047274888
211	0xbd38fa7d	-0.04516076
212	0xbcd3ef93	-0.025871074
213	0xbd07a54c	-0.033116624
214	0xbd5ead0d	-0.054364253
215	0x3d07230c	0.032992408
216	0x3ce6ef14	0.028190173
217	0xbd9f2dae	-0.077723846
218	0xbd4ffa0f	-0.050775584
219	0xbd1ebfb7	-0.038757052
220	0x3d2a25a6	0.04153981
221	0xbcc5ec4b	-0.024160525
222	0x3d173065	0.036911387
223	0x3c60f90e	0.013731254
224	0x3af89c88	0.0018967548
225	0x3b3f5cb9	0.0029199554
226	0x3a440532	0.0007477581
227	0xbccd49f4	-0.025059678
228	0xbda4c989	-0.08046252
229	0xbcffeefa	-0.031241883
230	0x3ca8f7bb	0.02062594
231	0xbd615e60	-0.055021644
232	0x3c2908b3	0.010317015
233	0xbb52ff17	-0.0032195502
234	0x3ca243e8	0.01980777
235	0xbd491f16	-0.04910191
236	0xbd1aa91c	-0.03775893
237	0x3bd8356b	0.006598165
238	0xbca74fb2	-0.020423744
239	0xbd8343e8	-0.064094365
240	0xbce7c6a7	-0.028292967
241	0xb976f6ca	-0.00023552324
242	0xbc89313d	-0.016747111
243	0xbc4e5b74	-0.012595046
244	0x39285491	0.00016053232
245	0xbd61f42c	-0.0551645
246	0xbc231510	-0.009953752
247	0x3c744c26	0.014910733
248	0x3cc54a87	0.024083389
249	0x3d45e5ee	0.04831498
250	0xbcdf9517	-0.027292771
251	0x3d28e850	0.041237175
252	0xbc1a035f	-0.009400218
253	0x3c1e72bb	0.009670909
254	0x3d65b2b1	0.056078617
255	0x3cb039c3	0.021511918
